model.pt (torch, 2015 bytes, 2 tensors)

bias f4 [128]
0	0x3cdce6e5	0.026965568
1	0xbd3462ff	-0.044039723
2	0xbd700a96	-0.058603846
3	0x3ccff9dc	0.025387697
4	0xbbd171ee	-0.0063917553
5	0xbd2ac339	-0.041690085
6	0xbc18d15c	-0.009327259
7	0x3c1bd466	0.009511089
8	0x3c558e0b	0.013034354
9	0xbc80a24d	-0.015702391
10	0xbcd7f59c	-0.026362233
11	0xbc273b5b	-0.010207023
12	0xbcb31734	-0.02186165
13	0xbc972c5a	-0.018453766
14	0x3d5954cd	0.053059388
15	0xbd35bb80	-0.044368267
16	0x3c2f40bf	0.010696589
17	0x3d2d4c14	0.042308882
18	0xbd277a45	-0.04088809
19	0xbd1e8a65	-0.038706202
20	0xbd2cc821	-0.042183045
21	0xbbdd2cf5	-0.006749744
22	0xbd5b5ef9	-0.05355737
23	0x3bab000e	0.0052185124
24	0xbc9d1370	-0.019174308
25	0xbd9a0188	-0.07519823
26	0x3d1d9eee	0.038481645
27	0xbd230226	-0.03979697
28	0x3d205f9d	0.039153684
29	0x3d2dd9a8	0.0424439
30	0x3c2c2491	0.010506765
31	0x3ceb091c	0.028690867
32	0xbd672e47	-0.056440618
33	0xbd8076a3	-0.06272628
34	0x3d6dc0e5	0.058045287
35	0xbc8bf94f	-0.017086653
36	0xbb49a86d	-0.0030770556
37	0xbcdb950a	-0.026804466
38	0xbd6cf82a	-0.057853855
39	0xbd58a243	-0.05288912
40	0x3d670d69	0.056409273
41	0xbcb4f20a	-0.02208807
42	0x3d147c09	0.0362511
43	0xbd2a7dcc	-0.041623875
44	0xbc33e852	-0.010980682
45	0xbc64b402	-0.013958933
46	0xbcbaf426	-0.022821497
47	0x3c8a8115	0.016907254
48	0xbd16eb1b	-0.036845308
49	0xbd4d914a	-0.050187387
50	0x3d8cd686	0.068768546
51	0xbcb1e05c	-0.021713428
52	0xbbea367f	-0.0071476097
53	0x3d087df4	0.033323243
54	0xbc90a6bc	-0.01765763
55	0x3b9791bb	0.0046255267
56	0xbd088ed5	-0.03333934
57	0x3d4ce927	0.05002704
58	0xbd2bb9ff	-0.041925427
59	0x3d67c67d	0.056585778
60	0x3c1725d5	0.009225328
61	0x3d1fe7e3	0.039039504
62	0x3d8336d2	0.064069405
63	0xbd2695b7	-0.040670123
64	0xbd7a8601	-0.061162952
65	0x3d5c99a6	0.053857468
66	0xbcf2e028	-0.029647902
67	0xbc5aac41	-0.013346733
68	0x3d1018cd	0.035179902
69	0xbd828ff5	-0.06375114
70	0xbd84cafd	-0.064840294
71	0x3cbab59c	0.022791676
72	0x3d54dacd	0.051966477
73	0xbcfdf4c4	-0.031000502
74	0x3d28fa1a	0.04125414
75	0x3cbb51d3	0.022866165
76	0x3cf33de9	0.029692607
77	0xbd7cf173	-0.0617537
78	0x3d13f29f	0.036120053
79	0xbccadc2e	-0.024763193
80	0xbcf22fec	-0.029563867
81	0xbd1c9246	-0.038225435
82	0x3c9c44e7	0.019075824
83	0xbd726fca	-0.05918864
84	0x3b72d675	0.0037054096
85	0xbd3501b0	-0.044191062
86	0xbbfdde04	-0.0077474136
87	0xbd73ca56	-0.059519134
88	0x3ce4d358	0.027932808
89	0xbd5d2f37	-0.054000106
90	0xbd3e45a1	-0.046453122
91	0xbd0fc228	-0.03509727
92	0x3cff3d56	0.031157177
93	0x3c29f115	0.01037242
94	0xbcae2713	-0.021258866
95	0xbcbfa36b	-0.023393353
96	0xbd08abce	-0.03336697
97	0xbc958acc	-0.01825466
98	0x3d8277b8	0.06370491
99	0xbba5fe45	-0.0050657117
100	0x3cdbe10c	0.02684071
101	0xbcccdf50	-0.025008827
102	0x3c5156f4	0.012777079
103	0x3c2b1b96	0.010443589
104	0xbd202802	-0.039100654
105	0xbc63a286	-0.013893729
106	0xbc4fb6be	-0.0126778465
107	0x3d7c0bf9	0.061534856
108	0xbc0cf068	-0.008602239
109	0xbd0ef0a7	-0.034897473
110	0x3cc35020	0.023841918
111	0x3c9a20c3	0.01881445
112	0x3ca62582	0.020281557
113	0x3d3af66e	0.04564517
114	0xbd0778ed	-0.03307431
115	0xbd4152cd	-0.047198106
116	0xbcdb3dd1	-0.026762875
117	0x3c0d4b17	0.00862386
118	0x3d5afcf3	0.053463887
119	0x3d49af52	0.049239464
120	0xbd1a6155	-0.03769048
121	0x3d42c504	0.04755117
122	0x3d28abab	0.04117934
123	0xbd601c97	-0.054714765
124	0x3c74aa2b	0.014933149
125	0xbd11f4a4	-0.035633698
126	0xbc5d884e	-0.013521267
127	0xbd1dabbc	-0.038493857

lin.weight f4 [128, 1]
0	0x3e938613	0.28813228
1	0xbebfb2dd	-0.3744115
2	0xbef3ddc5	-0.47630134
3	0x3e925be6	0.28585738
4	0xbd4789b8	-0.048715323
5	0xbe8ccbd2	-0.27499253
6	0xbe0b7b06	-0.13621148
7	0x3da5666d	0.08076177
8	0x3e0a6a30	0.1351707
9	0xbdfd86d4	-0.12379232
10	0xbe8fca3e	-0.28083986
11	0xbdaa7aa3	-0.08324172
12	0xbe7a2fdb	-0.24432318
13	0xbe208f76	-0.15679726
14	0x3eaf1704	0.34197247
15	0xbe986831	-0.29766992
16	0x3dc3f4cb	0.09568175
17	0x3eaf4699	0.3423355
18	0xbe9cc039	-0.30615404
19	0xbe937e6e	-0.28807396
20	0xbeb54a9e	-0.3540849
21	0xbdb94b10	-0.0904752
22	0xbed6cd79	-0.41953638
23	0x3d44d6d6	0.048056446
24	0xbe60b640	-0.21944523
25	0xbf218a07	-0.6310124
26	0x3e9f5782	0.3112145
27	0xbe8ae366	-0.27126616
28	0x3e8b6e6f	0.27232692
29	0x3eb3e5bd	0.35136214
30	0x3d9fbcce	0.077996835
31	0x3e66aa1e	0.22525832
32	0xbed5b3a5	-0.4173862
33	0xbef7dbda	-0.4840992
34	0x3ef66120	0.48120975
35	0xbe05712e	-0.13031456
36	0xbcce9f65	-0.02522249
37	0xbe7b2a69	-0.24527897
38	0xbed149b0	-0.40876532
39	0xbed8e2f2	-0.42360646
40	0x3ef67f50	0.48144007
41	0xbe5a233d	-0.21302505
42	0x3e9e418e	0.3090939
43	0xbeabb25e	-0.3353452
44	0xbdb877ee	-0.0900725
45	0xbe2b1450	-0.16706967
46	0xbe2f2cc7	-0.17106925
47	0x3e3608c0	0.17776775
48	0xbe9cc264	-0.30617058
49	0xbed61928	-0.41816068
50	0x3f033b19	0.5126205
51	0xbe4bd887	-0.19906817
52	0xbd406bb2	-0.046977706
53	0x3eb986c4	0.3623563
54	0xbe1533de	-0.14570567
55	0x3d129191	0.035783354
56	0xbe8b8e50	-0.27257013
57	0x3ec07f21	0.37596992
58	0xbeb8a5e7	-0.36064073
59	0x3ee941bd	0.45557967
60	0x3d923438	0.07138866
61	0x3ea434d6	0.3207156
62	0x3f0e1616	0.5550245
63	0xbeb17233	-0.3465744
64	0xbefc10c2	-0.49231535
65	0x3ee91c22	0.45529276
66	0xbe639291	-0.2222388
67	0xbdec8c0f	-0.115501516
68	0x3e9eea5e	0.31038183
69	0xbf036c17	-0.51336807
70	0xbef8419d	-0.4848756
71	0x3e403c8f	0.18773101
72	0x3edfc930	0.4370818
73	0xbe5f8b8d	-0.21830578
74	0x3eaea01c	0.3410653
75	0x3e4153e4	0.18879658
76	0x3e5d15c3	0.21590333
77	0xbf00d552	-0.503255
78	0x3e9e8c90	0.30966616
79	0xbe256508	-0.16151822
80	0xbe7c13bc	-0.24616903
81	0xbe94d220	-0.29066563
82	0x3e14f1bb	0.14545338
83	0xbefad5b4	-0.48991168
84	0x3cede828	0.029041365
85	0xbecf19c7	-0.40449354
86	0xbdccc549	-0.09998567
87	0xbeea7c4e	-0.45797962
88	0x3e84c0cc	0.25928342
89	0xbede6e20	-0.43443394
90	0xbec472fb	-0.38368973
91	0xbe8d5d02	-0.27610022
92	0x3e8673ea	0.2626031
93	0x3e1883b5	0.14893992
94	0xbe226afe	-0.15861127
95	0xbe480a13	-0.19535093
96	0xbeb69087	-0.3565714
97	0xbe3b61e8	-0.18299067
98	0x3f1f9b13	0.62346
99	0xbd1e256d	-0.03860991
100	0x3e6677a5	0.22506578
101	0xbe4f3d0f	-0.20238136
102	0x3e0bc50a	0.13649383
103	0x3dafa2ae	0.085759506
104	0xbea4af1e	-0.32164854
105	0xbe319822	-0.1734319
106	0xbdb3fbec	-0.08788285
107	0x3eda5e72	0.4265018
108	0xbe0c483c	-0.1369943
109	0xbe6a7bac	-0.2289874
110	0x3e8ca66d	0.27470723
111	0x3e3f6b64	0.1869331
112	0x3e71dd61	0.23619606
113	0x3ec04824	0.3755504
114	0xbea856f1	-0.3287883
115	0xbec3d127	-0.38245508
116	0xbea16b74	-0.31527293
117	0x3d5c9e64	0.05386199
118	0x3ed479f5	0.41499296
119	0x3ebc1e02	0.36741644
120	0xbeadebc9	-0.33968952
121	0x3edcdfd7	0.43139526
122	0x3ed1373a	0.40862447
123	0xbedfc4dd	-0.43704882
124	0x3e5c1b47	0.2149478
125	0xbe95b84c	-0.2924217
126	0xbdf1c6e0	-0.118055105
127	0xbec42ac5	-0.3831388
