trained_variables.pt (torch, 206441 bytes, 12 tensors)

conv1.bias f4 [128]
00000000: 0000 0000 0000 0000 0000 0000 dc78 8bbb
00000010: 0000 0000 c58a 23be 87d2 a2bc 0000 0000
00000020: 0000 0000 b3df 21be 96c8 88bd 76e3 73bd
00000030: d958 14bd 0000 0000 72ec 3ebe 0000 0000
00000040: 0000 0000 0000 0000 81c2 41be 3a0f 26bd
00000050: 2300 32be 0000 0000 2b43 c7bd 0000 0000
00000060: 0000 0000 542a edbc cfb4 51be 0000 0000
00000070: 0000 0000 9ce2 afbd 9163 08be 6248 0ebe
00000080: b8d9 48be 0000 0000 4e65 36be fd33 34bc
00000090: 0000 0000 393d 3abe 59ac 61bd 3ecd 0bbd
000000a0: 6aeb 67bd 2320 deba 0000 0000 db83 08bd
000000b0: 0000 0000 0000 0000 0000 0000 0000 0000
000000c0: 0000 0000 acc9 69bd 0000 0000 0000 0000
000000d0: e191 53bd 448b 0dbe b854 1abe 0000 0000
000000e0: 0000 0000 0000 0000 68f0 d4bd 0000 0000
000000f0: 4884 14be ebed 1ebb 0000 0000 0000 0000
00000100: 0000 0000 42e1 09be 4718 1fbe 0000 0000
00000110: 0000 0000 1dd8 3abd ba2b 2dbd 32af ddbd
00000120: 2353 1cbe 630a 8bbd 0000 0000 e0d6 2ebd
00000130: 0000 0000 0000 0000 f841 24be 0000 0000
00000140: 0478 44be 0000 0000 0000 0000 d13b 15bd
00000150: 29ca e0bd 0e48 2bbe 7b6f 3cbe 0000 0000
00000160: 0000 0000 0000 0000 7a7a 47bd 0000 0000
00000170: 0000 0000 0000 0000 0000 0000 0000 0000
00000180: 1eb0 17be c9ee 89bd 707a a3bd 02fc 1dbc
00000190: 84f5 3cbd 0000 0000 92a8 ccbc 4658 41be
000001a0: 0000 0000 8e0e 48bb 0000 0000 1753 90bd
000001b0: fe94 8ebe e949 13be 0000 0000 0000 0000
000001c0: 2d0b 4fbe c505 2bbe e453 23be 0000 0000
000001d0: 6b12 4ebe 0000 0000 38d3 35be 0000 0000
000001e0: c3fc 2dbe 9e2e 3fbe 739d 89bd a6a1 aabc
000001f0: 0000 0000 10da 08be 5f52 b9bd 0000 0000
0.0 0.0 0.0 -0.004256351 0.0 -0.15970905 -0.019875778 0.0
0.0 -0.1580799 -0.06678884 -0.059543096 -0.036217544 0.0 -0.18644884 0.0
0.0 0.0 -0.18921854 -0.040541865 -0.17382865 0.0 -0.09729608 0.0
0.0 -0.028950848 -0.20479129 0.0 0.0 -0.08588144 -0.13319232 -0.138948
-0.19614303 0.0 -0.17812082 -0.010998723 0.0 -0.18187417 -0.055096004 -0.03413128
-0.056620993 -0.0016946833 0.0 -0.033328872 0.0 0.0 0.0 0.0
0.0 -0.057077095 0.0 0.0 -0.051652793 -0.13822657 -0.1507138 0.0
0.0 0.0 -0.10397416 0.0 -0.14503586 -0.0024250697 0.0 0.0
0.0 -0.13464835 -0.15536605 0.0 0.0 -0.045616258 -0.04227803 -0.108244315
-0.15266089 -0.067890905 0.0 -0.04268539 0.0 0.0 -0.1604079 0.0
-0.19186407 0.0 0.0 -0.036434 -0.10976059 -0.16726705 -0.18401901 0.0
0.0 0.0 -0.048700787 0.0 0.0 0.0 0.0 0.0
-0.14813277 -0.06734998 -0.079823375 -0.009642603 -0.04613258 0.0 -0.024982724 -0.1888133
0.0 -0.0030526253 0.0 -0.07047098 -0.27848047 -0.14383663 0.0 0.0
-0.20219107 -0.1670142 -0.1594997 0.0 -0.20124213 0.0 -0.17756355 0.0
-0.16990952 -0.18670127 -0.06719484 -0.020829033 0.0 -0.13364434 -0.09048914 0.0

conv1.lin.weight f4 [128, 1]
00000000: 4e16 3cbe ab46 bbbd fadd dabd 802e 35bb
00000010: 51bb 4bbe 73f2 85b6 e029 84bb f4bb 09be
00000020: 680b 86bc 6a18 2fb8 203f 8bbb 96e0 b3b9
00000030: 75bb 50ba c4fd 1bbe 2602 0237 8bb9 e2bd
00000040: d635 36be 7800 d1bc 89d3 93b9 0f1a f4b9
00000050: a858 9bb5 c22e 35be 3560 40b9 1e12 15be
00000060: 0a82 22be df31 07bb eb7c 96b6 d247 bfbd
00000070: 6ada 04be 1d8d 72b9 1e23 03ba 0912 9bba
00000080: 6997 b6b9 8036 11bc 2ef3 b3b8 6e6b c0b8
00000090: 6c54 23bd baab 58b8 89f8 bfba 6166 60bb
000000a0: 2015 f4b9 913f 05bb 1699 96bd 49dc 25bb
000000b0: b68c 49be 945e cebd 1aca 95bd d6fc 3ebe
000000c0: 72ce 1fbe 778d f5bb fee2 25be 9062 46bc
000000d0: 6338 a2bb af9d 25b8 c467 bdbb 5891 9cbc
000000e0: 8ab0 a4bd 58c3 18be 09ea 18b9 0ae7 0abe
000000f0: f7dd 18b9 9e68 c0ba 980c 83bc aa77 12be
00000100: 8024 f6bd 6f31 8db9 f43b 47b9 90ec 7ebd
00000110: c0b9 ecbc d4f8 0dba 53ca ffb9 fc1b 31b9
00000120: ed24 1237 0764 daba 88a6 1cbe 2568 9dba
00000130: 5d67 1ebe 4a59 3abe 645e 8db8 90fe 3abe
00000140: bfc3 6fb7 58e3 0abd f820 b4bc 676d e3ba
00000150: 49b4 14b7 68e6 17ba c1ba f3b8 5846 f0bc
00000160: e4d8 20be c0cd ecbc e730 26b9 c2ef ccbd
00000170: 225d 96bd 9850 a5bd 995e c2bd b577 58be
00000180: 3995 91b9 8a3b 01b9 9607 dbba df26 c2bb
00000190: 7533 a9ba 61bb d4bd 472d d8ba c5d9 7f37
000001a0: 3736 59be 3372 ebba 6410 11bd 6830 8bba
000001b0: d602 73b9 0ae1 b6ba dc15 11bd 92fd 39be
000001c0: 566b 9bb9 eec0 88b8 eb60 4bb9 27ab 17be
000001d0: 52e8 31b9 7f86 1bbe 40b8 1437 a071 d2bb
000001e0: ed63 f8b8 fa23 e1b9 a8b2 70ba 4352 d63b
000001f0: a182 e2bd ca4f feb8 b71a cdba 4745 2bbe
-0.18367884 -0.09144338 -0.1068687 -0.0027646124 -0.19895674 -3.9919337e-06 -0.004033312 -0.13450605
-0.01636286 -4.174599e-05 -0.0042494684 -0.0003430887 -0.00079625036 -0.15233523 7.749104e-06 -0.11070546
-0.17793974 -0.025512919 -0.0002819563 -0.00046558722 -1.1574202e-06 -0.17693618 -0.00018346387 -0.14557692
-0.15869918 -0.002062909 -4.4848907e-06 -0.093398705 -0.12973943 -0.00023131487 -0.0005002486 -0.0011830936
-0.00034826554 -0.0088630915 -8.580681e-05 -9.175284e-05 -0.039875433 -5.1658346e-05 -0.0014646213 -0.003424071
-0.00046555046 -0.0020332078 -0.073534176 -0.0025308302 -0.19682583 -0.10076633 -0.073139384 -0.18651137
-0.15606096 -0.0074936706 -0.16199872 -0.01210846 -0.0049505695 -3.948592e-05 -0.005780192 -0.019112274
-0.08041485 -0.14918268 -0.00014583034 -0.13564697 -0.00014578538 -0.0014679616 -0.015997216 -0.1430346
-0.120186806 -0.00026930447 -0.00019000453 -0.062237322 -0.028897166 -0.00054158014 -0.00048788133 -0.0001689046
8.710876e-06 -0.001666189 -0.15297902 -0.0012009187 -0.15469117 -0.18198124 -6.7409856e-05 -0.1826117
-1.4291086e-05 -0.03390822 -0.021988377 -0.001735133 -8.863463e-06 -0.0005794526 -0.000116219286 -0.029330418
-0.15707737 -0.028906703 -0.00015849211 -0.10006668 -0.073419824 -0.08072013 -0.09490699 -0.21139415
-0.00027767735 -0.00012324579 -0.0016710635 -0.005925044 -0.0012909012 -0.10387302 -0.0016492986 1.5249888e-05
-0.21212088 -0.0017963111 -0.035416022 -0.0010619285 -0.00023175342 -0.0013952565 -0.035421237 -0.18163136
-0.00029643875 -6.520921e-05 -0.00019395693 -0.14811383 -0.00016966581 -0.15188025 8.8643865e-06 -0.0064222366
-0.00011844174 -0.0004294215 -0.00091818953 0.006540568 -0.11060072 -0.00012126526 -0.001564822 -0.16725646

conv2.bias f4 [128]
00000000: afce 793a 7a86 36bc edaa c33b 4a93 9739
00000010: 262e 373c 902a 4dbb b6fb 9d3a 1373 53bb
00000020: e1bf 6b3b 8b63 17bc 0f8f 893a bcde 6e3a
00000030: ad4c 8dbb 65f2 17bc 9960 b6bb 148f 9cbc
00000040: 4e00 96bb 0687 a13c 1a5f 7c3c aebb a7b7
00000050: d36f 3abc f22c 65bc a19b e1bc a8f9 56b8
00000060: f869 983b 6137 fc3b a719 f339 9c6d 4f3b
00000070: 9cf3 8a3c a187 84bb b368 bb3b 899d 063c
00000080: b675 553b 188e 51bb 7318 273b 725f 4cba
00000090: 400d dc3c 4763 f3bb 77bf f6bb 697f c33c
000000a0: 7f8f 403c 05fb a23a 8eb2 7539 2fdd 003c
000000b0: e9ac d6bb 226b e4ba b5aa 26bb 83d6 17bd
000000c0: dd46 5a3a c3bb 083c cd3d af3a 5ee4 263c
000000d0: 0612 953b 3b2c 40bc 5d0f 8b3b d876 083c
000000e0: 60d5 353c ce89 5a3c 1e46 5e3c d2fc aabb
000000f0: f5d1 a9bc f222 a53c 6464 a8bb 7d87 cb39
00000100: 2de8 c63b 1b80 48bb 6f16 4b3c c0f3 8c3c
00000110: 0ae8 323b 744d acbc 30b4 c43a 7ff2 b3bb
00000120: 4195 a3bc 06be 74bc b529 65ba dee5 073c
00000130: fc15 a1bb f64d dfba 26b5 543a 4da0 acba
00000140: 0c61 4ebb e5b1 0a3c 921d 6fba 8f7a 433b
00000150: ce8f cdbc 3248 393c 3ed1 513b 17b7 97b9
00000160: 4ab2 983c eb7e 353b da50 a039 d565 613c
00000170: 8e1b 07bc 66f4 52bb 2300 8ebb 37d0 93bb
00000180: 3fbd 753a f5f1 d23b 2a32 473b 74b5 97bb
00000190: c25e d2ba 6bb9 55bc e9f7 363c 258a 13bc
000001a0: e8e9 6fbb dc1a 92bc d9f7 d9ba cb03 79bc
000001b0: a6bd 193c 9e83 563c 8f0c 803c b7b0 2639
000001c0: e3e9 843a 8234 6fbc 4ac4 c93b 3a5a 0c3a
000001d0: 9b02 a1bb ce63 183c b20c b63a 4be4 82ba
000001e0: d235 173c 6865 23bc ebf6 f1bb be0e 3339
000001f0: 186a cabc 436b babc 9f6c 93ba ea55 2dbb
0.00095293944 -0.01114046 0.0059713037 0.00028910703 0.011180436 -0.0031305887 0.0012053165 -0.0032264635
0.0035972523 -0.0092400415 0.0010494905 0.00091121695 -0.004312119 -0.0092741 -0.0055657146 -0.019111194
-0.004577673 0.019717705 0.015403533 -1.9995347e-05 -0.0113792 -0.013987767 -0.02754003 -5.1254086e-05
0.0046513043 0.0076970314 0.00046367684 0.0031651026 0.016961865 -0.0040444885 0.005719268 0.00821627
0.0032571382 -0.0031975564 0.002549675 -0.0007796205 0.026861787 -0.0074276063 -0.0075301486 0.023864465
0.011752962 0.0012434429 0.00023431538 0.007865234 -0.006551374 -0.0017426948 -0.002543134 -0.03706981
0.00083265995 0.008345547 0.0013369858 0.010186283 0.0045492677 -0.011729295 0.004243775 0.008329116
0.011098236 0.013338519 0.013566522 -0.005218127 -0.020729998 0.020158265 -0.0051389206 0.00038820124
0.006070158 -0.0030593935 0.012395485 0.017206073 0.002729895 -0.021033026 0.0015007313 -0.0054915543
-0.01996863 -0.014937883 -0.00087418716 0.008294551 -0.004915951 -0.0017036784 0.00081141514 -0.0013170332
-0.003149095 0.008465265 -0.0009121533 0.002982769 -0.025092985 0.011308717 0.0032015587 -0.00028937377
0.018639702 0.0027694057 0.00030577817 0.013757189 -0.008246316 -0.003218913 -0.0043335124 -0.004510905
0.0009374208 0.006437535 0.003039489 -0.004629785 -0.0016049969 -0.013044695 0.011167505 -0.009005104
-0.0036607925 -0.017835073 -0.001662965 -0.015198658 0.009383595 0.013092903 0.015630988 0.00015896825
0.0010140504 -0.014599921 0.0061574327 0.0005354021 -0.0049136407 0.009301139 0.0013889282 -0.000998625
0.00922914 -0.009972908 -0.0073841712 0.00017076262 -0.024708793 -0.022756224 -0.0011247582 -0.0026448914

conv2.lin.weight f4 [128, 128]
00000000: 994b 133e 9a06 efbd 7c08 ebbd 07a1 043e
00000010: d627 803d 2c4b a4bd 3ece 8cbd aeb4 fd3d
00000020: 1379 85bd 31bc ba3d 6a46 043d 8216 043e
00000030: d48e a8bc f4a8 a1bd e404 09bd e04d e43c
00000040: cdf8 1a3e 5946 17be be4b 593c fce9 7b3d
00000050: a61d 8dbd e806 c53c 9933 b4bd 6284 eb3d
00000060: 3825 dc3c 9f9c 793d 5850 583c 4ad7 cf3d
00000070: bc23 443d 19f9 d63d abde fcbd 8a1b 7dbc
00000080: 2677 e13c 283b 78bd e1d1 61bd 26bf db3d
00000090: 7ec0 ca3d 8739 a7bc 5b83 033e 94d3 e7bc
000000a0: 36b0 613d 4d86 6dbd f40e 13bd 3d5e c23d
000000b0: bab0 bebd 4e7b bc3d b927 9cbd b091 bb3d
000000c0: cdfb 103e 26df a33d 786e 9d3d 8aa0 d43d
000000d0: 0f7d 12be 2a89 7a3d 4de3 3ebd 8473 8fbd
000000e0: 0079 bdbd 4ac9 5abd c053 0cbe 0c0b f8bc
000000f0: 4db2 cbbc 84e8 ad3d caf4 c3bd 1c7c 0b3d
00000100: 67a3 febd 537e 2c3d 6026 bfbc 0cab f8bd
00000110: fea9 d63d 1921 873d 4107 4f3d cf43 e6bc
00000120: d8ea ba3d 0fbb 673d aab5 01bd 6b33 fa3d
00000130: ee86 e13d 766a db3d 082c eebd c06a bbbb
00000140: 87e7 5b3d 72eb dcbd 50cc e3bd 67f7 ed3d
00000150: d59f cdbd 3804 acbc ee6b 53bd 9a2d cd3d
00000160: d31e 013e 90e7 a23c 6336 c6bc ec20 633d
00000170: 8042 d3bb 82e0 ec3d dc41 56bd 39a0 dcbd
00000180: 8395 f4bc fe31 e5bd b350 df3c 9c34 b13c
00000190: b2a4 0ebe 9050 173d 682f 143e 342f a83d
000001a0: 2840 0f3d edf8 10be 73c7 8abd 5606 8fbd
000001b0: 4772 753c 444a 803d 602b 0d3c 79e9 a3bd
000001c0: c86d 0bb7 9cba e63c 9d04 a7bd d7b8 1abe
000001d0: 284d eb3c c6da 843d 3a04 6bba e2f1 993d
000001e0: ce48 cfbc 4256 acbd 5340 ae3c d2a5 fdba
000001f0: b733 143e d1ed 7fbd 049d 37bc 802d 19bc
00000200: 8257 ce3d 0db0 ccbd ee10 1fbd e98a b4bd
00000210: 8208 833d f5da b0bd b91e 0abd 2cb0 eebd
00000220: 9231 f3bd a5c8 bd3d 3954 f1bc 802a 033d
00000230: f44b f7bd 0820 323d ebb2 98bc f0a5 6ebc
00000240: 0c1c 34bd 9882 783d 8272 27bd 0b0b 153d
00000250: b9ff 50bd fee9 e73d d698 b83c 6abb 1bbe
00000260: 5a4f eb3d 29df 783c abcd 063c 0064 c9bd
00000270: 146b 0f3d 3795 03be 9cdd f9bd 1dba b93d
00000280: acab d03c c098 313d 3afd 39bd e8ab 0bbe
00000290: c0b7 0abd 8cb8 023d 3fa2 02be bbcc 013c
000002a0: f85e c9bd dbab d93d a036 7d3d bbfb e03d
000002b0: bcd0 bf3d 703c 8a3d dc94 a3bd e64b 42bd
000002c0: 47ef 14be 8810 debd f01a a03d cc21 01be
000002d0: ca24 93bc 9e2b a73d 85ab f03d 97af 0b3e
000002e0: 9ef4 81bd ae27 cabd c41d f1bd bae2 f63d
000002f0: 80be 3ebd 00b9 d4bc 1480 ab3d 947d 4a3d
00000300: 62da fdbd 2509 233c ab95 c2bd b616 e43d
00000310: 4b8d 153e d91f 2f3d 2490 24bc d207 82bd
00000320: f861 ce3c f41c 16be 61d6 14be 0793 9f3b
00000330: cbda e6bd 5f20 80bd 35b7 ce3d 09e1 103e
00000340: a28f 86bd ba67 eb3d 00c7 ac3d b382 0bbe
00000350: 2712 e23d 359e 013b 5643 1fbd 001b 743a
00000360: f04c 0c3c f501 163e 59d7 9dbd 35e6 083e
00000370: e033 bc3b ca4c 09be 00f7 44bb e8e6 a23c
00000380: f187 a33d 45ab aa3d 5543 3bbd 33dc c93c
00000390: cf42 903d 92c6 30bd 6ab6 443d 7cc0 b6bc
000003a0: fa49 b8bd 0e32 5cbd 5011 c63d 5c58 6b3d
000003b0: cda0 7f3a 5cee 7e3d 1550 86bd 50a1 363d
000003c0: 005d 5dbc 7612 623c 2cf9 a23d 23d0 073e
000003d0: b707 a2bd 10e9 05be a94f 803c f439 a83d
000003e0: 9516 57bd 8af6 b63d 2822 07be 0600 ba3c
000003f0: 9597 00be 3dd5 4e3d 2e02 953d 3490 03be
0.14384307 -0.11671181 -0.11476228 0.12952052 0.06257598 -0.080221504 -0.06875275 0.123879775
-0.06517234 0.09117926 0.032293715 0.12899211 -0.020575918 -0.078935534 -0.03345193 0.027869165
0.15133972 -0.14772929 0.013262687 0.06150244 -0.068904206 0.024051145 -0.08798904 0.114998594
0.026873216 0.06094038 0.013202749 0.10148485 0.04788564 0.1049673 -0.12347158 -0.01544846
0.027522635 -0.06060329 -0.055131797 0.10729818 0.09899996 -0.020413173 0.12843077 -0.02829913
0.05509969 -0.057989407 -0.035902932 0.09490631 -0.09311052 0.09203206 -0.07624764 0.09158647
0.14158554 0.080015466 0.07687086 0.10382183 -0.14305519 0.061165966 -0.04660349 -0.07004455
-0.092515945 -0.05341462 -0.13703823 -0.030278705 -0.024865294 0.084916145 -0.09568174 0.034053907
-0.1243351 0.04211266 -0.023333728 -0.121419996 0.10481642 0.0659811 0.050544027 -0.028108506
0.09126824 0.056574877 -0.03166739 0.122168384 0.11012064 0.10713665 -0.11629492 -0.0057195127
0.0536876 -0.10787095 -0.11122954 0.11619454 -0.10040251 -0.020998105 -0.0516166 0.100184634
0.12609415 0.019885808 -0.024195855 0.05545132 -0.0064471364 0.11566259 -0.052308902 -0.107727475
-0.029856449 -0.11191176 0.02726016 0.021631531 -0.13930014 0.036942065 0.14471209 0.08212128
0.034973294 -0.14157458 -0.06776323 -0.0698363 0.014980859 0.06264165 0.008616298 -0.08003516
-8.310606e-06 0.028165154 -0.08155177 -0.15109573 0.028723314 0.0648704 -0.00089651684 0.075168386
-0.02530327 -0.0841489 0.021270907 -0.0019351786 0.14472853 -0.06248266 -0.011206869 -0.009349227
0.100752845 -0.099945165 -0.038834505 -0.088155575 0.06398107 -0.08635513 -0.033720706 -0.11654696
-0.11874689 0.092667855 -0.029459106 0.032022953 -0.12075034 0.04348758 -0.018640002 -0.01456593
-0.04397206 0.06067142 -0.040880688 0.036387485 -0.051025126 0.11323927 0.022533815 -0.15208212
0.114897445 0.015189924 0.008227746 -0.098335266 0.035014227 -0.1284989 -0.12200472 0.090687014
0.025472485 0.043358564 -0.04540751 -0.13639796 -0.033866644 0.03191428 -0.12757204 0.007922347
-0.09832567 0.10628482 0.061819673 0.10985514 0.09365985 0.06749809 -0.07987377 -0.047435664
-0.14544402 -0.10842997 0.07817638 -0.12610549 -0.017961878 0.08162616 0.11751465 0.13641201
-0.06345485 -0.098708495 -0.117732555 0.120549634 -0.046568394 -0.025967121 0.08374038 0.049436167
-0.12395169 0.009950911 -0.09501203 0.11137144 0.1460468 0.04275498 -0.010044131 -0.06349148
0.0251932 -0.14659482 -0.14534904 0.004869822 -0.112722 -0.06256174 0.10093538 0.14148344
-0.065703645 0.11494394 0.08436394 -0.13624077 0.110386185 0.0019778137 -0.038882576 0.00093118846
0.008563265 0.14649184 -0.0770709 0.13369067 0.0057434887 -0.13408199 -0.003005445 0.019885495
0.07984913 0.08333448 -0.04571851 0.024641132 0.07043993 -0.04315812 0.048025526 -0.02230858
-0.08998485 -0.053758673 0.09671271 0.057457313 0.0009751439 0.062239036 -0.06558243 0.044587433
-0.013510942 0.013798347 0.07957682 0.13262992 -0.07911628 -0.13077188 0.015662985 0.08214179
-0.05251177 0.08933742 -0.13196623 0.02270509 -0.12557824 0.05049633 0.07275806 -0.12847978

exp_avg f4 [128]
00000000: 0000 0000 0000 0000 0000 0000 0400 0000
00000010: 0000 0000 0400 0000 0400 0000 0000 0000
00000020: 0000 0000 0400 0000 0400 0000 0400 0000
00000030: 0400 0000 0000 0000 0400 0000 0000 0000
00000040: 0000 0000 0000 0000 0400 0000 0400 0000
00000050: 0400 0000 0000 0000 0400 0000 0000 0000
00000060: 0000 0000 0400 0000 0400 0000 0000 0000
00000070: 0000 0000 0400 0000 0400 0000 0400 0000
00000080: 0400 0000 0000 0000 0400 0000 0400 0000
00000090: 0000 0000 0400 0000 0400 0000 0400 0000
000000a0: 0400 0000 0400 0000 0000 0000 0400 0000
000000b0: 0000 0000 0000 0000 0000 0000 0000 0000
000000c0: 0000 0000 0400 0000 0000 0000 0000 0000
000000d0: 0400 0000 0400 0000 0400 0000 0000 0000
000000e0: 0000 0000 0000 0000 0400 0000 0000 0000
000000f0: 0400 0000 0400 0080 0000 0000 0000 0000
00000100: 0000 0000 0400 0000 0400 0000 0000 0000
00000110: 0000 0000 0400 0000 0400 0000 0400 0000
00000120: 0400 0000 0400 0000 0000 0000 0400 0000
00000130: 0000 0000 0000 0000 0400 0000 0000 0000
00000140: 0400 0000 0000 0000 0000 0000 0400 0000
00000150: 0400 0000 0400 0000 0400 0000 0000 0000
00000160: 0000 0000 0000 0000 0400 0000 0000 0000
00000170: 0000 0000 0000 0000 0000 0000 0000 0000
00000180: 0400 0000 0400 0000 0400 0000 0400 0000
00000190: 0400 0000 0000 0000 0400 0000 0400 0000
000001a0: 0000 0000 0400 0000 0000 0000 0400 0000
000001b0: 0400 0000 0400 0000 0000 0000 0000 0000
000001c0: 0400 0000 0400 0000 0400 0000 0000 0000
000001d0: 0400 0000 0000 0000 0400 0000 0000 0000
000001e0: 0400 0000 0400 0000 0400 0000 3904 8c36
000001f0: 0000 0000 0400 0000 0400 0000 0000 0000
0.0 0.0 0.0 6e-45 0.0 6e-45 6e-45 0.0
0.0 6e-45 6e-45 6e-45 6e-45 0.0 6e-45 0.0
0.0 0.0 6e-45 6e-45 6e-45 0.0 6e-45 0.0
0.0 6e-45 6e-45 0.0 0.0 6e-45 6e-45 6e-45
6e-45 0.0 6e-45 6e-45 0.0 6e-45 6e-45 6e-45
6e-45 6e-45 0.0 6e-45 0.0 0.0 0.0 0.0
0.0 6e-45 0.0 0.0 6e-45 6e-45 6e-45 0.0
0.0 0.0 6e-45 0.0 6e-45 -6e-45 0.0 0.0
0.0 6e-45 6e-45 0.0 0.0 6e-45 6e-45 6e-45
6e-45 6e-45 0.0 6e-45 0.0 0.0 6e-45 0.0
6e-45 0.0 0.0 6e-45 6e-45 6e-45 6e-45 0.0
0.0 0.0 6e-45 0.0 0.0 0.0 0.0 0.0
6e-45 6e-45 6e-45 6e-45 6e-45 0.0 6e-45 6e-45
0.0 6e-45 0.0 6e-45 6e-45 6e-45 0.0 0.0
6e-45 6e-45 6e-45 0.0 6e-45 0.0 6e-45 0.0
6e-45 6e-45 6e-45 4.1728167e-06 0.0 6e-45 6e-45 0.0

exp_avg_sq f4 [128]
00000000: 0000 0000 0000 0000 0000 0000 23f9 9232
00000010: 0000 0000 ac92 b935 0e71 8933 0000 0000
00000020: 0000 0000 9297 d035 1ef4 0c34 f7c6 3b35
00000030: d0a4 ab34 0000 0000 6f6f 4936 0000 0000
00000040: 0000 0000 0000 0000 7305 0e36 c990 7f34
00000050: 5e39 ab35 0000 0000 4039 cc34 0000 0000
00000060: 0000 0000 958c 4333 9695 b035 0000 0000
00000070: 0000 0000 d9a0 5535 a8b4 0d35 67c6 2835
00000080: 520d 7736 0000 0000 5975 be35 ef0d 5134
00000090: 0000 0000 7dc5 2835 563d 2534 be64 8e33
000000a0: 44f8 0735 d737 0a33 0000 0000 0376 1f34
000000b0: 0000 0000 0000 0000 0000 0000 0000 0000
000000c0: 0000 0000 e884 9633 0000 0000 0000 0000
000000d0: 3d77 1834 e879 c835 b2f8 4935 0000 0000
000000e0: 0000 0000 0000 0000 6bb1 f634 0000 0000
000000f0: b4e9 0d35 f5cc 0233 0000 0000 0000 0000
00000100: 0000 0000 4894 2035 7957 b734 0000 0000
00000110: 0000 0000 fbd6 bf34 bab9 3e34 e4dd 1b35
00000120: 07a0 5635 d821 d434 0000 0000 b0c6 0334
00000130: 0000 0000 0000 0000 d32e 6e35 0000 0000
00000140: fe35 a535 0000 0000 0000 0000 415e 4c34
00000150: 038d 0135 4cb2 7335 a4f3 9135 0000 0000
00000160: 0000 0000 0000 0000 4e5e d734 0000 0000
00000170: 0000 0000 0000 0000 0000 0000 0000 0000
00000180: 5b7e 4235 b276 8734 7c56 4a34 1683 2731
00000190: 6372 1234 0000 0000 1019 bf34 9410 be35
000001a0: 0000 0000 9379 3234 0000 0000 5abd 6134
000001b0: b9ab 4435 19fa fc34 0000 0000 0000 0000
000001c0: 969b 4e36 e252 3935 61a6 2735 0000 0000
000001d0: 0d63 6135 0000 0000 ee31 2535 0000 0000
000001e0: 2263 8c35 fbc0 5135 b76e c034 e543 cc3a
000001f0: 0000 0000 6521 e034 4a57 9734 0000 0000
0.0 0.0 0.0 1.7109931e-08 0.0 1.3826261e-06 6.400124e-08 0.0
0.0 1.554132e-06 1.3127325e-07 6.995246e-07 3.197115e-07 0.0 3.0016197e-06 0.0
0.0 0.0 2.116282e-06 2.3801398e-07 1.2757189e-06 0.0 3.8039616e-07 0.0
0.0 4.5529834e-08 1.3156557e-06 0.0 0.0 7.958275e-07 5.278948e-07 6.287359e-07
3.6813622e-06 0.0 1.4190256e-06 1.9469711e-07 0.0 6.287226e-07 1.5389136e-07 6.630715e-08
5.0652693e-07 3.2181415e-08 0.0 1.4850961e-07 0.0 0.0 0.0 0.0
0.0 7.009095e-08 0.0 0.0 1.4199482e-07 1.4936641e-06 7.5240234e-07 0.0
0.0 0.0 4.595016e-07 0.0 5.2866676e-07 3.045439e-08 0.0 0.0
0.0 5.982042e-07 3.415005e-07 0.0 0.0 3.573294e-07 1.7762696e-07 5.8064893e-07
7.995408e-07 3.9512702e-07 0.0 1.2272608e-07 0.0 0.0 8.873005e-07 0.0
1.2309172e-06 0.0 0.0 1.903327e-07 4.8261444e-07 9.078401e-07 1.0874251e-06 0.0
0.0 0.0 4.0115486e-07 0.0 0.0 0.0 0.0 0.0
7.2454503e-07 2.5232072e-07 1.8844179e-07 2.4376212e-09 1.3638923e-07 0.0 3.5594758e-07 1.4160928e-06
0.0 1.662177e-07 0.0 2.1023644e-07 7.326558e-07 4.7120628e-07 0.0 0.0
3.0786955e-06 6.903848e-07 6.245446e-07 0.0 8.396317e-07 0.0 6.153995e-07 0.0
1.0459664e-06 7.813939e-07 3.5843343e-07 0.0015584199 0.0 4.174755e-07 2.8189453e-07 0.0

exp_avg f4 [128, 1]
00000000: 0000 0000 0000 0000 0000 0000 0400 0000
00000010: 0000 0000 0400 0000 0400 0000 0000 0000
00000020: 0000 0000 0400 0000 0400 0000 0400 0000
00000030: 0400 0000 0000 0000 0400 0000 0000 0000
00000040: 0000 0000 0000 0000 0400 0000 0400 0000
00000050: 0400 0000 0000 0000 0400 0000 0000 0000
00000060: 0000 0000 0400 0000 0400 0000 0000 0000
00000070: 0000 0000 0400 0000 0400 0000 0400 0000
00000080: 0400 0000 0000 0000 0400 0000 0400 0000
00000090: 0000 0000 0400 0000 0400 0000 0400 0000
000000a0: 0400 0000 0400 0000 0000 0000 0400 0000
000000b0: 0000 0000 0000 0000 0000 0000 0000 0000
000000c0: 0000 0000 0400 0000 0000 0000 0000 0000
000000d0: 0400 0000 0400 0000 0400 0000 0000 0000
000000e0: 0000 0000 0000 0000 0400 0000 0000 0000
000000f0: 0400 0000 0400 0000 0000 0000 0000 0000
00000100: 0000 0000 0400 0000 0400 0000 0000 0000
00000110: 0000 0000 0400 0000 0400 0000 0400 0000
00000120: 0400 0000 0400 0000 0000 0000 0400 0000
00000130: 0000 0000 0000 0000 0400 0000 0000 0000
00000140: 0400 0000 0000 0000 0000 0000 0400 0000
00000150: 0400 0000 0400 0000 0400 0000 0000 0000
00000160: 0000 0000 0000 0000 0400 0000 0000 0000
00000170: 0000 0000 0000 0000 0000 0000 0000 0000
00000180: 0400 0000 0400 0000 0400 0000 0400 0000
00000190: 0400 0000 0000 0000 0400 0000 0400 0000
000001a0: 0000 0000 0400 0000 0000 0000 0400 0000
000001b0: 0400 0000 0400 0000 0000 0000 0000 0000
000001c0: 0400 0000 0400 0000 0400 0000 0000 0000
000001d0: 0400 0000 0000 0000 0400 0000 0000 0000
000001e0: 0400 0000 0400 0000 0400 0000 752c 193d
000001f0: 0000 0000 0400 0000 0400 0000 0000 0000
0.0 0.0 0.0 6e-45 0.0 6e-45 6e-45 0.0
0.0 6e-45 6e-45 6e-45 6e-45 0.0 6e-45 0.0
0.0 0.0 6e-45 6e-45 6e-45 0.0 6e-45 0.0
0.0 6e-45 6e-45 0.0 0.0 6e-45 6e-45 6e-45
6e-45 0.0 6e-45 6e-45 0.0 6e-45 6e-45 6e-45
6e-45 6e-45 0.0 6e-45 0.0 0.0 0.0 0.0
0.0 6e-45 0.0 0.0 6e-45 6e-45 6e-45 0.0
0.0 0.0 6e-45 0.0 6e-45 6e-45 0.0 0.0
0.0 6e-45 6e-45 0.0 0.0 6e-45 6e-45 6e-45
6e-45 6e-45 0.0 6e-45 0.0 0.0 6e-45 0.0
6e-45 0.0 0.0 6e-45 6e-45 6e-45 6e-45 0.0
0.0 0.0 6e-45 0.0 0.0 0.0 0.0 0.0
6e-45 6e-45 6e-45 6e-45 6e-45 0.0 6e-45 6e-45
0.0 6e-45 0.0 6e-45 6e-45 6e-45 0.0 0.0
6e-45 6e-45 6e-45 0.0 6e-45 0.0 6e-45 0.0
6e-45 6e-45 6e-45 0.037395913 0.0 6e-45 6e-45 0.0

exp_avg_sq f4 [128, 1]
00000000: 0000 0000 0000 0000 0000 0000 9988 fb3e
00000010: 0000 0000 056b 6f42 66ef c93f 0000 0000
00000020: 0000 0000 324d 8842 b8f6 bd40 e42b f141
00000030: ac05 ef40 0000 0000 a362 0643 0000 0000
00000040: 0000 0000 0000 0000 c353 7f42 a3b9 2341
00000050: cffc 4b42 0000 0000 30f5 2641 0000 0000
00000060: 0000 0000 3038 7d3f be5f 3442 0000 0000
00000070: 0000 0000 17c0 ba41 b011 3f41 245b d841
00000080: 72c4 d142 0000 0000 e8d8 0742 09a8 7e40
00000090: 0000 0000 353b 8341 1497 5f40 5299 f33f
000000a0: 7120 7d41 9304 2a3f 0000 0000 b51d 6440
000000b0: 0000 0000 0000 0000 0000 0000 0000 0000
000000c0: 0000 0000 c76c 2140 0000 0000 0000 0000
000000d0: 3bbb 7740 734e 0542 64e8 a641 0000 0000
000000e0: 0000 0000 0000 0000 07a0 4c41 0000 0000
000000f0: 52e2 ad41 2273 1b3f 0000 0000 0000 0000
00000100: 0000 0000 0e9e 8d41 bb1a 0241 0000 0000
00000110: 0000 0000 3a0f 8f41 2282 a940 ee44 8041
00000120: 324c e541 924a 6b41 0000 0000 b5fe 9740
00000130: 0000 0000 0000 0000 02d8 0542 0000 0000
00000140: 1f42 dc41 0000 0000 0000 0000 ff1d ad40
00000150: 675f 5941 33c5 bc41 eca8 1942 0000 0000
00000160: 0000 0000 0000 0000 98f0 0c41 0000 0000
00000170: 0000 0000 0000 0000 0000 0000 0000 0000
00000180: 6ffa a941 4ca9 bd40 7746 ad40 8460 e83b
00000190: 7b50 8740 0000 0000 3f74 0341 417a 1f42
000001a0: 0000 0000 908a 5940 0000 0000 894c af40
000001b0: 30d6 2842 0ccf 7541 0000 0000 0000 0000
000001c0: 2b6e ac42 a63a de41 8307 8f41 0000 0000
000001d0: 1f66 de41 0000 0000 b7ab 7f41 0000 0000
000001e0: 9efa d941 0cf2 bc41 a1e7 ef40 4763 f844
000001f0: 0000 0000 4496 2a41 f678 e040 0000 0000
0.0 0.0 0.0 0.49127653 0.0 59.85451 1.5776184 0.0
0.0 68.15077 5.936367 30.146431 7.4694424 0.0 134.3853 0.0
0.0 0.0 63.8318 10.232821 50.996883 0.0 10.43486 0.0
0.0 0.9891386 45.0935 0.0 0.0 23.343794 11.941818 27.044502
104.88368 0.0 33.961823 3.979006 0.0 16.40391 3.493596 1.9031165
15.82042 0.6641323 0.0 3.5643132 0.0 0.0 0.0 0.0
0.0 2.5222642 0.0 0.0 3.8708026 33.32661 20.863472 0.0
0.0 0.0 12.789069 0.0 21.735508 0.60722554 0.0 0.0
0.0 17.702175 8.131526 0.0 0.0 17.882435 5.2971354 16.033657
28.662205 14.705706 0.0 4.749842 0.0 0.0 33.460945 0.0
27.532286 0.0 0.0 5.4099116 13.585792 23.596289 38.414963 0.0
0.0 0.0 8.808739 0.0 0.0 0.0 0.0 0.0
21.247282 5.926916 5.4148517 0.0070915837 4.2285743 0.0 8.21588 39.86939
0.0 3.3990822 0.0 5.4780927 42.209167 15.363049 0.0 0.0
86.21517 27.778637 17.878668 0.0 27.799864 0.0 15.979423 0.0
27.247372 23.618187 7.497025 1987.1024 0.0 10.661686 7.0147657 0.0

exp_avg f4 [128]
00000000: 0165 43b8 e4c5 33b8 9976 a939 2817 8bb6
00000010: 3d97 1fb9 9eab a038 3c16 29b9 f51f 88b7
00000020: 112e 0039 dbbd bfb9 b8b3 d2b8 f10f b6ba
00000030: f9bd 8d39 c8d1 20b9 5104 50b8 5bb5 9d39
00000040: d31a d437 e36a aeb9 a269 7ab9 d4e0 9fb5
00000050: 2438 a337 47d3 5639 c70b 883a 8488 b8b8
00000060: dda2 6f35 7937 db38 57e3 23b9 b270 dc38
00000070: 9301 66b9 ed86 7739 d86e d337 bb5f ca36
00000080: c802 c4b9 bc01 7636 34d9 11b8 c078 3739
00000090: 1a39 d0b9 6bef 2eb9 7f4f 8fb8 471b 6eba
000000a0: 2869 95b8 1bd2 8cb7 e78e a6b7 61ef bab4
000000b0: 0d20 a1b8 c62a 2337 c8de b136 46d6 a8bb
000000c0: 4e11 5b34 28af a7b6 7184 a9b9 06c2 d538
000000d0: 60c1 c038 48c0 3038 a7a7 8639 c3e3 0439
000000e0: 07f9 7538 0b88 4bb9 5a91 49b9 c3c6 bc36
000000f0: 3c0e d339 af99 c1b9 a403 ccb7 f1dd 1db8
00000100: 2a7d 7a39 4676 f139 b67c 2bb9 5573 80b9
00000110: 2770 3cbb 1393 df39 6d6a f036 c231 9bb7
00000120: 292e b739 7f3c 5039 e833 31b7 8334 e137
00000130: 327b b2b8 b236 3339 80db 43b5 b760 31b7
00000140: a297 4f39 1813 9239 f5c5 2137 9899 053a
00000150: 3d69 763a b523 33b9 f83d 89b9 c6b8 cf36
00000160: 743a 08ba c3e8 ebb6 c8ec c1b4 5006 53b9
00000170: 45fc cb34 ef69 8f3a 3c36 8db8 648a bdb7
00000180: 39b1 11ba d757 b2b8 3c09 97ba 26eb dcb6
00000190: 662a 0839 376e 4639 12ff 82b9 2726 cbb8
000001a0: f7c9 4c3a bf26 8939 bfea a736 f1c0 5f39
000001b0: 7e98 d2b7 8378 32b9 dcac 68b9 28f4 8e3a
000001c0: cdef 3d38 c8b5 5339 b27e 5cb7 e198 92b8
000001d0: 11ea 91b9 d062 d438 2d95 adb9 7cfb 4538
000001e0: 8004 c939 f4e8 4f37 2d5e e0b8 c8b5 0134
000001f0: c34f 573a 847e 2b3a 9dc2 573a e7fe 063a
-4.658569e-05 -4.2861226e-05 0.00032322554 -4.1452186e-06 -0.00015219762 7.661361e-05 -0.00016125379 -1.6227345e-05
0.00012224192 -0.00036571812 -0.000100470555 -0.0013890249 0.00027035156 -0.00015336939 -4.9595084e-05 0.00030080494
2.528486e-05 -0.00033267503 -0.00023881209 -1.1911857e-06 1.9457257e-05 0.00020487337 0.0010379486 -8.799232e-05
8.9271435e-07 0.00010453066 -0.00015629582 0.000105114086 -0.00021935096 0.0002360602 2.5204776e-05 6.0312136e-06
-0.00037386105 3.6657866e-06 -3.477298e-05 0.00017497223 -0.00039715396 -0.00016683123 -6.833579e-05 -0.0009083044
-7.1244605e-05 -1.6787139e-05 -1.9855286e-05 -3.481937e-07 -7.683048e-05 9.725516e-06 5.300946e-06 -0.0051524965
2.040226e-07 -4.9973787e-06 -0.00032332868 0.00010192771 9.191292e-05 4.2140746e-05 0.00025683382 0.00012673349
5.8644477e-05 -0.00019410269 -0.00019223001 5.6259755e-06 0.00040255662 -0.00036926332 -2.432039e-05 -3.7638416e-05
0.00023888485 0.00046055223 -0.00016354289 -0.00024499992 -0.0028753371 0.00042643453 7.164947e-06 -1.850061e-05
0.00034938872 0.00019858962 -1.05621075e-05 2.6846543e-05 -8.510648e-05 0.00017091146 -7.2962575e-07 -1.057254e-05
0.00019797546 0.00027861516 9.642438e-06 0.00050964346 0.0009399837 -0.00017084072 -0.00026176847 6.190591e-06
-0.00051966985 -7.030643e-06 -3.6121332e-07 -0.0002012488 3.7995247e-07 0.0010941605 -6.733506e-05 -2.2594999e-05
-0.0005557719 -8.504063e-05 -0.0011523138 -6.583886e-06 0.00012985765 0.0001892381 -0.00024985574 -9.686901e-05
0.00078120775 0.00026159544 5.004316e-06 0.00021338814 -2.510496e-05 -0.00017020297 -0.0002218964 0.0010906504
4.5284443e-05 0.00020190247 -1.314252e-05 -6.9902984e-05 -0.00027830948 0.00010127353 -0.00033108276 4.7202673e-05
0.0003834106 1.23924e-05 -0.00010698694 1.2080193e-07 0.00082134845 0.00065419846 0.0008230599 0.0005149678

exp_avg_sq f4 [128]
00000000: 5355 3e3e 2311 063d 52c4 b93c 8744 853d
00000010: ab71 e53c 82df ae3e 9e41 993e fc4c 343c
00000020: b911 323c eaae cf3c 0fa3 773e d541 0e3b
00000030: e406 bd3b 66a4 b83c d3b3 1b3c 08e3 ab3d
00000040: 50ce be3b 91db ba3d bc06 443d 68cd a83c
00000050: 688a 063d b563 5e3d e203 353e 7186 253b
00000060: 97fc 003c fa09 943c 0e49 463b 3b78 183c
00000070: 1357 a13d d7fc b23b 153d 2e3c 4632 833c
00000080: 5b4d f23b 3e35 513c a272 7d3b c626 d73b
00000090: d698 513e 7935 9d3c e93b 8b3c 53f3 0b3e
000000a0: eb92 0d3d ebeb 4e3d f5e7 593b bfa2 6b3c
000000b0: 2f81 8a3c ee29 303e b22a 5d3c 7c95 9c3f
000000c0: 5d5e 683c e70e 843c 193e 3c3b 197f d73c
000000d0: a0d6 173c 3c2a 383d 2cc1 b63c a2d7 9e3c
000000e0: 9866 063d 254e 673d 5c6f 3e3d 77be 5d3c
000000f0: ebcf b73d 58b1 aa3d e88e 093c c360 943e
00000100: e7b6 aa3c 1aff 3c3b fa71 643d 8954 8a3d
00000110: c01d 2f3b a3d6 bb3d a6fd 223e ca9b 0a3c
00000120: c2d7 af3d 0bdd 8d3d 21bf ec3c 511a 8b3c
00000130: d813 183c c9ee a73e 9b9f 523c d2db 8b3b
00000140: c887 af3b 9221 b43c 15aa a13d c387 523b
00000150: e5bd 073e 2ee2 e83c b782 593b debb a43b
00000160: cc33 a83d f6ea 5f3c 2c53 f03d cb49 633d
00000170: 4e27 823c 7e3b 4d3b 8ec8 343c 7219 413c
00000180: 70d7 5c3b 54b8 1f3c 0901 5c3b 4122 c23b
00000190: f7c3 173f 770b 223d f684 d83c 788e a93c
000001a0: 8085 cb3b 1cb0 8b3d 858a 183c 7cb9 833d
000001b0: b56e a63c fcbf 3a3d 1810 803d 7771 273b
000001c0: c888 a43c dfc5 873d af33 1c3c 802b b83b
000001d0: 7e8a d03b ff49 b33c 6e63 653b 013a d73b
000001e0: fc54 d13c a09d bf3c 55b7 923c fa1a 433c
000001f0: 24d4 fe3d 7ac7 d43d f51d 4c3b 0eee 543b
0.18587236 0.032731187 0.02267662 0.06507211 0.028008303 0.34154898 0.29932874 0.011004683
0.010868483 0.02535196 0.24183296 0.002170672 0.0057686437 0.022539329 0.009503323 0.08392912
0.005822934 0.0912391 0.047857985 0.020605758 0.03284684 0.054294307 0.17677262 0.0025257135
0.007872722 0.018071163 0.0030255946 0.009306009 0.07877936 0.0054622698 0.01063468 0.016015183
0.0073944754 0.012769042 0.0038673063 0.0065659015 0.20468459 0.019190537 0.01699634 0.1366704
0.03456394 0.050517958 0.003324983 0.014382063 0.016907303 0.17203495 0.013498949 1.2233119
0.014182654 0.016120387 0.0028723537 0.026305722 0.009267479 0.044962153 0.022308908 0.019389931
0.032812685 0.05647101 0.04649292 0.01353418 0.08975204 0.08334607 0.008395888 0.28980073
0.020839168 0.0028838576 0.05577276 0.06754405 0.0026720613 0.09171798 0.15917072 0.008459995
0.085860744 0.06926926 0.028899731 0.016980322 0.009282075 0.32799366 0.012855436 0.004268148
0.0053567626 0.021988664 0.07893769 0.0032124377 0.13256033 0.028428163 0.0033189484 0.0050272783
0.082130045 0.013666859 0.11734614 0.055490296 0.015887883 0.0031315978 0.011034144 0.011785852
0.0033697747 0.009748537 0.0033569953 0.0059244935 0.59283394 0.039561715 0.026430588 0.020697817
0.006210983 0.068206996 0.009310369 0.06431863 0.020316461 0.045593247 0.0625307 0.0025549808
0.020084754 0.06629538 0.009533807 0.00562042 0.006364166 0.02188587 0.0035001892 0.006568194
0.025553219 0.023390591 0.017909685 0.011908287 0.12442806 0.1038961 0.0031145785 0.0032490524

exp_avg f4 [128, 128]
00000000: 0000 0000 0000 0000 0000 0000 0400 0000
00000010: 0000 0000 0400 0000 0400 0000 0000 0000
00000020: 0000 0000 0400 0080 0400 0080 0400 0000
00000030: 0400 0080 0000 0000 0400 0080 0000 0000
00000040: 0000 0000 0000 0000 0400 0000 0400 0000
00000050: 0400 0080 0000 0000 0400 0000 0000 0000
00000060: 0000 0000 0400 0080 0400 0000 0000 0000
00000070: 0000 0000 0400 0080 0400 0080 0400 0000
00000080: 0400 0080 0000 0000 0400 0080 0400 0000
00000090: 0000 0000 0400 0000 0400 0000 0400 0000
000000a0: 0400 0080 0400 0080 0000 0000 0400 0000
000000b0: 0000 0000 0000 0000 0000 0000 0000 0000
000000c0: 0000 0000 0400 0000 0000 0000 0000 0000
000000d0: 0400 0080 0400 0080 0400 0080 0000 0000
000000e0: 0000 0000 0000 0000 0400 0000 0000 0000
000000f0: 0400 0000 0400 0000 0000 0000 0000 0000
00000100: 0000 0000 0400 0000 0400 0000 0000 0000
00000110: 0000 0000 0400 0000 0400 0000 0400 0000
00000120: 0400 0080 0400 0000 0000 0000 0400 0000
00000130: 0000 0000 0000 0000 0400 0080 0000 0000
00000140: 0400 0000 0000 0000 0000 0000 0400 0000
00000150: 0400 0080 0400 0080 0400 0000 0000 0000
00000160: 0000 0000 0000 0000 0400 0080 0000 0000
00000170: 0000 0000 0000 0000 0000 0000 0000 0000
00000180: 0400 0080 0400 0000 0400 0080 0400 0000
00000190: 0400 0080 0000 0000 0400 0000 0400 0080
000001a0: 0000 0000 0400 0080 0000 0000 0400 0080
000001b0: 0400 0000 0400 0080 0000 0000 0000 0000
000001c0: 0400 0080 0400 0080 0400 0080 0000 0000
000001d0: 0400 0080 0000 0000 0400 0080 0000 0000
000001e0: 0400 0080 0400 0080 0400 0000 ff40 fbb7
000001f0: 0000 0000 0400 0080 0400 0000 0000 0000
00000200: 0000 0000 0000 0000 0000 0000 0400 0000
00000210: 0000 0000 0400 0000 0400 0000 0000 0000
00000220: 0000 0000 0400 0080 0400 0000 0400 0000
00000230: 0400 0000 0000 0000 0400 0080 0000 0000
00000240: 0000 0000 0000 0000 0400 0080 0400 0000
00000250: 0400 0000 0000 0000 0400 0000 0000 0000
00000260: 0000 0000 0400 0080 0400 0080 0000 0000
00000270: 0000 0000 0400 0000 0400 0080 0400 0080
00000280: 0400 0000 0000 0000 0400 0080 0400 0000
00000290: 0000 0000 0400 0000 0400 0080 0400 0080
000002a0: 0400 0080 0400 0080 0000 0000 0400 0080
000002b0: 0000 0000 0000 0000 0000 0000 0000 0000
000002c0: 0000 0000 0400 0000 0000 0000 0000 0000
000002d0: 0400 0080 0400 0000 0400 0080 0000 0000
000002e0: 0000 0000 0000 0000 0400 0080 0000 0000
000002f0: 0400 0080 0400 0000 0000 0000 0000 0000
00000300: 0000 0000 0400 0000 0400 0000 0000 0000
00000310: 0000 0000 0400 0000 0400 0000 0400 0080
00000320: 0400 0000 0400 0080 0000 0000 0400 0000
00000330: 0000 0000 0000 0000 0400 0000 0000 0000
00000340: 0400 0000 0000 0000 0000 0000 0400 0080
00000350: 0400 0000 0400 0000 0400 0000 0000 0000
00000360: 0000 0000 0000 0000 0400 0000 0000 0000
00000370: 0000 0000 0000 0000 0000 0000 0000 0000
00000380: 0400 0080 0400 0080 0400 0000 0400 0000
00000390: 0400 0000 0000 0000 0400 0080 0400 0000
000003a0: 0000 0000 0400 0080 0000 0000 0400 0000
000003b0: 0400 0080 0400 0080 0000 0000 0000 0000
000003c0: 0400 0080 0400 0000 0400 0080 0000 0000
000003d0: 0400 0080 0000 0000 0400 0080 0000 0000
000003e0: 0400 0080 0400 0080 0400 0080 2037 8338
000003f0: 0000 0000 0400 0000 0400 0000 0000 0000
0.0 0.0 0.0 6e-45 0.0 6e-45 6e-45 0.0
0.0 -6e-45 -6e-45 6e-45 -6e-45 0.0 -6e-45 0.0
0.0 0.0 6e-45 6e-45 -6e-45 0.0 6e-45 0.0
0.0 -6e-45 6e-45 0.0 0.0 -6e-45 -6e-45 6e-45
-6e-45 0.0 -6e-45 6e-45 0.0 6e-45 6e-45 6e-45
-6e-45 -6e-45 0.0 6e-45 0.0 0.0 0.0 0.0
0.0 6e-45 0.0 0.0 -6e-45 -6e-45 -6e-45 0.0
0.0 0.0 6e-45 0.0 6e-45 6e-45 0.0 0.0
0.0 6e-45 6e-45 0.0 0.0 6e-45 6e-45 6e-45
-6e-45 6e-45 0.0 6e-45 0.0 0.0 -6e-45 0.0
6e-45 0.0 0.0 6e-45 -6e-45 -6e-45 6e-45 0.0
0.0 0.0 -6e-45 0.0 0.0 0.0 0.0 0.0
-6e-45 6e-45 -6e-45 6e-45 -6e-45 0.0 6e-45 -6e-45
0.0 -6e-45 0.0 -6e-45 6e-45 -6e-45 0.0 0.0
-6e-45 -6e-45 -6e-45 0.0 -6e-45 0.0 -6e-45 0.0
-6e-45 -6e-45 6e-45 -2.9951798e-05 0.0 -6e-45 6e-45 0.0
0.0 0.0 0.0 6e-45 0.0 6e-45 6e-45 0.0
0.0 -6e-45 6e-45 6e-45 6e-45 0.0 -6e-45 0.0
0.0 0.0 -6e-45 6e-45 6e-45 0.0 6e-45 0.0
0.0 -6e-45 -6e-45 0.0 0.0 6e-45 -6e-45 -6e-45
6e-45 0.0 -6e-45 6e-45 0.0 6e-45 -6e-45 -6e-45
-6e-45 -6e-45 0.0 -6e-45 0.0 0.0 0.0 0.0
0.0 6e-45 0.0 0.0 -6e-45 6e-45 -6e-45 0.0
0.0 0.0 -6e-45 0.0 -6e-45 6e-45 0.0 0.0
0.0 6e-45 6e-45 0.0 0.0 6e-45 6e-45 -6e-45
6e-45 -6e-45 0.0 6e-45 0.0 0.0 6e-45 0.0
6e-45 0.0 0.0 -6e-45 6e-45 6e-45 6e-45 0.0
0.0 0.0 6e-45 0.0 0.0 0.0 0.0 0.0
-6e-45 -6e-45 6e-45 6e-45 6e-45 0.0 -6e-45 6e-45
0.0 -6e-45 0.0 6e-45 -6e-45 -6e-45 0.0 0.0
-6e-45 6e-45 -6e-45 0.0 -6e-45 0.0 -6e-45 0.0
-6e-45 -6e-45 -6e-45 6.2568346e-05 0.0 6e-45 6e-45 0.0

exp_avg_sq f4 [128, 128]
00000000: 0000 0000 0000 0000 0000 0000 e963 a238
00000010: 0000 0000 daef 9d3d 8893 5039 0000 0000
00000020: 0000 0000 df1b 4f3d 70c4 cf3b 95fc 813b
00000030: e314 943b 0000 0000 d584 f63d 0000 0000
00000040: 0000 0000 0000 0000 4fa4 f03d e579 2d3b
00000050: 649a 993d 0000 0000 fdcd a63c 0000 0000
00000060: 0000 0000 4187 943a 6e9a e13d 0000 0000
00000070: 0000 0000 54d6 5a3c 4ae5 ad3c dc8a 253d
00000080: 8b34 ce3d 0000 0000 e46e 003e 97d7 5e39
00000090: 0000 0000 acb3 fc3c a197 593b 9517 313a
000000a0: f119 df3b 2ede 8f36 0000 0000 4008 553b
000000b0: 0000 0000 0000 0000 0000 0000 0000 0000
000000c0: 0000 0000 2185 803b 0000 0000 0000 0000
000000d0: 75bd 3e3b ffcf 8a3d 60ee 0d3d 0000 0000
000000e0: 0000 0000 0000 0000 d673 d93c 0000 0000
000000f0: f00a 143d baa4 0237 0000 0000 0000 0000
00000100: 0000 0000 16e6 843c a5e7 ba3c 0000 0000
00000110: 0000 0000 76ef cf3b 2f12 1b3b 20f2 003d
00000120: be1e 933d bf73 2f3b 0000 0000 668d 273b
00000130: 0000 0000 0000 0000 9f00 563d 0000 0000
00000140: 958d 923d 0000 0000 0000 0000 2126 a83b
00000150: e253 f73c aa34 f73c 053e 743d 0000 0000
00000160: 0000 0000 0000 0000 0074 a13b 0000 0000
00000170: 0000 0000 0000 0000 0000 0000 0000 0000
00000180: 7831 703d b5a4 c13b 5613 593c 35e6 c533
00000190: a594 f53a 0000 0000 05fd 9a3a e1a5 163e
000001a0: 0000 0000 b127 9538 0000 0000 281b 003c
000001b0: 8df6 de3d ad7a 2f3d 0000 0000 0000 0000
000001c0: d545 503e 7bdc 753d 04ba 8e3d 0000 0000
000001d0: b44c cd3d 0000 0000 c4b2 f43c 0000 0000
000001e0: 2a1d d33d b951 573d e335 563b f160 0c3e
000001f0: 0000 0000 351f 413d 237a 0c3c 0000 0000
00000200: 0000 0000 0000 0000 0000 0000 d4bd e038
00000210: 0000 0000 a156 973d 0b34 5f3a 0000 0000
00000220: 0000 0000 7e89 773d ba5a 2f3b 6c9b b73b
00000230: 1574 163b 0000 0000 7235 a03d 0000 0000
00000240: 0000 0000 0000 0000 a49a a93d f3e8 ca3a
00000250: 32ec a13d 0000 0000 7463 253c 0000 0000
00000260: 0000 0000 99a0 5c3a 1ff3 853d 0000 0000
00000270: 0000 0000 8a4c f03c b80d f53c e5b5 db3c
00000280: 1289 fa3d 0000 0000 3a47 653d face cd38
00000290: 0000 0000 6511 7a3d 444b 8a3b ac95 a23a
000002a0: e62b ab3b de9a e936 0000 0000 8ebf f33a
000002b0: 0000 0000 0000 0000 0000 0000 0000 0000
000002c0: 0000 0000 c649 093b 0000 0000 0000 0000
000002d0: f55c 3e3b 7222 633d 1c2c 533d 0000 0000
000002e0: 0000 0000 0000 0000 d8a9 0b3d 0000 0000
000002f0: cb5d c53c d75c 9737 0000 0000 0000 0000
00000300: 0000 0000 1494 a93c 3f08 d03c 0000 0000
00000310: 0000 0000 d98b 5d3b 68ad 9e3a 23c3 a13c
00000320: 7f51 3d3d b7ab 8c3b 0000 0000 e590 bf3a
00000330: 0000 0000 0000 0000 9c63 123d 0000 0000
00000340: 6808 903d 0000 0000 0000 0000 9a12 3c3b
00000350: 7013 583c c0cb 083d 68ce 863d 0000 0000
00000360: 0000 0000 0000 0000 70c8 943b 0000 0000
00000370: 0000 0000 0000 0000 0000 0000 0000 0000
00000380: 918a 9e3d 8e13 ee3b d0ae 2d3c f81f 6633
00000390: 469a 7e3b 0000 0000 6c66 a93a 7c20 a33d
000003a0: 0000 0000 988f 8138 0000 0000 55ed e63b
000003b0: d089 893d 7093 c23c 0000 0000 0000 0000
000003c0: 796d 563e 1d65 293d af3b 403d 0000 0000
000003d0: 4559 8d3d 0000 0000 7a98 433d 0000 0000
000003e0: ffd4 5b3d 4856 6c3d 937f ac3b cf58 313e
000003f0: 0000 0000 6ecd 9f3c 3849 723c 0000 0000
0.0 0.0 0.0 7.743372e-05 0.0 0.07711764 0.00019891385 0.0
0.0 0.05056369 0.006340556 0.0039668777 0.0045190915 0.0 0.120370544 0.0
0.0 0.0 0.117500894 0.002647036 0.07500151 0.0 0.020361895 0.0
0.0 0.0011331813 0.11015783 0.0 0.0 0.013356764 0.021227498 0.04041563
0.100686155 0.0 0.12542301 0.00021251883 0.0 0.030847393 0.003320195 0.0006755528
0.0068085124 4.287597e-06 0.0 0.0032506138 0.0 0.0 0.0 0.0
0.0 0.00392212 0.0 0.0 0.0029104624 0.06777953 0.03465116 0.0
0.0 0.0 0.026544493 0.0 0.036143243 7.786957e-06 0.0 0.0
0.0 0.016222995 0.022815535 0.0 0.0 0.0063456846 0.0023661961 0.03148091
0.07183598 0.002677187 0.0 0.0025566458 0.0 0.0 0.052246686 0.0
0.07155911 0.0 0.0 0.0051314984 0.030191366 0.03017648 0.05962946 0.0
0.0 0.0 0.0049271584 0.0 0.0 0.0 0.0 0.0
0.058640927 0.005909527 0.013249239 9.215402e-08 0.0018736316 0.0 0.0011824673 0.14711715
0.0 7.112267e-05 0.0 0.007818975 0.108868696 0.042841602 0.0 0.0
0.20339139 0.06002472 0.069690734 0.0 0.100243956 0.0 0.029870398 0.0
0.10308297 0.05256817 0.0032685928 0.13708855 0.0 0.047148902 0.008574042 0.0
0.0 0.0 0.0 0.000107165106 0.0 0.0738957 0.000851453 0.0
0.0 0.060433857 0.0026756958 0.0056032445 0.0022957374 0.0 0.07822694 0.0
0.0 0.0 0.082814485 0.0015480801 0.07906379 0.0 0.010094512 0.0
0.0 0.0008416265 0.06540512 0.0 0.0 0.029333372 0.029913768 0.026820133
0.12233175 0.0 0.05597613 9.813714e-05 0.0 0.061051745 0.004220398 0.0012404225
0.005223739 6.96197e-06 0.0 0.0018596516 0.0 0.0 0.0 0.0
0.0 0.0020948513 0.0 0.0 0.0029047106 0.05545277 0.051555738 0.0
0.0 0.0 0.034097522 0.0 0.024092576 1.8043835e-05 0.0 0.0
0.0 0.020700492 0.025394557 0.0 0.0 0.003380528 0.0012106122 0.019746369
0.0462203 0.004292931 0.0 0.0014615325 0.0 0.0 0.035739526 0.0
0.07032853 0.0 0.0 0.002869761 0.013188228 0.033397436 0.065823376 0.0
0.0 0.0 0.0045404956 0.0 0.0 0.0 0.0 0.0
0.07741273 0.0072655147 0.010600761 5.3580123e-08 0.0038849278 0.0 0.0012924201 0.0796518
0.0 6.177946e-05 0.0 0.007047335 0.06715739 0.023751944 0.0 0.0
0.20940198 0.041356195 0.04693192 0.0 0.069017924 0.0 0.047752835 0.0
0.053669926 0.05769947 0.0052642315 0.17319034 0.0 0.019507136 0.0147879645 0.0
