trained_variables.pt (torch, 7295 bytes, 7 tensors)

bias f4 [128]
000000 76 74 e5 3c 06 48 f5 3c 65 7a ef bc 6b ce ed 3c
       0.028009634 0.02994157 -0.029233167 0.029029092
000010 a1 6f f7 3c 4b cd e6 bc 9d 4e e6 bc f8 aa e6 bc
       0.030204596 -0.028174063 -0.028113658 -0.028157696
000020 0c 91 00 bd 6c 99 e7 3c c9 66 ed 3c fc 46 14 3d
       -0.031388327 0.0282714 0.028979676 0.03620051
000030 cd e9 eb bc 56 a0 f1 bc eb 8d 02 bd 49 ea 20 3d
       -0.028798008 -0.0294954 -0.031873625 0.03928593
000040 54 b2 ed bc a9 9f e6 3c eb 64 e5 bc 36 3b f4 3c
       -0.029015698 0.028152304 -0.028002223 0.02981339
000050 88 79 0e bd 49 de 0e 3d e2 b9 e9 bc 58 07 19 3d
       -0.03478387 0.034879956 -0.028531019 0.03736052
000060 00 39 03 3d 87 64 01 bd db fb e9 3c bb ed f0 3c
       0.03203678 -0.03159001 0.028562477 0.029410234
000070 6a 02 ea bc b8 5f eb 3c 37 9e e9 bc 3b d1 e7 3c
       -0.028565604 0.028732166 -0.028517826 0.028298011
000080 03 6c ec 3c 6d 7e e7 3c 1c c4 e7 bc 84 13 f5 bc
       0.028860098 0.028258527 -0.028291754 -0.029916532
000090 14 01 ec bc d3 50 ed 3c b9 9c 1e 3d 39 34 e9 3c
       -0.028809108 0.028969204 0.03872368 0.028467285
0000a0 b1 25 ea 3c a2 f5 e8 3c c9 0f f9 bc e6 45 e7 bc
       0.028582426 0.02843744 -0.030403035 -0.028231572
0000b0 7d d1 ec 3c f6 93 20 bd b6 6c fe 3c dd 89 14 3d
       0.028908486 -0.039203607 0.031057697 0.03626429
0000c0 0f 09 0b bd b7 e1 e5 bc a5 eb 05 3d fa 31 eb bc
       -0.033944186 -0.02806173 0.03269543 -0.028710354
0000d0 48 22 16 3d 0a f4 f0 3c 99 5a e5 3c 1d 6c fe 3c
       0.036653787 0.029413242 0.027997302 0.031057412
0000e0 d1 a6 f6 3c ee 63 e5 3c 6a cf 02 3d 4d b6 eb 3c
       0.030108841 0.028001752 0.031936087 0.028773451
0000f0 0c b5 e6 bc 09 ee e5 bc 0d 5d 00 bd 19 be e5 3c
       -0.028162502 -0.028067606 -0.03133874 0.028044747
000100 4f 60 26 bd 07 12 e6 bc 96 a7 ec 3c 96 df 03 3d
       -0.04061919 -0.028084768 0.028888505 0.03219565
000110 bb 15 e6 3c 97 8c e8 bc de 7b e5 3c 8a 3d 0c bd
       0.028086534 -0.028387351 0.028013166 -0.034238376
000120 6a 47 14 bd 64 c6 ea 3c 3e b9 02 3d 73 20 f6 3c
       -0.03620092 0.028659053 0.031914942 0.03004477
000130 2a 08 02 bd 4d 0b e7 bc cf 65 1f 3d be c6 0a bd
       -0.031746067 -0.02820363 0.03891545 -0.03388094
000140 1d 61 fd 3c e8 e0 f0 bc cc da ec 3c b6 79 f6 bc
       0.030930096 -0.029404119 0.028912924 -0.030087333
000150 9a 07 e9 3c 8c 73 e6 bc 05 e8 1b bd 69 f1 e7 bc
       0.028446008 -0.028131269 -0.038063068 -0.028313356
000160 b6 b1 e8 3c e8 7a fa bc 5d 53 e6 3c bf e2 15 3d
       0.028405052 -0.030576184 0.028115923 0.036593195
000170 04 8e e6 3c 5f 1c ef bc 07 1e e7 bc a8 85 e7 3c
       0.02814389 -0.029188333 -0.02821256 0.028261974
000180 cd f7 ef 3c ef 50 ea 3c 98 40 16 3d bf f0 ed 3c
       0.029292965 0.028603045 0.036682695 0.02904546
000190 a7 87 eb bc 46 6a e6 bc 5c f9 e5 bc 39 cd fa 3c
       -0.028751208 -0.028126847 -0.028073005 0.030615436
0001a0 73 5d f4 3c 85 af ea 3c 1c 34 e7 3c 3d e5 f3 bc
       0.029829716 0.028648147 0.02822309 -0.029772395
0001b0 93 a1 e5 bc e6 89 e6 bc 9a 9a e8 3c 34 11 f4 3c
       -0.028031146 -0.028141927 0.028394032 0.02979336
0001c0 53 83 ef bc eb c0 f1 3c 28 8a e9 bc 28 8d 0a 3d
       -0.029237425 0.029510936 -0.02850826 0.033826023
0001d0 ad 75 21 3d 58 83 e5 3c 88 fe e7 3c bd 73 f9 bc
       0.039418865 0.028016731 0.028319612 -0.030450696
0001e0 2e cc 25 3d b4 c1 02 3d 6e 92 e8 3c c2 14 e6 3c
       0.040477924 0.03192301 0.028390136 0.02808607
0001f0 6d 29 f3 bc 03 72 e6 3c 70 ea e9 3c 57 b4 e6 3c
       -0.02968284 0.028130537 0.028554171 0.028162165

lin.weight f4 [128, 1]
000000 83 cb 76 3e 8e 23 cc 3d 39 3d ff bd 6c 23 0a 3e
       0.24101071 0.09967719 -0.12462849 0.13490075
000010 e0 c8 be 3d b8 e9 59 be bf ae 63 be ba 67 5c be
       0.093156576 -0.21280563 -0.22234629 -0.21523944
000020 c8 04 96 bd 37 e5 4b 3e 8e 03 0d 3e 51 16 40 3d
       -0.07325131 0.19911657 0.13770887 0.046896283
000030 f8 c6 18 be be 15 e9 bd 92 8e 8b bd ca 6e 29 3d
       -0.1491965 -0.113811 -0.068143025 0.041365422
000040 09 e2 0a be 9f 63 5d 3e 27 53 78 be bf 8a d3 3d
       -0.13562788 0.21620034 -0.2425047 0.10329198
000050 ee 6e 4f bd ab 78 4d 3d e8 b1 2e be 3b e4 35 3d
       -0.0506429 0.050163906 -0.17060053 0.04440711
000060 1c 42 88 3d 83 6d 91 bd ef be 2b 3e 30 c8 ef 3d
       0.06653234 -0.07100966 0.16772054 0.117081046
000070 96 72 2b be 21 9a 1d 3e 34 fc 2f be 1e 81 48 3e
       -0.1674293 0.15390827 -0.17186052 0.19580504
000080 c2 86 14 3e a0 a4 4d 3e fe 4a 49 be 32 88 cd bd
       0.14504531 0.2008233 -0.19657513 -0.10035743
000090 90 ff 17 be a2 9a 0d 3e 2b 83 2d 3d 60 f8 34 3e
       -0.14843583 0.13828519 0.04236142 0.17672873
0000a0 97 f7 29 3e e1 2c 38 3e 01 06 b6 bd a0 72 51 be
       0.16598354 0.1798587 -0.08887864 -0.20453882
0000b0 e9 51 11 3e eb e6 2d bd 04 37 9f 3d 59 af 3e 3d
       0.14191402 -0.04245655 0.07774165 0.046553943
0000c0 61 a0 5d bd 07 e7 6c be ff 47 7b 3d 0e 44 1f be
       -0.054108027 -0.23135005 0.061347958 -0.15553305
0000d0 c1 50 3a 3d 5a 8e ef 3d 47 54 79 3e 8e 04 9f 3d
       0.04548717 0.11697073 0.24348556 0.077645406
0000e0 64 4f c3 3d d1 66 78 3e 21 01 8a 3d 69 85 1a 3e
       0.09536627 0.24257971 0.067384966 0.15089954
0000f0 e7 c3 5b be c9 bf 6b be 82 5e 97 bd 57 0d 70 3e
       -0.2146145 -0.23022379 -0.07391073 0.23442589
000100 5c ae 23 bd e0 b3 68 be 65 a1 12 3e b7 5c 85 3d
       -0.039961204 -0.22724867 0.1431938 0.065118246
000110 aa 4a 68 3e 5f b3 3d be 23 28 76 3e 1d dc 57 bd
       0.22684732 -0.18525456 0.24038748 -0.05270015
000120 6a bb 3f bd 57 60 23 3e 4f bf 8a 3d 50 9b c6 3d
       -0.04680959 0.1595472 0.067747705 0.09697592
000130 b2 14 8e bd ef 7f 55 be c7 70 2e 3d aa c8 5f bd
       -0.06937541 -0.20849584 0.04258802 -0.054634728
000140 a9 11 a3 3d 28 42 f0 bd e4 13 11 3e c3 73 c4 bd
       0.07962353 -0.11731368 0.14167744 -0.09592392
000150 2c 32 37 3e 30 c4 60 be 67 be 32 bd 36 7b 46 be
       0.17890233 -0.2194984 -0.043638613 -0.19382939
000160 34 b1 3b 3e 89 34 af bd 81 59 63 3e 0c c6 3c 3d
       0.18329316 -0.08554942 0.22202112 0.04608731
000170 d3 b0 5e 3e e3 c6 01 be 87 22 54 be 14 2a 4d 3e
       0.2174714 -0.12673526 -0.20716296 0.20035583
000180 6b c2 f9 3d 4a 19 28 3e 09 92 3d 3d 7d 3c 09 3e
       0.121952854 0.16415897 0.046281848 0.1340198
000190 d0 28 1c be fe 69 61 be 72 be 6a be 76 9d ad 3d
       -0.15249944 -0.22013089 -0.22924212 0.08477299
0001a0 a2 8f d2 3d b8 41 24 3e 54 95 52 3e 22 0b d6 bd
       0.10281302 0.16040695 0.20564777 -0.10451342
0001b0 cd ad 72 be bc 11 5f be f3 e3 3c 3e 36 c3 d4 3d
       -0.23699112 -0.21784109 0.1844633 0.10388796
0001c0 c3 e0 fe bd 1e ec e7 3d ea eb 30 be e6 ff 5e 3d
       -0.12445214 0.11324333 -0.17277494 0.054443263
0001d0 db 7f 2d 3d 13 7f 75 3e b5 c5 45 3e 8e 13 b4 bd
       0.04235826 0.23974256 0.193137 -0.08792792
0001e0 1e bc 26 3d 18 4a 8a 3d df 59 3d 3e 1e 77 68 3e
       0.040706746 0.067524135 0.18491314 0.2270169
0001f0 be c6 db bd d0 e8 60 3e 8b 87 2c 3e d4 d8 5b 3e
       -0.107312664 0.21963811 0.1684858 0.21469432

exp_avg f4 [128]
000000 d0 03 8c bc 6f 2b 05 bc ad c1 1e 3c 0d 5d 29 bc
       -0.017091662 -0.008128031 0.009689731 -0.010337126
000010 2b 1e fd bb f7 84 7a 3c e5 3f 82 3c 91 10 7d 3c
       -0.0077245436 0.01529049 0.015899608 0.015445844
000020 76 7c d5 3b 34 34 6c bc 43 45 2c bc f9 24 a7 bb
       0.006515081 -0.014416743 -0.01051456 -0.005100843
000030 ce 30 38 3c a3 9f 13 3c b4 a8 cb 3b 2c 5e a1 bb
       0.011242105 0.009010228 0.0062151793 -0.0049245562
000040 64 1f 2a 3c 25 10 7e bc ef cc 8c 3c f1 d9 08 bc
       0.010383461 -0.015506779 0.017187564 -0.0083527425
000050 f1 59 ac 3b 0a 83 ab bb b8 74 4e 3c 08 1c a4 bb
       0.0052597453 -0.005234127 0.01260107 -0.0050082244
000060 8c 90 c8 bb 0e 27 d1 3b 06 73 4b bc 13 fa 16 bc
       -0.006120747 0.0063828295 -0.01241756 -0.009214896
000070 13 27 4b 3c 21 14 3d bc d0 c4 4f 3c a5 be 68 bc
       0.012399453 -0.011540444 0.012681201 -0.014205609
000080 15 e0 33 bc be fc 6d bc 46 8e 69 3c 5b de 05 3c
       -0.010978718 -0.01452559 0.014255112 0.008170689
000090 99 66 37 3c 0f de 2c bc 3c 65 a2 bb 1d d6 54 bc
       0.011193895 -0.01055099 -0.0049559157 -0.012990502
0000a0 f1 a3 49 bc af 19 58 bc 42 81 f4 3b 78 e0 71 3c
       -0.012307153 -0.013189717 0.007461698 0.01476299
0000b0 bc a0 30 bc ed 85 a3 3b fc 4b de bb 67 8b a6 bb
       -0.01078051 0.0049903304 -0.0067839604 -0.005082536
0000c0 d5 0c b2 3b 02 f6 86 3c 97 e7 be bb 2c c6 3e 3c
       0.0054336586 0.016474728 -0.0058259475 0.011643928
0000d0 f8 09 a5 bb e5 dc 16 bc 93 4f 8d bc 9b 17 de bb
       -0.0050365888 -0.009207939 -0.017249858 -0.0067777163
0000e0 bd ca 00 bc 23 d6 8c bc c8 2a ca bb dc f3 39 bc
       -0.007860837 -0.017191952 -0.0061696507 -0.0113496445
0000f0 3d 69 7c 3c 1c 5f 86 3c c4 c7 d6 3b 4b 91 88 bc
       0.01540595 0.016402774 0.0065545756 -0.016670844
000100 39 f6 a0 3b 88 d0 84 3c 72 f4 31 bc d9 e3 c5 bb
       0.0049121645 0.016212717 -0.010861503 -0.0060391244
000110 e7 99 84 bc 7c bc 5d 3c 47 b0 8b bc 29 a5 af 3b
       -0.016186668 0.013533708 -0.017051829 0.005360265
000120 d5 f9 a6 3b 1b f1 42 bc 5f e4 ca bb dc 6c 02 bc
       0.0050957003 -0.011898304 -0.0061917747 -0.007960524
000130 89 02 ce 3b 5e 03 76 3c eb 3c a3 bb 35 0a b3 3b
       0.0062869233 0.015015451 -0.004981627 0.0054638633
000140 df 03 e2 bb 06 39 17 3c f5 61 30 bc aa 5d 01 3c
       -0.006897434 0.009229904 -0.010765542 0.007895866
000150 57 1a 57 bc 84 c2 80 3c 7d d7 a3 3b 1a b0 66 3c
       -0.0131288385 0.015717752 0.0050000534 0.014080072
000160 dd ae 5b bc f8 d3 ed 3b 7f 13 82 bc 26 30 a6 bb
       -0.01340839 0.0072579347 -0.015878437 -0.0050716577
000170 81 64 7f bc 27 ee 20 3c a4 9e 74 3c ac 7f 6d bc
       -0.015587927 0.009822405 0.014930401 -0.014495771
000180 d3 fd 1b bc a5 bd 47 bc d4 c4 a6 bb ac 73 28 bc
       -0.009520966 -0.012191211 -0.0050893817 -0.010281485
000190 0b 9f 3b 3c 34 17 81 3c 97 db 85 3c dc 40 ec bb
       0.011451493 0.015758134 0.01634006 -0.0072098803
0001a0 e6 5c 08 bc 12 d6 43 bc 76 07 73 bc b2 1a 0a 3c
       -0.00832293 -0.011952894 -0.014833322 0.008429216
0001b0 ec e9 89 3c 36 c9 7f 3c 69 e7 5c bc a2 75 09 bc
       0.016835175 0.015611937 -0.013482907 -0.008389862
0001c0 18 93 1e 3c be 08 13 bc c4 b8 50 3c 5d 84 b2 bb
       0.009678625 -0.008974252 0.012739364 -0.005447908
0001d0 6a b6 a3 bb d6 59 8b bc 53 f5 65 bc 42 98 f2 3b
       -0.0049961107 -0.01701061 -0.014035541 0.0074034045
0001e0 f7 3f a2 bb 6f 6f ca bb 91 5f 5d bc 9f b0 84 bc
       -0.004951473 -0.0061778347 -0.013511554 -0.0161975
0001f0 c8 f6 0c 3c 5f d4 80 bc 0f 3f 4c bc f0 7c 7c bc
       0.008603759 -0.015726266 -0.012466206 -0.015410647

exp_avg_sq f4 [128]
000000 6c c6 ff 39 01 da c1 38 a2 0a 12 39 7e 40 29 39
       0.00048785226 9.2435635e-05 0.00013927606 0.00016141121
000010 3d a4 ab 38 d6 2e c9 39 1d e8 da 39 9d a6 cd 39
       8.184507e-05 0.00038372603 0.00041753138 0.00039224784
000020 48 97 61 38 c1 11 b1 39 6a e3 2f 39 e4 78 e7 37
       5.3785072e-05 0.00033773298 0.00016774019 2.759364e-05
000030 e5 79 4c 39 a9 ec f6 38 df c4 47 38 0a f3 cf 37
       0.00019500365 0.000117742755 4.7628648e-05 2.4789497e-05
000040 0a fb 2a 39 98 60 cf 39 27 6d 01 3a d0 c8 ce 38
       0.00016305983 0.00039554085 0.00049372244 9.86025e-05
000050 77 2d fe 37 9d ee fa 37 25 ca 83 39 ef 01 db 37
       3.030033e-05 2.9913435e-05 0.00025136877 2.6107735e-05
000060 c6 0a 40 38 42 05 56 38 c6 2d 7f 39 4f 13 02 39
       4.57864e-05 5.1026473e-05 0.00024335747 0.00012404959
000070 9a 5b 7e 39 58 d2 58 39 05 a4 85 39 32 71 ab 39
       0.00024257452 0.00020677724 0.0002548994 0.000327
000080 32 e0 41 39 b8 fd b3 39 5d c0 ac 39 1e 47 c4 38
       0.00018489434 0.00034330576 0.00032949718 9.359255e-05
000090 a1 82 4a 39 94 4a 31 39 d4 ad d3 37 69 f4 8c 39
       0.00019312884 0.00016907818 2.5234105e-05 0.0002688498
0000a0 00 29 7a 39 05 bb 91 39 fa d9 9d 38 ff 6c ba 39
       0.00023857132 0.00027795896 7.526945e-05 0.00035557893
0000b0 44 21 3a 39 cc ec d6 37 3a b0 79 38 63 60 e5 37
       0.00017750735 2.5621055e-05 5.953035e-05 2.734381e-05
0000c0 9d 50 0b 38 dc 4f ec 39 e0 77 28 38 1c 30 5d 39
       3.321526e-05 0.00045072928 4.0165964e-05 0.00021094125
0000d0 04 88 df 37 5b d4 01 39 a4 6f 02 3a 69 2f 79 38
       2.6647009e-05 0.00012381507 0.0004975742 5.941038e-05
0000e0 85 fd b2 38 62 80 01 3a f2 23 44 38 c6 e5 50 39
       8.534923e-05 0.000494009 4.676352e-05 0.00019922023
0000f0 b7 78 cc 39 c0 1e ea 39 4c 08 65 38 a3 69 f2 39
       0.00038999852 0.00044654869 5.460558e-05 0.00046236542
000100 d4 0c ce 37 ee 4d e4 39 c8 45 3d 39 88 6b 39 38
       2.4563087e-05 0.0004354561 0.0001805044 4.4207583e-05
000110 7c 8a e3 39 5b 33 9a 39 79 7a fe 39 c5 32 06 38
       0.00043399993 0.00029411432 0.00048537905 3.1995372e-05
000120 bf ed e6 37 01 18 68 39 5e d4 45 38 02 78 b8 38
       2.7528846e-05 0.00022134186 4.7166242e-05 8.796157e-05
000130 a1 d3 4d 38 6a 69 c1 39 ff 34 d6 37 64 41 0d 38
       4.9072903e-05 0.00036890368 2.5535466e-05 3.367792e-05
000140 69 1e 82 38 d1 91 02 39 f5 85 39 39 e7 e8 b4 38
       6.2045474e-05 0.00012452087 0.00017692878 8.62645e-05
000150 9b 46 90 39 d6 87 d5 39 73 03 d9 37 9b 2b a8 39
       0.00027518425 0.00040727732 2.5870022e-05 0.00032075946
000160 75 18 97 39 65 8b 93 38 ce 44 da 39 4a 4e e3 37
       0.00028819186 7.0354705e-05 0.00041631464 2.7096965e-05
000170 b1 be d1 39 69 a7 16 39 e1 0e bf 39 5f 30 b3 39
       0.00040005663 0.0001436748 0.00036441445 0.0003417758
000180 63 44 0c 39 f2 fd 74 39 fc e6 e4 37 d4 2d 27 39
       0.00013376916 0.00023364255 2.7287278e-05 0.00015943433
000190 71 1b 55 39 19 bd d6 39 8b 33 e8 39 f3 2d 91 38
       0.00020323486 0.0004095815 0.0004428889 6.9226975e-05
0001a0 dd 0b cd 38 28 7b 6a 39 f0 61 bc 39 b6 45 d3 38
       9.7773715e-05 0.00022361858 0.00035931123 0.00010074249
0001b0 84 91 f7 39 d7 6c d2 39 48 f4 98 39 1b f7 d0 38
       0.0004721993 0.00040135413 0.00029173703 9.96424e-05
0001c0 66 a4 11 39 c0 a2 f4 38 35 ff 86 39 02 92 0c 38
       0.00013889521 0.00011665141 0.00025748616 3.351458e-05
0001d0 1a 70 d7 37 fb 25 fd 39 d1 fe a6 39 97 de 9a 38
       2.5682199e-05 0.00048284218 0.0003185184 7.384753e-05
0001e0 32 50 d2 37 d0 cd 44 38 72 a9 99 39 2d d8 e3 39
       2.5071295e-05 4.692172e-05 0.0002930868 0.00043457877
0001f0 7c af dd 38 03 c7 d5 39 22 b1 80 39 71 9a cc 39
       0.00010570788 0.000407748 0.00024546037 0.0003902498

exp_avg f4 [128, 1]
000000 7e cd 98 bc f9 b5 12 bc 28 6f 2c 3c a2 6b 39 bc
       -0.018652674 -0.0089545185 0.010524549 -0.011317166
000010 db 53 08 bc 29 76 8a 3c 1a 54 90 3c 18 e3 89 3c
       -0.008320774 0.016902046 0.017618228 0.01683192
000020 22 0f f5 3b e1 c4 80 bc 9f 0c 40 bc ba 1f b7 bb
       0.0074786106 -0.01571888 -0.011721759 -0.005588499
000030 6a 07 4f 3c a3 39 24 3c 26 6e db 3b 7e 72 ba bb
       0.012636045 0.010023507 0.0066964803 -0.005689918
000040 02 1a 39 3c 3b 89 8e bc b1 6d 9a 3c 0f 06 17 bc
       0.011297705 -0.017399421 0.018851133 -0.009217753
000050 47 85 c2 3b 6f 0e c5 bb 48 d0 66 3c 8d ad b7 bb
       0.005936298 -0.0060136835 0.014087744 -0.0056054057
000060 96 28 dd bb d2 0c e8 3b 55 3e 62 bc e6 81 25 bc
       -0.006749223 0.0070816064 -0.013808806 -0.010101771
000070 fa 10 61 3c 9a 5a 54 bc e3 49 6a 3c 49 ec 81 bc
       0.013736958 -0.012961054 0.0142998425 -0.01585974
000080 7e 63 4b bc f0 d2 81 bc 5f 95 81 3c a3 ca 11 3c
       -0.0124138575 -0.015847653 0.015818296 0.00889841
000090 cb 26 4f 3c c1 d8 3c bc f8 9f b7 bb 58 15 6a bc
       0.012643526 -0.0115262875 -0.0056037866 -0.014287315
0000a0 d2 ea 63 bc 58 0b 74 bc dd 83 05 3c 82 55 86 3c
       -0.013910966 -0.014895283 0.008149114 0.016398195
0000b0 98 6e 3f bc 66 31 b2 3b 4b ae f3 bb de 0f ba bb
       -0.011684082 0.0054380177 -0.007436549 -0.005678161
0000c0 53 02 c6 3b 9e 42 97 3c 3b 59 cd bb 41 03 55 3c
       0.0060427575 0.018464383 -0.0062667406 0.013001264
0000d0 2b 31 bc bb 05 0e 2b bc bc e8 9a bc b7 cc fd bb
       -0.005743166 -0.010440354 -0.018909805 -0.007745351
0000e0 9c 62 12 bc fe e2 99 bc 8e 62 e4 bb b0 22 4f bc
       -0.008934643 -0.018784996 -0.0069697564 -0.0126425475
0000f0 7d 42 8d 3c 94 de 93 3c 43 e2 f2 3b 75 60 98 bc
       0.017243618 0.01805047 0.0074122264 -0.018600682
000100 a4 5d bb 3b 2a b5 93 3c d1 a3 44 bc bd b3 da bb
       0.00571795 0.018030722 -0.0120019475 -0.0066742585
000110 10 e1 90 bc b4 00 7a 3c 4e 86 9a bc 0e ff c6 3b
       -0.017685443 0.015258957 -0.01886287 0.0060728854
000120 41 73 b8 3b 0d c4 5a bc 27 7b da bb 28 c2 10 bc
       0.0056289737 -0.013352406 -0.006667513 -0.008835353
000130 5d c2 e1 3b c7 29 89 3c 07 a4 b3 bb b7 45 bf 3b
       0.006889625 0.016743554 -0.0054822 0.005837168
000140 af 32 f7 bb e3 32 24 3c ec 36 43 bc 8e bb 0c 3c
       -0.0075438838 0.010021898 -0.01191495 0.008589638
000150 a7 3c 6d bc 93 6a 8f 3c 01 96 b3 3b 26 ea 7c 3c
       -0.014479793 0.017506873 0.0054805283 0.015436685
000160 42 d3 75 bc 5b 5c 00 3c 00 98 91 bc 40 91 b5 bb
       -0.015003981 0.007834519 -0.017772675 -0.005540997
000170 d4 a1 8d bc 73 76 30 3c 5a 91 86 3c 7c 74 81 bc
       -0.01728908 0.010770428 0.01642673 -0.015802614
000180 5c a6 29 bc 9c a3 5d bc 56 60 af bb cc c6 3a bc
       -0.010354605 -0.013527777 -0.0053520603 -0.011399936
000190 84 91 51 3c 60 47 8d 3c b1 e1 92 3c 17 70 05 bc
       0.012791041 0.017245948 0.017929884 -0.0081444
0001a0 e9 47 16 bc a8 ba 59 bc f3 a5 84 bc bf 5b 18 3c
       -0.009172418 -0.013289131 -0.016192412 0.009299218
0001b0 f8 68 9a 3c cc d0 8f 3c 6d 4a 74 bc e1 a1 16 bc
       0.018848881 0.017555617 -0.014910323 -0.009193868
0001c0 31 91 2f 3c eb 16 25 bc f5 7b 6b 3c 28 24 cd bb
       0.010715769 -0.010076265 0.014372815 -0.0062604137
0001d0 af 5c b1 bb 20 84 9b bc 3f 70 80 bc 37 3c 04 3c
       -0.00541266 -0.0189839 -0.015678523 0.008070997
0001e0 95 66 b7 bb 47 df e3 bb db 6f 76 bc 6b b8 93 bc
       -0.0055969455 -0.006954107 -0.015041317 -0.018032273
0001f0 fe 48 1f 3c 63 30 90 bc 20 ee 64 bc 92 f4 8d bc
       0.009721993 -0.017601198 -0.013972789 -0.017328534

exp_avg_sq f4 [128, 1]
000000 c7 8c 18 3a e9 47 ea 38 cc b8 2c 39 60 a7 4a 39
       0.00058193173 0.00011171384 0.0001647204 0.00019326573
000010 97 1d c8 38 48 77 f4 39 08 7a 05 3a 7d bf f4 39
       9.542255e-05 0.00046628178 0.00050917314 0.00046681977
000020 79 17 92 38 8c de d2 39 4f 85 58 39 2b 60 0a 38
       6.9661946e-05 0.00040220132 0.00020649027 3.2991327e-05
000030 b6 dc 7e 39 b7 85 17 39 dd 7a 68 38 56 18 09 38
       0.00024305549 0.00014450295 5.5427536e-05 3.268601e-05
000040 eb ce 4a 39 8b cd 00 3a 44 80 1b 3a de 97 fa 38
       0.00019341304 0.0004913441 0.0005931894 0.000119492164
000050 3b 48 20 38 6b 76 23 38 a8 e2 a2 39 14 17 08 38
       3.8214243e-05 3.8972514e-05 0.0003106792 3.244642e-05
000060 62 5a 68 38 c8 d3 82 38 e2 6f 9c 39 34 05 1c 39
       5.5397286e-05 6.2383304e-05 0.00029837998 0.00014879258
000070 65 0e 9b 39 1c f3 86 39 22 55 a7 39 36 6b d3 39
       0.0002957463 0.00025739602 0.0003191615 0.00040324935
000080 62 e6 73 39 2b 8d d6 39 28 1d d3 39 c5 ec e8 38
       0.0002326011 0.0004092244 0.0004026678 0.00011106724
000090 87 51 7e 39 82 97 53 39 dd 0a 06 38 d0 fe a9 39
       0.00024253699 0.00020178969 3.1958207e-05 0.00032424042
0000a0 d1 31 9d 39 22 db b6 39 53 16 bc 38 25 28 e4 39
       0.0002998249 0.00034877012 8.968697e-05 0.0004351746
0000b0 9b 83 5b 39 3d 71 fe 37 cd 9a 95 38 0f 0b 0e 38
       0.00020934494 3.033189e-05 7.1337075e-05 3.3865737e-05
0000c0 4d 14 2b 38 f6 82 12 3a e9 57 43 38 7a 72 88 39
       4.0788484e-05 0.00055889727 4.6573496e-05 0.00026025233
0000d0 56 ba 0f 38 f8 2f 24 39 84 99 1c 3a f1 0d a0 38
       3.4267396e-05 0.00015658129 0.00059738033 7.631991e-05
0000e0 52 83 e3 38 62 bf 1a 3a 84 55 77 38 9e 67 80 39
       0.00010848664 0.0005903152 5.896903e-05 0.00024491263
0000f0 68 12 fd 39 e3 51 0d 3a 3d 93 90 38 57 4e 15 3a
       0.00048269634 0.0005390925 6.89388e-05 0.00056955725
000100 a4 c1 09 38 33 f3 0b 3a 15 dc 65 39 ee 33 61 38
       3.2843687e-05 0.00053386687 0.00021921129 5.3692544e-05
000110 02 ed 07 3a c8 fe c0 39 ba c7 1a 3a b4 5f 2a 38
       0.0005185158 0.0003681092 0.00059043954 4.062029e-05
000120 ec 1b 0c 38 e7 44 90 39 46 ff 65 38 80 9a e1 38
       3.3404605e-05 0.00027517157 5.4835597e-05 0.00010757614
000130 fa 73 76 38 d9 10 ee 39 1b 12 01 38 48 b4 21 38
       5.8758982e-05 0.0004540745 3.077286e-05 3.855329e-05
000140 ac 5b 9b 38 7e 50 1a 39 26 db 61 39 20 47 d6 38
       7.408051e-05 0.0001471657 0.00021539311 0.00010217563
000150 8e b9 ae 39 8f 30 03 3a 21 d2 01 38 84 e3 c9 39
       0.00033326115 0.0005004489 3.0951694e-05 0.0003850722
000160 67 fb ba 39 83 80 ac 38 15 12 07 3a b6 32 07 38
       0.00035663994 8.225536e-05 0.0005152536 3.2233736e-05
000170 30 11 00 3a 2b cc 34 39 70 91 e6 39 1f 59 d5 39
       0.00048853736 0.00017242196 0.00043977378 0.00040692926
000180 8e 35 26 39 a1 b4 95 39 a9 7e fe 37 61 18 4c 39
       0.00015850944 0.00028554074 3.033814e-05 0.00019464038
000190 06 8a 83 39 71 95 00 3a d7 93 0b 3a e4 cd b6 38
       0.00025089103 0.0004905081 0.0005324459 8.7167864e-05
0001a0 1c f4 f7 38 8f b4 8f 39 dc be e0 39 f9 e7 ff 38
       0.00011823347 0.00027409612 0.0004286681 0.00012202556
0001b0 ae 40 19 3a d3 1d 03 3a 18 fa b9 39 a0 70 fa 38
       0.0005846125 0.00050016976 0.00035472284 0.00011941907
0001c0 ad 67 31 39 a5 53 18 39 db 28 a9 39 ee 07 37 38
       0.00016918658 0.0001452701 0.00032264632 4.3637985e-05
0001d0 98 64 fc 37 fb f6 1b 3a 79 1b ce 39 fd fe b7 38
       3.0087584e-05 0.0005949584 0.0003931185 8.773615e-05
0001e0 4f 18 05 38 ce a5 76 38 61 b0 bc 39 db e0 0b 3a
       3.173231e-05 5.8805388e-05 0.00035989567 0.0005335935
0001f0 f7 78 0b 39 bb 47 04 3a 8d ad 9f 39 00 f8 fe 39
       0.00013301136 0.0005046089 0.0003045615 0.0004863143

fc.weight f4 [1, 128]
000000 2f b4 9f bd c0 c6 45 bc 1a f6 70 3d 35 2c 15 bd
       -0.07798039 -0.0120713115 0.05882845 -0.036419112
000010 ea b1 89 bd 40 5f cf 3b f0 f6 c5 bb a9 1d 9f 3d
       -0.067233875 0.0063284934 -0.0060414 0.07769329
000020 64 21 a2 bd 33 63 8f bd 8c 6e cc 3c 68 2c 87 bc
       -0.07916525 -0.070013426 0.024955057 -0.016500667
000030 20 ce 69 bd 58 ed 78 bc 92 49 5b 3d 35 52 91 3d
       -0.05708134 -0.015193306 0.05353696 0.07095758
000040 b6 98 6a 3d 83 c8 8e 3d 6a f3 4f 3d 30 7c ff bb
       0.057274543 0.06971838 0.050769247 -0.0077967867
000050 e1 ec 0b bd 07 ce 85 3d df 61 2a bd e4 58 99 3c
       -0.034161452 0.06533437 -0.041597243 0.018719144
000060 70 12 eb bb d0 43 ad bb 9c ad 9d 3c d4 a2 e9 bc
       -0.007173829 -0.005287625 0.019247822 -0.028520025
000070 90 48 82 bb 1e 80 63 3d c1 b1 9f bd be 7f 25 3d
       -0.0039759353 0.055542104 -0.07797576 0.040405028
000080 35 c5 9e 3d 89 61 8a bd d0 2e 45 bc 22 35 2e 3d
       0.07752458 -0.067568846 -0.012035087 0.04253114
000090 8b a2 99 bd 9c 80 36 bd a4 b2 10 3d a6 42 da bc
       -0.07501706 -0.044556245 0.035326615 -0.026643109
0000a0 e5 e0 ae 3d 4b 5b b3 3d 0e 5a 03 3d cc 6b 8d bc
       0.08538989 0.08757647 0.032068305 -0.017263316
0000b0 26 5d 95 bd 54 dc ca 3c 3c d2 ab bc cc 4c 82 3c
       -0.07293157 0.024763264 -0.020974271 0.01590576
0000c0 d0 f6 0f bc b4 e4 8a bd ad ed 59 bd 4f be 09 bd
       -0.008786872 -0.06781903 -0.05320518 -0.033628758
0000d0 16 12 4d 3d 6f a7 96 3d 82 5b 5c bd 3f a7 93 3d
       0.050066076 0.07356154 -0.053798206 0.07209634
0000e0 bf d6 8d 3d 2c d6 92 bd ae 89 2b 3d 00 d7 c3 3c
       0.06925725 -0.07169756 0.04187935 0.02390623
0000f0 1a 32 68 bd 18 aa fb 3c 38 51 3f bd 6e 40 34 3d
       -0.056688406 0.030720755 -0.046708316 0.044006757
000100 8d 8f aa bd a0 ad d0 bc 90 54 b9 bb 60 dc 2c bb
       -0.083281614 -0.025473416 -0.0056558326 -0.002637647
000110 58 e1 8a bd 55 0b a9 bd e0 d6 45 bb ae 79 2a bd
       -0.06781262 -0.082541145 -0.003018789 -0.04161995
000120 80 6a 3d 3b 0a c1 5d 3d 1a fc 5e bd e0 62 f4 3b
       0.002890259 0.054139175 -0.05443964 0.007458076
000130 e8 ed a3 3c 9a 4d 16 bd 28 e0 11 bc 26 a0 7c 3d
       0.020010903 -0.0366951 -0.008903541 0.061676167
000140 b8 f1 d7 bc 66 51 69 3d 00 80 22 37 86 b9 33 3d
       -0.026360378 0.056962393 9.685755e-06 0.0438781
000150 c8 73 76 bc db 57 05 bd a8 9c 7c 3c 1e 8b 31 3d
       -0.015042253 -0.03255449 0.015418209 0.043345563
000160 da b2 45 3d 5a df 6e 3d 0a 88 6f 3d 08 d5 ab bc
       0.04826627 0.058318473 0.058479346 -0.020975605
000170 30 82 2f 3c d4 c9 f2 3c 28 2a ed 3c 64 a5 91 bd
       0.010712191 0.029637255 0.028950766 -0.07111624
000180 ed 9a 5c bd 28 1a 28 3c 45 de a8 bd 60 12 c9 3b
       -0.053858686 0.010260142 -0.082455195 0.0061362237
000190 d6 18 0d bd 5e b0 6b 3d 2e 9d 3b 3d 06 87 47 3d
       -0.034447514 0.057541244 0.045804195 0.048712753
0001a0 48 53 3b bc cc c6 90 3c 13 e3 87 bd 70 1a 0f 3c
       -0.01143343 0.017672919 -0.06635108 0.008734331
0001b0 3c 27 82 bd 65 d0 a6 bd 20 b9 6f bb 16 c7 dc bc
       -0.063551396 -0.08145217 -0.003657885 -0.0269504
0001c0 c0 d9 98 ba fa 03 2e 3d c6 e1 a4 bd 17 e0 8b 3d
       -0.0011661574 0.04248426 -0.08050875 0.06829851
0001d0 44 c4 0b bd e2 dd 3c 3d 8a fc 2d 3d e0 c2 13 3d
       -0.03412272 0.04611004 0.04247717 0.03607452
0001e0 60 77 0e 3d 74 b3 0d 3d ac cc d1 3c 28 18 fd 3c
       0.034781814 0.034594968 0.02561029 0.030895308
0001f0 d4 6d 71 bd b6 da 6b 3d b2 d2 53 3d 97 3a a4 3d
       -0.05894263 0.057581626 0.051714607 0.080189876
