trained_variables.pt (torch, 210081 bytes, 15 tensors)

conv1.bias f4 [128]
0	0xbbd664ee	-0.0065427935
1	0xbbde5577	-0.0067850905
2	0xbc5e67f2	-0.013574587
3	0x00000000	0.0
4	0x00000000	0.0
5	0x00000000	0.0
6	0xbb8bbad4	-0.004264215
7	0xbc057fcc	-0.008148145
8	0x00000000	0.0
9	0x00000000	0.0
10	0xba9e8e82	-0.0012096914
11	0xbbf5e734	-0.007504368
12	0x00000000	0.0
13	0xba36b54a	-0.0006969763
14	0xbc3fb6c1	-0.011701287
15	0xbcad0f41	-0.021125438
16	0x00000000	0.0
17	0xbd17bc84	-0.037045017
18	0x00000000	0.0
19	0xbbd2f3b9	-0.0064377454
20	0xbcaf2f3d	-0.02138483
21	0xbbe3ea58	-0.006955426
22	0xbb8bb7df	-0.0042638625
23	0xbc4ffd8a	-0.012694726
24	0xbc007f35	-0.0078428285
25	0x00000000	0.0
26	0x00000000	0.0
27	0x00000000	0.0
28	0x00000000	0.0
29	0xbb905f29	-0.004405875
30	0x00000000	0.0
31	0xbc6ea804	-0.014566425
32	0x00000000	0.0
33	0xbce3756b	-0.02776595
34	0x00000000	0.0
35	0x00000000	0.0
36	0x00000000	0.0
37	0xbb659f70	-0.003503766
38	0xbc8e8aeb	-0.017400226
39	0x00000000	0.0
40	0xbbe2c32a	-0.006920238
41	0xbbb32e70	-0.0054681823
42	0xb9a67f89	-0.00031757008
43	0x00000000	0.0
44	0xbb0b6696	-0.0021270863
45	0xbd5ae91b	-0.053444963
46	0x3e9d4e34	0.30723727
47	0xbbe64987	-0.007027808
48	0x00000000	0.0
49	0xbc8f46a5	-0.01748974
50	0xbb697a20	-0.003562577
51	0x00000000	0.0
52	0x00000000	0.0
53	0xbcc6b22e	-0.024254885
54	0xbc707f0a	-0.014678726
55	0x00000000	0.0
56	0xbbd76e31	-0.006574415
57	0xbccbe09b	-0.024887374
58	0xbbae7eb2	-0.005325162
59	0xb9d88ae6	-0.00041302218
60	0x00000000	0.0
61	0xbbd5f1d2	-0.0065290714
62	0x00000000	0.0
63	0x00000000	0.0
64	0x00000000	0.0
65	0xbbf67912	-0.007521757
66	0xbc86a0f8	-0.016434178
67	0xbb85718c	-0.0040723737
68	0x00000000	0.0
69	0xbcc1957f	-0.023630856
70	0xbb1c0bf0	-0.0023810826
71	0xbbbaee63	-0.0057046874
72	0x00000000	0.0
73	0xbb9f8616	-0.004868279
74	0xbb40f2c8	-0.0029441584
75	0x00000000	0.0
76	0xbc5309de	-0.0128807705
77	0xba2c2a41	-0.00065675756
78	0x00000000	0.0
79	0xbc9d0bc7	-0.019170655
80	0x00000000	0.0
81	0xbb78d8d7	-0.0037971043
82	0xbb519ec1	-0.0031985494
83	0x00000000	0.0
84	0x00000000	0.0
85	0xbd26a4b6	-0.040684424
86	0xbc71a29a	-0.01474824
87	0x00000000	0.0
88	0x00000000	0.0
89	0x00000000	0.0
90	0xbcab0f0b	-0.020881196
91	0x00000000	0.0
92	0x00000000	0.0
93	0x00000000	0.0
94	0x00000000	0.0
95	0xbd644c9c	-0.055737123
96	0xbb1eb95f	-0.0024219377
97	0xbc437d52	-0.011931734
98	0xbb804b86	-0.003915253
99	0x00000000	0.0
100	0xbb56c890	-0.0032773353
101	0xbc1c40bd	-0.009536919
102	0xbb845101	-0.0040379767
103	0xbbbc5a2f	-0.0057480554
104	0xbb999b16	-0.004687677
105	0xbb58957d	-0.0033048086
106	0xbcf19779	-0.029491173
107	0x00000000	0.0
108	0x00000000	0.0
109	0xbc084f73	-0.008319723
110	0x00000000	0.0
111	0xbb7766ec	-0.0037750555
112	0xbcbf46ba	-0.023349155
113	0x3e0440b4	0.12915307
114	0xbc7d0ae1	-0.015444488
115	0x00000000	0.0
116	0x00000000	0.0
117	0x00000000	0.0
118	0x00000000	0.0
119	0x00000000	0.0
120	0x00000000	0.0
121	0x00000000	0.0
122	0xbbf01c89	-0.0073276204
123	0x00000000	0.0
124	0x00000000	0.0
125	0xbb4e474d	-0.0031475604
126	0x00000000	0.0
127	0xbbd06e71	-0.006360822

conv1.lin.weight f4 [128, 1]
0	0x3e2927b8	0.16519058
1	0x3e29c87f	0.1658039
2	0x3c9d48b8	0.019199714
3	0xbd85937c	-0.06522271
4	0xbd8bbc00	-0.068229675
5	0xbe1f4e03	-0.15557103
6	0x3d7a3dab	0.061093967
7	0x3e1e419d	0.15454717
8	0xbe548118	-0.2075237
9	0xbdf2f3ca	-0.11862905
10	0x3e359d02	0.17735675
11	0x3d96ba22	0.07359721
12	0xbd2c18b8	-0.04201576
13	0x3dae26a0	0.08503461
14	0x3d4c24c9	0.04983977
15	0x3cf36e9d	0.02971583
16	0xbc0c2010	-0.008552566
17	0x3e05ae70	0.13054824
18	0xbd325ae8	-0.043543726
19	0x3e6b4474	0.22975332
20	0x3d7027b8	0.05863163
21	0x3e07b063	0.1325088
22	0x3da0fba8	0.078604996
23	0x3d92098d	0.07130728
24	0x3dc82bee	0.09774004
25	0xbe320edc	-0.17388481
26	0xbdc23f9c	-0.09484789
27	0xbd5dda24	-0.054163113
28	0xbd814b6e	-0.06313215
29	0x3daeabd8	0.0852887
30	0xbdd8c83b	-0.10585066
31	0x3c0cc53f	0.008591949
32	0xbe3a9258	-0.18219888
33	0x3d928b5b	0.07155486
34	0xbd382ef0	-0.044966638
35	0xbe0f9e16	-0.14025149
36	0xbdcbc280	-0.09949207
37	0x3d118783	0.035529625
38	0x3d91152c	0.07084116
39	0xbdc1ef2e	-0.09469448
40	0x3dc8ec02	0.0981064
41	0x3d47a4a0	0.048740983
42	0x3e16730f	0.14692329
43	0xbdc5e7fa	-0.09663387
44	0x3e2e20d9	0.17004718
45	0x3d85b893	0.06529345
46	0x3d784e57	0.060621586
47	0x3dfdbc4e	0.12389432
48	0xbdfe9819	-0.12431354
49	0x3e2af794	0.16696006
50	0x3e268fbb	0.16265766
51	0xbe4274a1	-0.18989803
52	0xbe4bee92	-0.19915226
53	0x3e1a9d5a	0.15099087
54	0x3bfc3379	0.0076965657
55	0xbdd89464	-0.10575178
56	0x3e3d7e52	0.18505219
57	0x3e10e335	0.14149173
58	0x3e2c36ce	0.16817781
59	0x3d392bdb	0.04520784
60	0xbdb6d004	-0.089263946
61	0x3e3935ee	0.18086979
62	0xbaa3a080	-0.0012483746
63	0xbe369606	-0.17830667
64	0xbe515553	-0.20442705
65	0x3e532add	0.2062182
66	0xbba857a3	-0.0051374002
67	0x3e404f7e	0.18780324
68	0xbdc6bcaa	-0.097039536
69	0x3dc05359	0.09390897
70	0xb9d7b800	-0.00041145086
71	0x3d1302cf	0.03589135
72	0xbd31d640	-0.043417215
73	0x3cb03d6b	0.021513661
74	0x3ca4bc41	0.020109298
75	0xbd49fb44	-0.04931189
76	0x3e3b2156	0.18274435
77	0x3ccb40d6	0.02481119
78	0xbc29b070	-0.010357007
79	0x3e39a609	0.18129744
80	0xbe220037	-0.15820394
81	0x3de198eb	0.11015495
82	0x3e0cfd52	0.13768509
83	0xbe1ad25e	-0.15119311
84	0xbda82d88	-0.082118094
85	0x3d7dbffb	0.061950665
86	0x3e43db63	0.19126658
87	0xbda377ec	-0.07981858
88	0xbe07b104	-0.1325112
89	0xbc1bd860	-0.009512037
90	0xbb812d12	-0.0039421404
91	0xbda6c38c	-0.08142766
92	0xb9cd7a00	-0.00039191544
93	0xbd87fec8	-0.066403925
94	0xbe13ebdf	-0.14445446
95	0x3d852665	0.06501464
96	0x3e557f8f	0.20849441
97	0x3e0ff24d	0.14057274
98	0x3d23e5e0	0.040014148
99	0xbe4fcfe1	-0.20294143
100	0x3d6bc3cf	0.057559785
101	0xbbaa761a	-0.005202067
102	0x3d566b71	0.052348558
103	0x3df005fd	0.11719892
104	0x3e602919	0.21890678
105	0x3d956bef	0.07295977
106	0x3d909106	0.07058911
107	0xbd431490	-0.04762703
108	0xbdd9d6f2	-0.10636701
109	0x3e1a8b64	0.15092236
110	0xbd6095bc	-0.054830298
111	0x3df4ee47	0.1195951
112	0x3e091802	0.13388065
113	0x3d8051d4	0.062656075
114	0x3e0cea36	0.1376122
115	0xbd7195e4	-0.058980837
116	0xbe5a4b76	-0.21317849
117	0xbd9402f8	-0.07227129
118	0xbe1d99e9	-0.15390743
119	0xbe286c4d	-0.16447563
120	0xbd3b2b84	-0.045695797
121	0xbd25f868	-0.0405201
122	0x3e2a805f	0.16650532
123	0xbd8009d8	-0.062518775
124	0xbd808394	-0.062750965
125	0xbae88e49	-0.00177426
126	0xbe55be21	-0.2087331
127	0x3c083d9f	0.008315473

conv2.bias f4 [128]
0	0xbcb109d4	-0.021611132
1	0x3d47a568	0.048741728
2	0x3cb84ba7	0.022497011
3	0x3d0a10be	0.033707373
4	0xbce910e6	-0.02845044
5	0x3c884d65	0.016638467
6	0xbd7293d1	-0.059223
7	0xbda26514	-0.07929435
8	0x3d6759c1	0.05648208
9	0xbd06f757	-0.032950725
10	0x3d8e6a7d	0.06953905
11	0xbd8f0544	-0.06983426
12	0xbd39f94c	-0.045403764
13	0xbd1dcc6d	-0.038525034
14	0x3c8ed3bc	0.017434947
15	0xbdb299a6	-0.08720712
16	0xbd80e03a	-0.06292768
17	0xbc581140	-0.0131877065
18	0x3c624b55	0.013811906
19	0xbd2d20ba	-0.04226754
20	0x3a943601	0.0011307598
21	0x3dafc972	0.085833445
22	0x3db4c63c	0.08826873
23	0xbdf62829	-0.12019379
24	0xbdbaa0d8	-0.0911271
25	0xbd5f53db	-0.05452333
26	0x3dba84a1	0.09107328
27	0xbde903bc	-0.113776654
28	0x3bcb0aa0	0.006196335
29	0x3d5725af	0.052526172
30	0xbcb05d13	-0.021528756
31	0xbd20aaab	-0.03922526
32	0x3dc126c0	0.09431219
33	0x3d9a17bc	0.07524058
34	0x3dbadeb3	0.09124508
35	0x3c95a5b4	0.01826749
36	0x3d57a3c3	0.05264641
37	0x3dbd5af7	0.09245866
38	0xbdad5f41	-0.08465434
39	0x3d8c8260	0.068608046
40	0xbdaf80e9	-0.085695095
41	0x3cbb3787	0.022853626
42	0x3d1e7c50	0.038692772
43	0x3dbcd50e	0.092203245
44	0xbc0e3fdc	-0.008682217
45	0xbd1e699c	-0.038674936
46	0x3ce0feaa	0.027465183
47	0x3d947778	0.07249349
48	0xbd0d92e9	-0.034563933
49	0x3da49734	0.08036652
50	0x3d90b6db	0.07066127
51	0x3db09799	0.08622665
52	0xbc2f3c1c	-0.010695484
53	0x3dcd0cd7	0.10012215
54	0x3da35999	0.07976074
55	0xbb37ccb0	-0.0028045587
56	0x3d39f03e	0.04539513
57	0x3d898436	0.0671467
58	0x3d60eff8	0.054916352
59	0xbd6642d4	-0.056216076
60	0xbd97f019	-0.07418842
61	0x3c73da5e	0.014883606
62	0xbd1c2248	-0.03811863
63	0x3da2cb58	0.07948941
64	0xbdcc5a94	-0.09978214
65	0x3cf32b54	0.029683746
66	0xbc0da064	-0.008644197
67	0x3de5e39c	0.11225054
68	0x3d44c954	0.048043564
69	0xbda0f305	-0.07858852
70	0x3d4da1d6	0.050203167
71	0xbda0ddb8	-0.078547895
72	0xbd84fd08	-0.064935744
73	0xbcb6916b	-0.022286138
74	0x3d90685e	0.070511565
75	0xbcbc9144	-0.023018487
76	0xbce47b52	-0.027890835
77	0x3dd09f2d	0.1018661
78	0x3dd3935c	0.10330841
79	0xbd8c8d1b	-0.06862851
80	0xbd474d3b	-0.048657637
81	0x3cfd6b00	0.03093481
82	0xbd828ff4	-0.06375113
83	0x3d23fa7f	0.040033814
84	0xbd6e0fd2	-0.058120556
85	0xbd1b05ea	-0.037847437
86	0xbd49c1eb	-0.0492572
87	0xbdd903d4	-0.10596433
88	0x3cec6e99	0.02886133
89	0x3d44ff5d	0.048095096
90	0x3c0f546c	0.008748155
91	0x3dd43699	0.10361976
92	0xbdacf386	-0.08444886
93	0xbd74a2c3	-0.059725534
94	0x3d926630	0.07148397
95	0x3d92b836	0.07164042
96	0x3b90ed1d	0.0044227974
97	0xbd39c0a4	-0.045349732
98	0x3db8e7d5	0.090285935
99	0xbd0232a4	-0.031786576
100	0xbdd2a86f	-0.102860324
101	0xbd910171	-0.07080353
102	0xbdca617d	-0.09881876
103	0x3da1344b	0.07871302
104	0x3dcb5e8a	0.09930141
105	0x3db7f05b	0.08981391
106	0x3d1b2604	0.03787805
107	0xbd827ba0	-0.06371236
108	0x3c49ffd9	0.012329065
109	0x3d976c09	0.07393653
110	0x3d1ff81d	0.03905498
111	0xbdb3ebc9	-0.08785207
112	0xbd1165af	-0.035497364
113	0x3cd9571c	0.026530795
114	0x3d28447b	0.041080933
115	0x3d4532f8	0.04814431
116	0xbcf07428	-0.029352263
117	0x3db72e41	0.08944369
118	0x3ba43c15	0.005012045
119	0xbcd19e12	-0.02558807
120	0xbd93895d	-0.07203934
121	0xbdb3fc80	-0.08788395
122	0x3d8b5330	0.06802976
123	0xbd907a76	-0.070546076
124	0xbcc2c56a	-0.023775775
125	0xbc8a28de	-0.01686519
126	0xbdba05fd	-0.090831734
127	0x3db3779e	0.087630495

conv2.lin.weight f4 [128, 128]
0	0xbe03fcbf	-0.12889384
1	0x3d7c86a1	0.06165183
2	0xbd21e7a9	-0.03952757
3	0xbd993afb	-0.07481953
4	0xbda7c6cf	-0.081922166
5	0xbd0940be	-0.03350901
6	0xbd9b7376	-0.07590382
7	0xbdcd229f	-0.10016369
8	0xbe0e08d9	-0.13870563
9	0xbdaf84cf	-0.08570253
10	0xbd0b513c	-0.034013018
11	0x3d9601c8	0.073245585
12	0xbd9cad62	-0.07650258
13	0x3e381168	0.1797539
14	0xbd976039	-0.073914
15	0x3d916081	0.07098485
16	0x3d8a2ee4	0.06747225
17	0xbc9485e1	-0.018130245
18	0x3cf268b8	0.02959095
19	0x3dddea66	0.108357236
20	0xbd02f6e0	-0.03197372
21	0x3df33f38	0.118772924
22	0xbcfc6315	-0.030808965
23	0xbd2ff293	-0.042955946
24	0xbc485c18	-0.012228988
25	0xbdc7d09a	-0.097565845
26	0x3c28d1d0	0.010303929
27	0xbd61d992	-0.05513913
28	0x3e14162d	0.14461584
29	0xbc99ecc0	-0.018789649
30	0xbd9cb045	-0.07650808
31	0xbc9f9f37	-0.0194851
32	0xbdbc98ae	-0.09208809
33	0x3db893d6	0.090125725
34	0xbd8c0528	-0.06836921
35	0x3d993b98	0.0748207
36	0xbbaed6c0	-0.005335659
37	0xbdb6ef59	-0.08932371
38	0x3c997229	0.018731194
39	0xbdf542ec	-0.11975655
40	0x3a5490ac	0.0008108716
41	0xbc99fecf	-0.01879826
42	0x3dbd5241	0.09244204
43	0xbd59fe1e	-0.05322086
44	0xbdc4f244	-0.09616521
45	0xbd8a71b3	-0.06759968
46	0x3e20d7de	0.15707347
47	0x3d49319e	0.049119584
48	0x3db1e024	0.086853296
49	0xbe011605	-0.12606056
50	0x3e0d8f0f	0.13824104
51	0xbd2a1a8e	-0.04152923
52	0x3d3321d8	0.043733448
53	0xbdb62827	-0.08894377
54	0xbce7a22f	-0.028275577
55	0x3bc30da0	0.005952552
56	0xbd3f7343	-0.04674078
57	0xbce50d70	-0.027960509
58	0xbcc6e615	-0.024279634
59	0x3bdfecdb	0.0068336553
60	0x3e10b6cd	0.14132233
61	0x3d4c1617	0.049825754
62	0x3deb28ea	0.11482413
63	0xbba4a880	-0.0050249696
64	0xbd964ca0	-0.07338834
65	0xbdfe3c5a	-0.12413855
66	0x3d965217	0.07339876
67	0x3e29e21b	0.16590159
68	0xbd02cf18	-0.03193578
69	0x3df4b98a	0.11949451
70	0xbd8295f4	-0.063762575
71	0xbc1bd3a4	-0.009510908
72	0xbdcee152	-0.1010157
73	0xbdd29a2a	-0.10283311
74	0x3d90cc74	0.07070246
75	0xbd8215e3	-0.06351831
76	0xbd45dee7	-0.04830828
77	0x3d295fe4	0.041351214
78	0x3ccea4e0	0.025225103
79	0x3e2ea7c6	0.17056188
80	0x3dbf6994	0.09346309
81	0x3dde5102	0.10855295
82	0x3d1cc15b	0.038270336
83	0xbd157246	-0.036485933
84	0xbd87cbde	-0.066306815
85	0x3e0283d8	0.12745607
86	0x3be6ab3b	0.007039455
87	0x3dce3bd2	0.100700036
88	0xbd94d339	-0.0726685
89	0xbc94d5e8	-0.018168405
90	0x3df95f3c	0.12176368
91	0x3e0ab503	0.13545613
92	0xbe02b4e7	-0.12764321
93	0x3d8cc05c	0.06872627
94	0x3d5c771c	0.05382453
95	0x3dd0f782	0.10203458
96	0x3d1420a2	0.036163934
97	0xbe1098b0	-0.14120746
98	0x3d0df83f	0.034660574
99	0xbdd4209e	-0.10357784
100	0xbb23793f	-0.0024944094
101	0x3dc2dbc0	0.0951457
102	0x3d68c304	0.056826606
103	0xbdd224bc	-0.10260913
104	0x3d2f38ef	0.042778905
105	0x3df534da	0.11972971
106	0x3db9c90f	0.09071552
107	0xbe013480	-0.12617683
108	0xbe1247fd	-0.14285274
109	0xbd8d8a59	-0.06911153
110	0x3c44e930	0.012018487
111	0x3de46c41	0.1115346
112	0xbd32c9f7	-0.04364964
113	0xbe2429c9	-0.16031565
114	0xbd9b5469	-0.07584459
115	0x3d8afebe	0.067868695
116	0xbd0211da	-0.031755306
117	0xbd45b770	-0.048270643
118	0x3e02c2bb	0.12769596
119	0x3ddc7ee2	0.107663885
120	0xbdb144a0	-0.08655667
121	0xbe16f36f	-0.147413
122	0xbd261767	-0.040549662
123	0x3d1fb444	0.038990274
124	0xbdc6896e	-0.096941814
125	0xbd65c3a9	-0.0560948
126	0x3e05080f	0.12991355
127	0x3e2af2d7	0.16694199
128	0xbe099ee6	-0.13439521
129	0xbe115dd0	-0.14195943
130	0xbcd10944	-0.025517114
131	0x3e00bcf5	0.12572081
132	0xbbd13fa0	-0.0063857585
133	0xbd80f8a8	-0.062974274
134	0x3d6e4bb7	0.058177676
135	0xbdd4e313	-0.103948735
136	0x3dce8f4e	0.10085927
137	0x3d3c8c58	0.04603228
138	0x3daa83c9	0.08325917
139	0x3dc67394	0.096900135
140	0x3d6b87b0	0.05750245
141	0xbdd3e7c7	-0.103469424
142	0x3dcc90a8	0.099885285
143	0x3e112ba4	0.14176804
144	0x3b802320	0.003910437
145	0x3d576ec7	0.05259588
146	0x3d9d92de	0.07694028
147	0x3dffdcca	0.12493284
148	0xbde8f371	-0.11374558
149	0xbd9ff973	-0.078112505
150	0xbd2c840f	-0.04211813
151	0xbd50a9e2	-0.050943263
152	0xbddce149	-0.10785157
153	0xbd0d1406	-0.034442924
154	0x3d8580bc	0.06518695
155	0xbd507dfc	-0.050901398
156	0x3de9375a	0.113875106
157	0xbdb9ab52	-0.0906588
158	0xbcfb280c	-0.030658744
159	0x3cd5b4fa	0.026087273
160	0xbd58de3e	-0.05294632
161	0xbe106e79	-0.14104642
162	0x3ded9fce	0.11602746
163	0x3aa36900	0.0012467206
164	0x3ceef9e0	0.029171884
165	0xbda1513e	-0.07876824
166	0x3df6199b	0.120166026
167	0x3daaf96e	0.08348356
168	0x3d9c14ca	0.07621153
169	0xbe14e388	-0.14539921
170	0x3df176f2	0.11790265
171	0xbd99f93f	-0.07518243
172	0xbdac475a	-0.08412047
173	0x3dff57ed	0.124679424
174	0xbd260b51	-0.040538136
175	0xbca85c08	-0.020551696
176	0x3dafee5a	0.08590384
177	0x3c7dd5b3	0.015492844
178	0x3cef503b	0.029213062
179	0x3babf460	0.0052476376
180	0x3d65d0a8	0.056107193
181	0x3c924adc	0.017857961
182	0xbdbe6e05	-0.09298328
183	0x3e1590f9	0.14606084
184	0x3cd281f4	0.025696732
185	0xbb913445	-0.00443128
186	0xbcbf3dfe	-0.02334499
187	0x3d3670d7	0.044541206
188	0xbdc53804	-0.09629825
189	0xbc7daed3	-0.015483576
190	0x3db1afca	0.08676107
191	0x3d757b04	0.05993177
192	0xbd955be5	-0.07292918
193	0x3d2daa86	0.042398952
194	0x3e107593	0.14107351
195	0xbda177a2	-0.07884146
196	0xbdc9f1b0	-0.09860551
197	0xbc1b8d81	-0.009494186
198	0x3e1d69dc	0.15372413
199	0xbdd04466	-0.10169296
200	0xbdfa6728	-0.12226707
201	0x3dad3a67	0.08458405
202	0x3d60b899	0.054863546
203	0xbca633c8	-0.020288363
204	0x3dd8f1a7	0.105929665
205	0x3dbefd32	0.09325637
206	0xbd3d6c3e	-0.046245806
207	0x3db91ecc	0.09039077
208	0xbb1584c0	-0.002281472
209	0xbd899c18	-0.06719226
210	0x3c22421f	0.00990346
211	0x3dae74aa	0.08518346
212	0x3d901540	0.07035303
213	0xbd3cfa34	-0.04613705
214	0xbda3cd4e	-0.07998143
215	0x3dbb84ac	0.091561645
216	0x3d88757a	0.06663032
217	0xbe10d8e2	-0.14145234
218	0x3de2e5e0	0.110790014
219	0xbd745ec8	-0.059660703
220	0x3df22bea	0.11824782
221	0x3ccf4888	0.02530314
222	0xbc868f38	-0.016425714
223	0xbd70955f	-0.0587362
224	0x3dff5515	0.124674
225	0x3db1faee	0.08690439
226	0xbe0bb834	-0.13644487
227	0x3d8fb56a	0.07017024
228	0xbdda3f7e	-0.106566414
229	0x3ddf8766	0.10914497
230	0xbd139e4e	-0.036039643
231	0xbda81347	-0.08206802
232	0x3e0e9bad	0.13926573
233	0x3d03d004	0.0321808
234	0x3acf46c4	0.0015813936
235	0x3dc75c0a	0.09734352
236	0x3dd3331e	0.10312484
237	0x3dcc4ec2	0.09975959
238	0xbe095744	-0.13412195
239	0x3e13e990	0.14444566
240	0xbe0fce91	-0.14043643
241	0xbe255310	-0.16144967
242	0x3d515e15	0.051115114
243	0xbd81f584	-0.063456565
244	0xbe0453b4	-0.12922555
245	0x3e1792cb	0.14802091
246	0x3c567aa0	0.0130907595
247	0x3c5f73f0	0.0136384815
248	0xbdfee8fe	-0.124467835
249	0xbc8de0e0	-0.017319143
250	0xbe24f425	-0.16108759
251	0xbd86b93a	-0.06578298
252	0x3c2be610	0.010491863
253	0xbd7b4b93	-0.06135137
254	0xbd8b15da	-0.06791277
255	0xbd188941	-0.03724027

linear.weight f4 [1, 128]
0	0x3d0ed6ed	0.034872938
1	0xbca5110d	-0.020149732
2	0xbdb39785	-0.087691344
3	0xbdb25b9a	-0.08708878
4	0x3a5f8d0a	0.00085277914
5	0x3d453354	0.048144653
6	0xbb803d09	-0.003913526
7	0x3df38b29	0.11891777
8	0xbd92aad9	-0.07161493
9	0x3bb2eeae	0.0054605817
10	0xbd84c5c8	-0.06483036
11	0x3dfe05a9	0.12403423
12	0x3d9c0e7e	0.07619952
13	0x3dbbdda0	0.09173131
14	0xbbb4c62c	-0.005516788
15	0xbc69196b	-0.0142272515
16	0x3d372b9d	0.044719327
17	0xbd4cdcc2	-0.05001522
18	0x3cb1b0a9	0.021690683
19	0x3d972a7d	0.07381151
20	0xbd538613	-0.051641535
21	0x3cc34071	0.023834439
22	0x3cb32a9c	0.021870904
23	0x3c869f19	0.016433286
24	0x3d2803f7	0.041019406
25	0x3da31848	0.07963616
26	0xbdda1aca	-0.10649641
27	0xbc38575a	-0.011251295
28	0xbd358057	-0.044311848
29	0xbd2c10b0	-0.042008102
30	0xbd0ef711	-0.03490359
31	0x3d94aa0d	0.07258997
32	0xbd9c906f	-0.07644736
33	0xbddac839	-0.10682721
34	0xbdd275c9	-0.10276372
35	0xbdc4f22d	-0.09616504
36	0xbcf0f8e4	-0.029415555
37	0xbd34c767	-0.044135477
38	0x3d8b000d	0.06787119
39	0x3d71dca9	0.05904833
40	0x3ca85d67	0.02055235
41	0x3deb315a	0.114840224
42	0xbc112796	-0.008859536
43	0xbd943005	-0.072357215
44	0xbda51376	-0.080603525
45	0xbd7b68d0	-0.061379254
46	0xbd6d14fd	-0.057881344
47	0x3cc41bb9	0.023939
48	0xbd1aab10	-0.037760794
49	0xbd1d4527	-0.038396027
50	0xbd82cd5c	-0.063868254
51	0x3d572758	0.052527755
52	0xbd2916e8	-0.04128161
53	0xbd152f43	-0.036422025
54	0xbdb1d9dd	-0.08684132
55	0x3d492af2	0.04911322
56	0xbd439fb9	-0.047759745
57	0xbc884291	-0.016633304
58	0xbd463273	-0.048387956
59	0x3d972a2a	0.07381089
60	0x3d385468	0.04500237
61	0x3d7eb30e	0.06218248
62	0x3d81969d	0.06327555
63	0x3c8529a5	0.01625521
64	0x3d9990a6	0.074982926
65	0x3c0c2e80	0.008556008
66	0xbcd9fea5	-0.026610682
67	0xbd59970e	-0.053122573
68	0xbc29e864	-0.010370348
69	0xbd26418c	-0.040589854
70	0xbd843444	-0.064552814
71	0xbd29f99d	-0.041497815
72	0x3ce9a3f7	0.028520567
73	0xbd064e1d	-0.03278934
74	0xbd2a545c	-0.041584358
75	0x3c191742	0.009343924
76	0xbca2574b	-0.019817015
77	0xbd352ead	-0.044233967
78	0xbd1c788d	-0.038200904
79	0x3cb27084	0.021782167
80	0xbd14c9e1	-0.03632534
81	0x3cb8262b	0.022479137
82	0xbcb4752d	-0.02202853
83	0x3d65e3e9	0.056125555
84	0x3db8e0b0	0.09027231
85	0xbd210b25	-0.03931727
86	0x3d251116	0.040299498
87	0x3d344c58	0.04401812
88	0xbdc3e601	-0.09565354
89	0xbdd2fbde	-0.10301946
90	0x3ce35657	0.027751131
91	0xbcbf205b	-0.023330858
92	0x3d0c5966	0.034264944
93	0x3d30fd34	0.043210223
94	0xbd42d8ef	-0.047570165
95	0xbd9293cc	-0.07157096
96	0xbba5773e	-0.005049615
97	0x3ca28c86	0.019842397
98	0xbd8ae2a4	-0.067815095
99	0x3d92f78e	0.071761236
100	0x3d458955	0.048226673
101	0x3d15bfde	0.036559932
102	0x3c88d61e	0.016703662
103	0x3ca15b29	0.019696789
104	0xbd867f55	-0.065672554
105	0xbdf9f066	-0.122040555
106	0x3d3873bd	0.04503225
107	0xbcc33523	-0.023829048
108	0x3de541d5	0.11194197
109	0xbcc668c7	-0.024219884
110	0x3bb6cf44	0.005578907
111	0xbc110228	-0.008850612
112	0x3de31c53	0.11089387
113	0xbc684f21	-0.014179022
114	0x3dc71291	0.09720338
115	0xbd0467e6	-0.032325648
116	0xbdd6646f	-0.10468375
117	0xbca562a5	-0.020188639
118	0xbcb11389	-0.02161576
119	0xbd0c3593	-0.03423078
120	0x3d91de61	0.071224935
121	0xba8c52b4	-0.00107058
122	0xbaa55bbf	-0.0012615843
123	0xbccbd80d	-0.024883294
124	0x3d9c7cd7	0.07640999
125	0x3b4a3cca	0.0030858987
126	0x3dcb3080	0.0992136
127	0x3d7eadfd	0.062177647

exp_avg f4 [128]
0	0x00000004	6e-45
1	0x80000004	-6e-45
2	0x00000004	6e-45
3	0x00000000	0.0
4	0x00000000	0.0
5	0x00000000	0.0
6	0x80000004	-6e-45
7	0x80000004	-6e-45
8	0x00000000	0.0
9	0x00000000	0.0
10	0x80000004	-6e-45
11	0x80000004	-6e-45
12	0x00000000	0.0
13	0x00000004	6e-45
14	0x80000004	-6e-45
15	0x00000004	6e-45
16	0x00000000	0.0
17	0x80000004	-6e-45
18	0x00000000	0.0
19	0x00000004	6e-45
20	0x00000004	6e-45
21	0x80000004	-6e-45
22	0x00000004	6e-45
23	0x00000004	6e-45
24	0x00000004	6e-45
25	0x00000000	0.0
26	0x00000000	0.0
27	0x00000000	0.0
28	0x00000000	0.0
29	0x00000004	6e-45
30	0x00000000	0.0
31	0x80000004	-6e-45
32	0x00000000	0.0
33	0x00000004	6e-45
34	0x00000000	0.0
35	0x00000000	0.0
36	0x00000000	0.0
37	0x00000004	6e-45
38	0x00000004	6e-45
39	0x00000000	0.0
40	0x80000004	-6e-45
41	0x80000004	-6e-45
42	0x00000004	6e-45
43	0x00000000	0.0
44	0x00000004	6e-45
45	0x80000004	-6e-45
46	0xc04245de	-3.0355144
47	0x80000004	-6e-45
48	0x00000000	0.0
49	0x00000004	6e-45
50	0x80000004	-6e-45
51	0x00000000	0.0
52	0x00000000	0.0
53	0x00000004	6e-45
54	0x00000004	6e-45
55	0x00000000	0.0
56	0x80000004	-6e-45
57	0x80000004	-6e-45
58	0x00000004	6e-45
59	0x00000004	6e-45
60	0x00000000	0.0
61	0x80000004	-6e-45
62	0x00000000	0.0
63	0x00000000	0.0
64	0x00000000	0.0
65	0x00000004	6e-45
66	0x00000004	6e-45
67	0x00000004	6e-45
68	0x00000000	0.0
69	0x00000004	6e-45
70	0x00000004	6e-45
71	0x80000004	-6e-45
72	0x00000000	0.0
73	0x00000004	6e-45
74	0x00000004	6e-45
75	0x00000000	0.0
76	0x80000004	-6e-45
77	0x21c46b34	1.3309853e-18
78	0x00000000	0.0
79	0x80000004	-6e-45
80	0x00000000	0.0
81	0x80000004	-6e-45
82	0x80000004	-6e-45
83	0x00000000	0.0
84	0x00000000	0.0
85	0x00000004	6e-45
86	0x00000004	6e-45
87	0x00000000	0.0
88	0x00000000	0.0
89	0x00000000	0.0
90	0x00000004	6e-45
91	0x00000000	0.0
92	0x00000000	0.0
93	0x00000000	0.0
94	0x00000000	0.0
95	0x00000004	6e-45
96	0x80000004	-6e-45
97	0x00000004	6e-45
98	0x80000004	-6e-45
99	0x00000000	0.0
100	0x00000004	6e-45
101	0x00000004	6e-45
102	0x80000004	-6e-45
103	0x00000004	6e-45
104	0x00000004	6e-45
105	0x00000004	6e-45
106	0x00000004	6e-45
107	0x00000000	0.0
108	0x00000000	0.0
109	0x00000004	6e-45
110	0x00000000	0.0
111	0x00000004	6e-45
112	0x80000004	-6e-45
113	0x40218a44	2.524064
114	0x80000004	-6e-45
115	0x00000000	0.0
116	0x00000000	0.0
117	0x00000000	0.0
118	0x00000000	0.0
119	0x00000000	0.0
120	0x00000000	0.0
121	0x00000000	0.0
122	0x80000004	-6e-45
123	0x00000000	0.0
124	0x00000000	0.0
125	0x00000004	6e-45
126	0x00000000	0.0
127	0x00000004	6e-45

exp_avg_sq f4 [128]
0	0x33afd12c	8.187121e-08
1	0x320bf962	8.147568e-09
2	0x27d7bcf7	5.9879364e-15
3	0x00000000	0.0
4	0x00000000	0.0
5	0x00000000	0.0
6	0x32399053	1.0801233e-08
7	0x325d0ea3	1.2867221e-08
8	0x00000000	0.0
9	0x00000000	0.0
10	0x3344630f	4.57249e-08
11	0x3510d86f	5.395913e-07
12	0x00000000	0.0
13	0x3d113d34	0.03545876
14	0x2b67f7ba	8.2411476e-13
15	0x31e54d46	6.673562e-09
16	0x00000000	0.0
17	0x3041686d	7.036139e-10
18	0x00000000	0.0
19	0x35a2de9e	1.2134731e-06
20	0x31d947ff	6.323716e-09
21	0x2f27768b	1.5230676e-10
22	0x3481e38e	2.419369e-07
23	0x31b6b1f9	5.3171303e-09
24	0x336e93ac	5.5548e-08
25	0x00000000	0.0
26	0x00000000	0.0
27	0x00000000	0.0
28	0x00000000	0.0
29	0x2f8f9d31	2.612324e-10
30	0x00000000	0.0
31	0x29d01aaf	9.2416844e-14
32	0x00000000	0.0
33	0x28324950	9.896882e-15
34	0x00000000	0.0
35	0x00000000	0.0
36	0x00000000	0.0
37	0x357e46d4	9.472544e-07
38	0x32ec52f6	2.7511742e-08
39	0x00000000	0.0
40	0x3276e7c9	1.4371786e-08
41	0x2796f7bc	4.1901958e-15
42	0x3dec5d34	0.115412146
43	0x00000000	0.0
44	0x359866b2	1.1354771e-06
45	0x2e181469	3.4578927e-11
46	0x42b77942	91.73683
47	0x34d6fd1b	4.0044765e-07
48	0x00000000	0.0
49	0x296a3c7b	5.2010896e-14
50	0x2ecc7f10	9.299417e-11
51	0x00000000	0.0
52	0x00000000	0.0
53	0x30b58733	1.3207909e-09
54	0x3110ad1a	2.1053155e-09
55	0x00000000	0.0
56	0x344b5002	1.8934955e-07
57	0x2edd7d31	1.0072155e-10
58	0x364ebc21	3.0805897e-06
59	0x34ae2c70	3.2442358e-07
60	0x00000000	0.0
61	0x35420845	7.2282666e-07
62	0x00000000	0.0
63	0x00000000	0.0
64	0x00000000	0.0
65	0x3c2f2c6a	0.0106917415
66	0x2413ddd8	3.2063453e-17
67	0x349d4ab1	2.9297874e-07
68	0x00000000	0.0
69	0x290a9123	3.076804e-14
70	0x342ad42e	1.5909674e-07
71	0x34c85efe	3.732202e-07
72	0x00000000	0.0
73	0x344f609e	1.9313526e-07
74	0x399070a6	0.0002754975
75	0x00000000	0.0
76	0x317ed33f	3.7081944e-09
77	0x3e9d5c6a	0.3073457
78	0x00000000	0.0
79	0x2fb7fbb4	3.3466352e-10
80	0x00000000	0.0
81	0x34d7aa75	4.0170895e-07
82	0x32da3019	2.5400412e-08
83	0x00000000	0.0
84	0x00000000	0.0
85	0x2d095b16	7.8077735e-12
86	0x2c39a5b3	2.6382063e-12
87	0x00000000	0.0
88	0x00000000	0.0
89	0x00000000	0.0
90	0x28b5f8a7	2.0202873e-14
91	0x00000000	0.0
92	0x00000000	0.0
93	0x00000000	0.0
94	0x00000000	0.0
95	0x2f74bd34	2.2258889e-10
96	0x34d0a627	3.886391e-07
97	0x322f3d3d	1.0200265e-08
98	0x2da20191	1.8417963e-11
99	0x00000000	0.0
100	0x39a8e5a1	0.00032214544
101	0x258eae96	2.4751377e-16
102	0x3378627e	5.7831578e-08
103	0x34ed7f7e	4.4237453e-07
104	0x3592cf7d	1.0938235e-06
105	0x3b0b72d4	0.002127816
106	0x2f48e3ad	1.8270781e-10
107	0x00000000	0.0
108	0x00000000	0.0
109	0x34834d3d	2.445685e-07
110	0x00000000	0.0
111	0x352c049d	6.4081706e-07
112	0x2f2c1872	1.5651994e-10
113	0x41d41186	26.508556
114	0x294b447e	4.5134462e-14
115	0x00000000	0.0
116	0x00000000	0.0
117	0x00000000	0.0
118	0x00000000	0.0
119	0x00000000	0.0
120	0x00000000	0.0
121	0x00000000	0.0
122	0x356edc35	8.898235e-07
123	0x00000000	0.0
124	0x00000000	0.0
125	0x23ef4233	2.5940468e-17
126	0x00000000	0.0
127	0x38150210	3.552629e-05

exp_avg f4 [128, 1]
0	0x00000004	6e-45
1	0x80000004	-6e-45
2	0x00000004	6e-45
3	0x00000000	0.0
4	0x00000000	0.0
5	0x00000000	0.0
6	0x80000004	-6e-45
7	0x80000004	-6e-45
8	0x00000000	0.0
9	0x00000000	0.0
10	0x00000004	6e-45
11	0x80000004	-6e-45
12	0x00000000	0.0
13	0x00000004	6e-45
14	0x80000004	-6e-45
15	0x80000004	-6e-45
16	0x00000000	0.0
17	0x80000004	-6e-45
18	0x00000000	0.0
19	0x00000004	6e-45
20	0x80000004	-6e-45
21	0x80000004	-6e-45
22	0x00000004	6e-45
23	0x00000004	6e-45
24	0x80000004	-6e-45
25	0x00000000	0.0
26	0x00000000	0.0
27	0x00000000	0.0
28	0x00000000	0.0
29	0x00000004	6e-45
30	0x00000000	0.0
31	0x80000004	-6e-45
32	0x00000000	0.0
33	0x00000004	6e-45
34	0x00000000	0.0
35	0x00000000	0.0
36	0x00000000	0.0
37	0x80000004	-6e-45
38	0x00000004	6e-45
39	0x00000000	0.0
40	0x00000004	6e-45
41	0x80000004	-6e-45
42	0x00000004	6e-45
43	0x00000000	0.0
44	0x00000004	6e-45
45	0x00000004	6e-45
46	0x00000004	6e-45
47	0x80000004	-6e-45
48	0x00000000	0.0
49	0x00000004	6e-45
50	0x00000004	6e-45
51	0x00000000	0.0
52	0x00000000	0.0
53	0x80000004	-6e-45
54	0x00000004	6e-45
55	0x00000000	0.0
56	0x80000004	-6e-45
57	0x80000004	-6e-45
58	0x00000004	6e-45
59	0x00000004	6e-45
60	0x00000000	0.0
61	0x80000004	-6e-45
62	0x00000000	0.0
63	0x00000000	0.0
64	0x00000000	0.0
65	0x00000004	6e-45
66	0x00000004	6e-45
67	0x00000004	6e-45
68	0x00000000	0.0
69	0x00000004	6e-45
70	0x00000004	6e-45
71	0x80000004	-6e-45
72	0x00000000	0.0
73	0x00000004	6e-45
74	0x80000004	-6e-45
75	0x00000000	0.0
76	0x80000004	-6e-45
77	0x00000004	6e-45
78	0x00000000	0.0
79	0x80000004	-6e-45
80	0x00000000	0.0
81	0x80000004	-6e-45
82	0x80000004	-6e-45
83	0x00000000	0.0
84	0x00000000	0.0
85	0x80000004	-6e-45
86	0x80000004	-6e-45
87	0x00000000	0.0
88	0x00000000	0.0
89	0x00000000	0.0
90	0x00000004	6e-45
91	0x00000000	0.0
92	0x00000000	0.0
93	0x00000000	0.0
94	0x00000000	0.0
95	0x00000004	6e-45
96	0x80000004	-6e-45
97	0x00000004	6e-45
98	0x80000004	-6e-45
99	0x00000000	0.0
100	0x00000004	6e-45
101	0x00000004	6e-45
102	0x80000004	-6e-45
103	0x00000004	6e-45
104	0x00000004	6e-45
105	0x00000004	6e-45
106	0x00000004	6e-45
107	0x00000000	0.0
108	0x00000000	0.0
109	0x00000004	6e-45
110	0x00000000	0.0
111	0x00000004	6e-45
112	0x80000004	-6e-45
113	0x00000004	6e-45
114	0x80000004	-6e-45
115	0x00000000	0.0
116	0x00000000	0.0
117	0x00000000	0.0
118	0x00000000	0.0
119	0x00000000	0.0
120	0x00000000	0.0
121	0x00000000	0.0
122	0x80000004	-6e-45
123	0x00000000	0.0
124	0x00000000	0.0
125	0x00000004	6e-45
126	0x00000000	0.0
127	0x80000004	-6e-45

exp_avg_sq f4 [128, 1]
0	0x3690a60f	4.310866e-06
1	0x37f9869f	2.9745801e-05
2	0x35f321a6	1.8114704e-06
3	0x00000000	0.0
4	0x00000000	0.0
5	0x00000000	0.0
6	0x36057b8f	1.9890465e-06
7	0x36e9263e	6.948393e-06
8	0x00000000	0.0
9	0x00000000	0.0
10	0x35e55c64	1.7088719e-06
11	0x34e02e75	4.1757053e-07
12	0x00000000	0.0
13	0x38831c14	6.251797e-05
14	0x3500228f	4.7734005e-07
15	0x35349202	6.7267695e-07
16	0x00000000	0.0
17	0x36a79675	4.9945033e-06
18	0x00000000	0.0
19	0x36aa5c3e	5.077133e-06
20	0x354d2ad4	7.6430774e-07
21	0x36f12ace	7.187343e-06
22	0x372d8e1d	1.0344692e-05
23	0x35ede0aa	1.7723262e-06
24	0x34e9a6fd	4.3521132e-07
25	0x00000000	0.0
26	0x00000000	0.0
27	0x00000000	0.0
28	0x00000000	0.0
29	0x362311bf	2.4299222e-06
30	0x00000000	0.0
31	0x35532952	7.8663754e-07
32	0x00000000	0.0
33	0x361edcef	2.3672435e-06
34	0x00000000	0.0
35	0x00000000	0.0
36	0x00000000	0.0
37	0x35e49bb1	1.7032636e-06
38	0x3503be8b	4.907858e-07
39	0x00000000	0.0
40	0x368a1719	4.1154094e-06
41	0x34a2dd1d	3.0335733e-07
42	0x36ca9b97	6.038182e-06
43	0x00000000	0.0
44	0x3807cf9f	3.237987e-05
45	0x35f2c25a	1.8086969e-06
46	0x3660aaf1	3.3478102e-06
47	0x36be719d	5.6756676e-06
48	0x00000000	0.0
49	0x373347d8	1.0685959e-05
50	0x36745c52	3.641257e-06
51	0x00000000	0.0
52	0x00000000	0.0
53	0x3855dd7b	5.0989427e-05
54	0x3640132e	2.8621394e-06
55	0x00000000	0.0
56	0x36303624	2.6257558e-06
57	0x35a7a5ef	1.2490763e-06
58	0x374901a6	1.1980917e-05
59	0x35ada4e1	1.293749e-06
60	0x00000000	0.0
61	0x36caded7	6.046011e-06
62	0x00000000	0.0
63	0x00000000	0.0
64	0x00000000	0.0
65	0x375b1407	1.305808e-05
66	0x328ee17a	1.663351e-08
67	0x371890ea	9.093646e-06
68	0x00000000	0.0
69	0x36231eea	2.4306887e-06
70	0x352b14b3	6.3732585e-07
71	0x3514f5a6	5.549176e-07
72	0x00000000	0.0
73	0x34cbe5ab	3.7978802e-07
74	0x36c35093	5.820833e-06
75	0x00000000	0.0
76	0x3700d760	7.67954e-06
77	0x37143077	8.8327715e-06
78	0x00000000	0.0
79	0x36770bd2	3.6812748e-06
80	0x00000000	0.0
81	0x385e8291	5.3050524e-05
82	0x35df4c58	1.6637014e-06
83	0x00000000	0.0
84	0x00000000	0.0
85	0x37891992	1.634358e-05
86	0x382924ba	4.0326944e-05
87	0x00000000	0.0
88	0x00000000	0.0
89	0x00000000	0.0
90	0x34cc3edf	3.8043706e-07
91	0x00000000	0.0
92	0x00000000	0.0
93	0x00000000	0.0
94	0x00000000	0.0
95	0x3627b2c7	2.4989001e-06
96	0x360612ca	1.9978493e-06
97	0x38209102	3.828202e-05
98	0x36e0380b	6.6822445e-06
99	0x00000000	0.0
100	0x363b74f2	2.7933243e-06
101	0x32c9688f	2.3447027e-08
102	0x348ef0b8	2.6624707e-07
103	0x3733350e	1.0681584e-05
104	0x3704343d	7.879976e-06
105	0x36f6e3b5	7.35788e-06
106	0x36973879	4.506725e-06
107	0x00000000	0.0
108	0x00000000	0.0
109	0x368df536	4.2306738e-06
110	0x00000000	0.0
111	0x3827972f	3.9956703e-05
112	0x36814170	3.8521175e-06
113	0x35a2c74a	1.2127941e-06
114	0x363acefa	2.7836636e-06
115	0x00000000	0.0
116	0x00000000	0.0
117	0x00000000	0.0
118	0x00000000	0.0
119	0x00000000	0.0
120	0x00000000	0.0
121	0x00000000	0.0
122	0x361f259b	2.3714736e-06
123	0x00000000	0.0
124	0x00000000	0.0
125	0x325d5d76	1.2885144e-08
126	0x00000000	0.0
127	0x36e5a4d1	6.843919e-06

exp_avg f4 [128]
0	0xbe45ccb5	-0.19316371
1	0xbe0ff45d	-0.14058061
2	0x3dce29be	0.100665554
3	0x3e62d25a	0.22150555
4	0x3e2c2556	0.16811118
5	0xbd81f58a	-0.06345661
6	0x3e01c2ff	0.12672041
7	0xbdde1556	-0.10843913
8	0x3d1444d5	0.036198456
9	0x3c558ac7	0.013033575
10	0x3e603c75	0.21898063
11	0xbdea4633	-0.11439171
12	0xbe55a36a	-0.20863119
13	0xbe3b7f3a	-0.18310252
14	0xbe261cce	-0.16221926
15	0x3d2196ea	0.039450563
16	0xbd8da748	-0.06916672
17	0x3d84f521	0.06492067
18	0xbd952a4b	-0.07283457
19	0xbe6a260b	-0.22866075
20	0x3e7adf59	0.24499263
21	0xbe211522	-0.15730718
22	0xbc84cc90	-0.016210824
23	0xbc5ce0d0	-0.013481334
24	0x3da17332	0.078833
25	0xbca3667a	-0.019946326
26	0x3c147c28	0.009062804
27	0xbdc4767e	-0.09592913
28	0x3e048765	0.12942274
29	0xbc8945ce	-0.016756918
30	0x3d17671e	0.036963575
31	0xbe1f7fb1	-0.15576054
32	0xbd7a9792	-0.061179705
33	0x3da1f306	0.07907681
34	0x3da11790	0.07865822
35	0x3e38a383	0.18031125
36	0x3e608348	0.2192508
37	0x3e0ba230	0.13636088
38	0x3d650b34	0.055918887
39	0xbda67195	-0.08127133
40	0xbda444da	-0.08020945
41	0xbe2611e4	-0.16217762
42	0x3e3b9162	0.18317178
43	0x3da5fabc	0.081044644
44	0x3e36d64e	0.17855188
45	0xbd9a2faa	-0.075286224
46	0x3e54e879	0.20791806
47	0x3e68c709	0.22732176
48	0xbe619c79	-0.22032346
49	0x3c4152e0	0.011799544
50	0x3d720f8c	0.059096858
51	0xbd12460c	-0.035711333
52	0x3d61e235	0.05514737
53	0x3e384454	0.17994815
54	0xbd3df3fb	-0.046375256
55	0xbe3a01e4	-0.18164784
56	0xbe14d5b3	-0.14534645
57	0xbe18f50d	-0.1493723
58	0x3e5a58ca	0.21322933
59	0x3c8f49e8	0.017491296
60	0x3d9dad5e	0.07699083
61	0xbe0a1828	-0.13485777
62	0xbe192855	-0.14956792
63	0xbde205e1	-0.110362776
64	0x3d5964ca	0.053074636
65	0x3e552485	0.20814712
66	0xbe4cffe4	-0.2001949
67	0xbced16b8	-0.028941497
68	0xb88d2c00	-6.7315996e-05
69	0xbdb99194	-0.0906097
70	0xbdd51f66	-0.104063794
71	0xbb63ea60	-0.003477715
72	0x3d52e84a	0.05149106
73	0xbe54bdde	-0.20775554
74	0xbda38452	-0.079842225
75	0x3e30402b	0.17211978
76	0xbe41c6c6	-0.18923482
77	0x3e0896b7	0.13338743
78	0xbd82e857	-0.063919716
79	0x3da9321a	0.08261509
80	0x3e238872	0.15970019
81	0x3e5258dc	0.2054171
82	0xbe60da7a	-0.21958342
83	0xbe064ff6	-0.1311644
84	0xbe565846	-0.20932111
85	0xbe2538e5	-0.16134985
86	0xbe6e1673	-0.23250751
87	0xbda35f0e	-0.079771146
88	0x3e1fd91d	0.15610166
89	0x3e113b98	0.1418289
90	0x3e4afa23	0.19821982
91	0x3c4e8ae0	0.012606353
92	0xbdfb5a57	-0.1227309
93	0xbdc20bb4	-0.094748884
94	0x3d24ae95	0.040205557
95	0x3e386977	0.18008982
96	0xbe3b0e14	-0.18267089
97	0xbe43fd1c	-0.19139522
98	0x3e5524e1	0.2081485
99	0xbc5528e0	-0.013010234
100	0x3d291b36	0.041285716
101	0xbe709db6	-0.23497662
102	0x3d8445ed	0.0645865
103	0xbb9f8e80	-0.0048692822
104	0x3da0dfcc	0.07855186
105	0x3d23012e	0.039796047
106	0xbe4056ec	-0.18783158
107	0xbe56fba7	-0.20994435
108	0xbe4d5e8c	-0.20055598
109	0x3e3ee3af	0.18641542
110	0x3e7d682f	0.24746774
111	0xbcc795fc	-0.02436351
112	0xbe15f603	-0.14644627
113	0xbe2e34e2	-0.1701236
114	0xbe42066a	-0.1894776
115	0xbe09e448	-0.13465989
116	0x3e20ed93	0.15715627
117	0xbcf6dc74	-0.030134417
118	0xbe2704fa	-0.16310492
119	0xbe5b3d08	-0.2141
120	0xbe405f23	-0.18786292
121	0xbd5805e8	-0.052740008
122	0x3e5fbf84	0.21850401
123	0xbe67c2fb	-0.22632973
124	0xbe440f36	-0.19146428
125	0xbc8bb732	-0.017055128
126	0xbdc8351c	-0.09775755
127	0x3e0a1aa8	0.13486731

exp_avg_sq f4 [128]
0	0x3e35e9bf	0.17764948
1	0x3e4a03e5	0.19728048
2	0x3db0bf56	0.086302444
3	0x3e71f108	0.23627102
4	0x3e2505f4	0.16115552
5	0x3da48258	0.080326736
6	0x3e68787e	0.22702214
7	0x3e322c7e	0.17399785
8	0x3dcceeab	0.1000646
9	0x3d879346	0.06619887
10	0x3e98b589	0.29826
11	0x3e194847	0.14968978
12	0x3e5aaa2e	0.21353981
13	0x3e2d5b5c	0.16929382
14	0x3e0d65c9	0.13808359
15	0x3e6ff817	0.23434483
16	0x3df4f1de	0.11960195
17	0x3d94567d	0.07243059
18	0x3d993dd2	0.074824944
19	0x3e83d674	0.25749552
20	0x3e9ab9e7	0.30219957
21	0x3ec89b1e	0.39180845
22	0x3e5fc528	0.21852553
23	0x3eea7c99	0.45798185
24	0x3e9de38c	0.30837667
25	0x3dc52149	0.09625489
26	0x3e652863	0.22378688
27	0x3ed67852	0.41888672
28	0x3ddf6602	0.10908128
29	0x3dc3b441	0.09555865
30	0x3d91b920	0.07115388
31	0x3e0791cd	0.13239212
32	0x3e9cff01	0.30663303
33	0x3e19e548	0.1502887
34	0x3e58c1d1	0.21167685
35	0x3e2390c6	0.15973195
36	0x3e80e28c	0.25172842
37	0x3e7d7985	0.24753387
38	0x3e807377	0.25088093
39	0x3e2f59b6	0.17124066
40	0x3e3ec63e	0.18630311
41	0x3e343f70	0.17602324
42	0x3e27df34	0.16393739
43	0x3e575ef7	0.2103232
44	0x3e392f8f	0.18084548
45	0x3daa48c6	0.08314662
46	0x3e592b12	0.21207836
47	0x3ed2b0a5	0.41150394
48	0x3e7dbc9e	0.24778983
49	0x3e2c2f9b	0.16815035
50	0x3e0d2b33	0.1378601
51	0x3e668749	0.22512545
52	0x3d922b3d	0.07137153
53	0x3f0b5339	0.5442386
54	0x3e6093e7	0.2193142
55	0x3e1f9496	0.15584025
56	0x3e5a7e5b	0.21337263
57	0x3ea020d3	0.31275043
58	0x3e7e712d	0.2484786
59	0x3dd0238e	0.101630315
60	0x3e6afaba	0.22947207
61	0x3dfe8612	0.12427916
62	0x3e036159	0.12830104
63	0x3e9581bc	0.29200542
64	0x3ea7eb18	0.3279655
65	0x3e595cc0	0.21226788
66	0x3e4e3f22	0.20141271
67	0x3ece18ec	0.4025339
68	0x3dacb512	0.08432974
69	0x3e29e56f	0.16591428
70	0x3e0917e5	0.13388021
71	0x3e250f61	0.16119148
72	0x3e0bb9e8	0.13645136
73	0x3e5b1f12	0.21398571
74	0x3e58a502	0.21156695
75	0x3e19c491	0.1501639
76	0x3e228413	0.15870695
77	0x3ea465fd	0.3210906
78	0x3eb9dda4	0.3630191
79	0x3e44a829	0.19204773
80	0x3e7e5a68	0.24839175
81	0x3e5347b4	0.20632821
82	0x3e96b3a2	0.29433924
83	0x3e11c1e4	0.1423412
84	0x3e69aa77	0.22818933
85	0x3e087d98	0.1332916
86	0x3e8e9080	0.2784462
87	0x3ea3e249	0.3200858
88	0x3e0155c5	0.12630375
89	0x3e0655b8	0.13118637
90	0x3e39ae61	0.18132927
91	0x3e93c064	0.2885772
92	0x3e4af9f5	0.19821914
93	0x3df3b72e	0.11900173
94	0x3e0d2684	0.13784224
95	0x3e5a7181	0.21332361
96	0x3e1bd9fe	0.15219876
97	0x3e408034	0.18798906
98	0x3f0b0ed3	0.54319495
99	0x3d6635bf	0.0562036
100	0x3ea8fd1e	0.33005613
101	0x3ec41f0c	0.38304937
102	0x3ea9580d	0.3307499
103	0x3e27659c	0.16347355
104	0x3e843343	0.2582036
105	0x3e51a3a4	0.2047258
106	0x3e8b6341	0.27224162
107	0x3e891969	0.267772
108	0x3e702e52	0.2345517
109	0x3e7e76db	0.24850027
110	0x3ea3669f	0.3191423
111	0x3e47872a	0.19485155
112	0x3dff5fe6	0.12469463
113	0x3e2defa2	0.16985944
114	0x3e8f72c8	0.2801726
115	0x3e24980e	0.1607363
116	0x3e2e70b6	0.17035183
117	0x3e77f0db	0.24212973
118	0x3e05fe2b	0.13085239
119	0x3e6d7d8e	0.23192427
120	0x3e68b163	0.22723918
121	0x3e45c1f1	0.19312264
122	0x3e9a98fb	0.3019484
123	0x3ec6be8f	0.3881726
124	0x3e387697	0.18013988
125	0x3d23806b	0.03991739
126	0x3e5d5f44	0.21618372
127	0x3e703fd8	0.23461854

exp_avg f4 [128, 128]
0	0x80000004	-6e-45
1	0x80000004	-6e-45
2	0x80000004	-6e-45
3	0x00000000	0.0
4	0x00000000	0.0
5	0x00000000	0.0
6	0x80000004	-6e-45
7	0x80000004	-6e-45
8	0x00000000	0.0
9	0x00000000	0.0
10	0x80000004	-6e-45
11	0x80000004	-6e-45
12	0x00000000	0.0
13	0x80000004	-6e-45
14	0x80000004	-6e-45
15	0x80000004	-6e-45
16	0x00000000	0.0
17	0x00000004	6e-45
18	0x00000000	0.0
19	0x80000004	-6e-45
20	0x80000004	-6e-45
21	0x80000004	-6e-45
22	0x80000004	-6e-45
23	0x80000004	-6e-45
24	0x80000004	-6e-45
25	0x00000000	0.0
26	0x00000000	0.0
27	0x00000000	0.0
28	0x00000000	0.0
29	0x80000004	-6e-45
30	0x00000000	0.0
31	0x80000004	-6e-45
32	0x00000000	0.0
33	0x80000004	-6e-45
34	0x00000000	0.0
35	0x00000000	0.0
36	0x00000000	0.0
37	0x00000004	6e-45
38	0x80000004	-6e-45
39	0x00000000	0.0
40	0x80000004	-6e-45
41	0x80000004	-6e-45
42	0x80000004	-6e-45
43	0x00000000	0.0
44	0x80000004	-6e-45
45	0x80000004	-6e-45
46	0xbda86dee	-0.082240924
47	0x80000004	-6e-45
48	0x00000000	0.0
49	0x80000004	-6e-45
50	0x00000004	6e-45
51	0x00000000	0.0
52	0x00000000	0.0
53	0x80000004	-6e-45
54	0x80000004	-6e-45
55	0x00000000	0.0
56	0x80000004	-6e-45
57	0x80000004	-6e-45
58	0x80000004	-6e-45
59	0x80000004	-6e-45
60	0x00000000	0.0
61	0x80000004	-6e-45
62	0x00000000	0.0
63	0x00000000	0.0
64	0x00000000	0.0
65	0x80000004	-6e-45
66	0x00000004	6e-45
67	0x80000004	-6e-45
68	0x00000000	0.0
69	0x80000004	-6e-45
70	0x80000004	-6e-45
71	0x80000004	-6e-45
72	0x00000000	0.0
73	0x80000004	-6e-45
74	0x00000004	6e-45
75	0x00000000	0.0
76	0x80000004	-6e-45
77	0x1d821a12	3.443767e-21
78	0x00000000	0.0
79	0x80000004	-6e-45
80	0x00000000	0.0
81	0x80000004	-6e-45
82	0x80000004	-6e-45
83	0x00000000	0.0
84	0x00000000	0.0
85	0x80000004	-6e-45
86	0x80000004	-6e-45
87	0x00000000	0.0
88	0x00000000	0.0
89	0x00000000	0.0
90	0x80000004	-6e-45
91	0x00000000	0.0
92	0x00000000	0.0
93	0x00000000	0.0
94	0x00000000	0.0
95	0x80000004	-6e-45
96	0x80000004	-6e-45
97	0x80000004	-6e-45
98	0x80000004	-6e-45
99	0x00000000	0.0
100	0x80000004	-6e-45
101	0x80000004	-6e-45
102	0x80000004	-6e-45
103	0x80000004	-6e-45
104	0x80000004	-6e-45
105	0x00000004	6e-45
106	0x80000004	-6e-45
107	0x00000000	0.0
108	0x00000000	0.0
109	0x80000004	-6e-45
110	0x00000000	0.0
111	0x80000004	-6e-45
112	0x80000004	-6e-45
113	0xbcd3a822	-0.025837008
114	0x80000004	-6e-45
115	0x00000000	0.0
116	0x00000000	0.0
117	0x00000000	0.0
118	0x00000000	0.0
119	0x00000000	0.0
120	0x00000000	0.0
121	0x00000000	0.0
122	0x00000004	6e-45
123	0x00000000	0.0
124	0x00000000	0.0
125	0x80000004	-6e-45
126	0x00000000	0.0
127	0x80000004	-6e-45
128	0x00000004	6e-45
129	0x00000004	6e-45
130	0x00000004	6e-45
131	0x00000000	0.0
132	0x00000000	0.0
133	0x00000000	0.0
134	0x00000004	6e-45
135	0x80000004	-6e-45
136	0x00000000	0.0
137	0x00000000	0.0
138	0x00000004	6e-45
139	0x00000004	6e-45
140	0x00000000	0.0
141	0x80000004	-6e-45
142	0x00000004	6e-45
143	0x00000004	6e-45
144	0x00000000	0.0
145	0x00000004	6e-45
146	0x00000000	0.0
147	0x00000004	6e-45
148	0x00000004	6e-45
149	0x00000004	6e-45
150	0x00000004	6e-45
151	0x80000004	-6e-45
152	0x00000004	6e-45
153	0x00000000	0.0
154	0x00000000	0.0
155	0x00000000	0.0
156	0x00000000	0.0
157	0x00000004	6e-45
158	0x00000000	0.0
159	0x00000004	6e-45
160	0x00000000	0.0
161	0x00000004	6e-45
162	0x00000000	0.0
163	0x00000000	0.0
164	0x00000000	0.0
165	0x00000004	6e-45
166	0x80000004	-6e-45
167	0x00000000	0.0
168	0x00000004	6e-45
169	0x80000004	-6e-45
170	0x80000004	-6e-45
171	0x00000000	0.0
172	0x00000004	6e-45
173	0x00000004	6e-45
174	0xbd5dcfa4	-0.0541531
175	0x80000004	-6e-45
176	0x00000000	0.0
177	0x00000004	6e-45
178	0x80000004	-6e-45
179	0x00000000	0.0
180	0x00000000	0.0
181	0x80000004	-6e-45
182	0x80000004	-6e-45
183	0x00000000	0.0
184	0x00000004	6e-45
185	0x00000004	6e-45
186	0x00000004	6e-45
187	0x80000004	-6e-45
188	0x00000000	0.0
189	0x00000004	6e-45
190	0x00000000	0.0
191	0x00000000	0.0
192	0x00000000	0.0
193	0x80000004	-6e-45
194	0x00000004	6e-45
195	0x80000004	-6e-45
196	0x00000000	0.0
197	0x80000004	-6e-45
198	0x80000004	-6e-45
199	0x00000004	6e-45
200	0x00000000	0.0
201	0x80000004	-6e-45
202	0x80000004	-6e-45
203	0x00000000	0.0
204	0x00000004	6e-45
205	0x9cec970c	-1.5656215e-21
206	0x00000000	0.0
207	0x80000004	-6e-45
208	0x00000000	0.0
209	0x00000004	6e-45
210	0x80000004	-6e-45
211	0x00000000	0.0
212	0x00000000	0.0
213	0x00000004	6e-45
214	0x80000004	-6e-45
215	0x00000000	0.0
216	0x00000000	0.0
217	0x00000000	0.0
218	0x80000004	-6e-45
219	0x00000000	0.0
220	0x00000000	0.0
221	0x00000000	0.0
222	0x00000000	0.0
223	0x80000004	-6e-45
224	0x00000004	6e-45
225	0x80000004	-6e-45
226	0x00000004	6e-45
227	0x00000000	0.0
228	0x00000004	6e-45
229	0x00000004	6e-45
230	0x00000004	6e-45
231	0x00000004	6e-45
232	0x00000004	6e-45
233	0x00000004	6e-45
234	0x00000004	6e-45
235	0x00000000	0.0
236	0x00000000	0.0
237	0x00000004	6e-45
238	0x00000000	0.0
239	0x00000004	6e-45
240	0x00000004	6e-45
241	0xbcec16e3	-0.028819507
242	0x00000004	6e-45
243	0x00000000	0.0
244	0x00000000	0.0
245	0x00000000	0.0
246	0x00000000	0.0
247	0x00000000	0.0
248	0x00000000	0.0
249	0x00000000	0.0
250	0x00000004	6e-45
251	0x00000000	0.0
252	0x00000000	0.0
253	0x00000004	6e-45
254	0x00000000	0.0
255	0x80000004	-6e-45

exp_avg_sq f4 [128, 128]
0	0x32829fb1	1.5206611e-08
1	0x32103667	8.394273e-09
2	0x2f1f096e	1.4464316e-10
3	0x00000000	0.0
4	0x00000000	0.0
5	0x00000000	0.0
6	0x3110169f	2.0967617e-09
7	0x3243a652	1.1388311e-08
8	0x00000000	0.0
9	0x00000000	0.0
10	0x3204f855	7.739875e-09
11	0x3055e402	7.7812967e-10
12	0x00000000	0.0
13	0x35e21191	1.6843425e-06
14	0x2f930d0b	2.6748412e-10
15	0x2edf7dde	1.01632244e-10
16	0x00000000	0.0
17	0x31b9be74	5.4058606e-09
18	0x00000000	0.0
19	0x32b098a6	2.0558513e-08
20	0x2f92e2f0	2.6718494e-10
21	0x31d88d97	6.3025243e-09
22	0x30b6b461	1.329351e-09
23	0x30ed1d7c	1.72524e-09
24	0x3042b0f0	7.082823e-10
25	0x00000000	0.0
26	0x00000000	0.0
27	0x00000000	0.0
28	0x00000000	0.0
29	0x31441ebb	2.8539222e-09
30	0x00000000	0.0
31	0x2fc4e15f	3.5812328e-10
32	0x00000000	0.0
33	0x3158f690	3.1572291e-09
34	0x00000000	0.0
35	0x00000000	0.0
36	0x00000000	0.0
37	0x3044349e	7.137916e-10
38	0x307235ee	8.8115726e-10
39	0x00000000	0.0
40	0x3187af13	3.9489207e-09
41	0x2f39e85f	1.6908207e-10
42	0x3687041e	4.023793e-06
43	0x00000000	0.0
44	0x321d554f	9.158e-09
45	0x312511b7	2.402073e-09
46	0x3cb45457	0.022012873
47	0x31d9d4c4	6.33972e-09
48	0x00000000	0.0
49	0x3273ef04	1.41988075e-08
50	0x3251b1c2	1.2205819e-08
51	0x00000000	0.0
52	0x00000000	0.0
53	0x32459ecc	1.1503015e-08
54	0x2e056f8a	3.0339765e-11
55	0x00000000	0.0
56	0x31f7f22e	7.2161788e-09
57	0x31ce3510	6.0014216e-09
58	0x32644c9a	1.3288764e-08
59	0x308f356d	1.0419804e-09
60	0x00000000	0.0
61	0x325d23d7	1.2872042e-08
62	0x00000000	0.0
63	0x00000000	0.0
64	0x00000000	0.0
65	0x359734ca	1.126574e-06
66	0x2b1eadf1	5.637427e-13
67	0x32852f03	1.5504616e-08
68	0x00000000	0.0
69	0x31782a89	3.6112928e-09
70	0x2e07d7d0	3.0887126e-11
71	0x2fc5e2bb	3.5995193e-10
72	0x00000000	0.0
73	0x2f031d31	1.1924751e-10
74	0x328c34c5	1.6322142e-08
75	0x00000000	0.0
76	0x32473efd	1.1597646e-08
77	0x376d1c0f	1.4132834e-05
78	0x00000000	0.0
79	0x325e6cdd	1.2946853e-08
80	0x00000000	0.0
81	0x31cfb508	6.0450738e-09
82	0x3189a590	4.006047e-09
83	0x00000000	0.0
84	0x00000000	0.0
85	0x310a0693	2.008538e-09
86	0x32afd4bc	2.0469422e-08
87	0x00000000	0.0
88	0x00000000	0.0
89	0x00000000	0.0
90	0x2c21a2ac	2.2969777e-12
91	0x00000000	0.0
92	0x00000000	0.0
93	0x00000000	0.0
94	0x00000000	0.0
95	0x31141cf6	2.1553297e-09
96	0x31f82468	7.221889e-09
97	0x320d428b	8.22241e-09
98	0x30670e51	8.4057655e-10
99	0x00000000	0.0
100	0x32afdd7c	2.04734e-08
101	0x2b990650	1.0873056e-12
102	0x3017f543	5.528202e-10
103	0x31d43d03	6.1769483e-09
104	0x32287c41	9.807139e-09
105	0x346103ea	2.0956182e-07
106	0x31478be6	2.9037834e-09
107	0x00000000	0.0
108	0x00000000	0.0
109	0x3217f066	8.844017e-09
110	0x00000000	0.0
111	0x31d81aaa	6.2894587e-09
112	0x32043d01	7.697282e-09
113	0x3b70fe48	0.0036772657
114	0x3191a839	4.23918e-09
115	0x00000000	0.0
116	0x00000000	0.0
117	0x00000000	0.0
118	0x00000000	0.0
119	0x00000000	0.0
120	0x00000000	0.0
121	0x00000000	0.0
122	0x320b58e1	8.111074e-09
123	0x00000000	0.0
124	0x00000000	0.0
125	0x28d810f6	2.3988173e-14
126	0x00000000	0.0
127	0x31042516	1.922961e-09
128	0x33f7f271	1.15459336e-07
129	0x33a6f530	7.774577e-08
130	0x30fdf5f2	1.8478075e-09
131	0x00000000	0.0
132	0x00000000	0.0
133	0x00000000	0.0
134	0x32f8bab4	2.8955903e-08
135	0x33b608d2	8.47664e-08
136	0x00000000	0.0
137	0x00000000	0.0
138	0x327781d5	1.4406813e-08
139	0x3038c691	6.722099e-10
140	0x00000000	0.0
141	0x3604578c	1.9720492e-06
142	0x2f8511fe	2.4205343e-10
143	0x30a86611	1.2252618e-09
144	0x00000000	0.0
145	0x32214e74	9.389272e-09
146	0x00000000	0.0
147	0x3434af97	1.6827686e-07
148	0x2febf5c1	4.292087e-10
149	0x3366778d	5.365978e-08
150	0x3153eb8a	3.083843e-09
151	0x314c84e0	2.9761438e-09
152	0x3035ce40	6.6140515e-10
153	0x00000000	0.0
154	0x00000000	0.0
155	0x00000000	0.0
156	0x00000000	0.0
157	0x31f577b9	7.1440494e-09
158	0x00000000	0.0
159	0x319179d7	4.233907e-09
160	0x00000000	0.0
161	0x3331b863	4.1378723e-08
162	0x00000000	0.0
163	0x00000000	0.0
164	0x00000000	0.0
165	0x308f76ed	1.043842e-09
166	0x308916eb	9.974576e-10
167	0x00000000	0.0
168	0x3314b23d	3.4621042e-08
169	0x2f8e73d1	2.5911942e-10
170	0x36a6bdbb	4.969273e-06
171	0x00000000	0.0
172	0x33e02242	1.0437044e-07
173	0x32d5c4a5	2.4885887e-08
174	0x3cb29fe4	0.021804757
175	0x3350e5da	4.8637823e-08
176	0x00000000	0.0
177	0x34318030	1.6531044e-07
178	0x341ad025	1.441809e-07
179	0x00000000	0.0
180	0x00000000	0.0
181	0x33b13337	8.251521e-08
182	0x30357578	6.601435e-10
183	0x00000000	0.0
184	0x3216a1da	8.76795e-09
185	0x31f91294	7.248966e-09
186	0x340d20c3	1.3143567e-07
187	0x311bd7a8	2.2678055e-09
188	0x00000000	0.0
189	0x33dd79ea	1.03132905e-07
190	0x00000000	0.0
191	0x00000000	0.0
192	0x00000000	0.0
193	0x35a51b07	1.2301324e-06
194	0x2b349b4f	6.416438e-13
195	0x3428ccb3	1.5720688e-07
196	0x00000000	0.0
197	0x33587096	5.0393815e-08
198	0x2e02e300	2.9760194e-11
199	0x2ff14ae9	4.3890871e-10
200	0x00000000	0.0
201	0x2f88df2f	2.4896837e-10
202	0x32a4929a	1.915878e-08
203	0x00000000	0.0
204	0x33e16149	1.0495075e-07
205	0x3788eae9	1.6321852e-05
206	0x00000000	0.0
207	0x3400cddb	1.1995819e-07
208	0x00000000	0.0
209	0x338e8d61	6.638107e-08
210	0x31f0d16b	7.0087274e-09
211	0x00000000	0.0
212	0x00000000	0.0
213	0x32db7f12	2.555274e-08
214	0x34526fb1	1.9598407e-07
215	0x00000000	0.0
216	0x00000000	0.0
217	0x00000000	0.0
218	0x2d033119	7.45739e-12
219	0x00000000	0.0
220	0x00000000	0.0
221	0x00000000	0.0
222	0x00000000	0.0
223	0x315d7a7f	3.2229364e-09
224	0x31fc1c0c	7.337354e-09
225	0x33affd43	8.1951406e-08
226	0x3202eb96	7.620562e-09
227	0x00000000	0.0
228	0x33209d1e	3.73958e-08
229	0x2bf54213	1.7426636e-12
230	0x3029ae66	6.1729677e-10
231	0x3396cd90	7.022311e-08
232	0x326c9604	1.3771118e-08
233	0x34795388	2.322032e-07
234	0x32beb665	2.2201855e-08
235	0x00000000	0.0
236	0x00000000	0.0
237	0x339bf4ad	7.262256e-08
238	0x00000000	0.0
239	0x33a1e726	7.5391924e-08
240	0x337f36c0	5.942161e-08
241	0x3b91d221	0.004450098
242	0x31f1c997	7.0369413e-09
243	0x00000000	0.0
244	0x00000000	0.0
245	0x00000000	0.0
246	0x00000000	0.0
247	0x00000000	0.0
248	0x00000000	0.0
249	0x00000000	0.0
250	0x323a743b	1.0853053e-08
251	0x00000000	0.0
252	0x00000000	0.0
253	0x29733f5d	5.4011798e-14
254	0x00000000	0.0
255	0x31a496ba	4.790164e-09
