trained_variables.pt (torch, 210081 bytes, 15 tensors)

conv1.bias f4 [128]
00000000: 0000 0000 0000 0000 fb7f 90bb 0000 0000
00000010: 0000 0000 0000 0000 0000 0000 de52 c5bb
00000020: 0000 0000 e84c fdbb 0000 0000 0000 0000
00000030: 0000 0000 0000 0000 8e3d c3ba 0000 0000
00000040: 0000 0000 5cc8 88bb 9327 53bb cfc6 a6bb
00000050: 0000 0000 0000 0000 ff87 a1bc 0000 0000
00000060: 0000 0000 b54b c9bb 18cc a5bb 6035 b8bb
00000070: c63f 88ba 0000 0000 0000 0000 d111 d6bb
00000080: 0000 0000 309e b7bc ad79 d4bc a8b6 eabb
00000090: 0000 0000 4dad 49bc 2f28 cbbc 0000 0000
000000a0: 0894 44bc 0000 0000 0000 0000 0000 0000
000000b0: 0000 0000 bdf4 93bc ff2e 07bc be6f c0ba
000000c0: 4092 5dbb 0000 0000 0000 0000 0000 0000
000000d0: 0000 0000 0000 0000 0e49 1cbc 0000 0000
000000e0: 9bcd 58bb acf4 e9ba 0000 0000 49eb c6bb
000000f0: 0000 0000 b73c 1dbc 25d3 8cbb 0000 0000
00000100: 0000 0000 0000 0000 152f 59ba 0000 0000
00000110: 0000 0000 dcca 223a 36f4 cdba abdd 8cbb
00000120: 24f6 38bb a891 b2bb 0000 0000 2601 39bd
00000130: 0000 0000 00f8 d5ba 417e 20bc 197f e6bb
00000140: 2924 f2ba 0000 0000 d19b c9ba cdc2 89ba
00000150: 0000 0000 a1ba f5ba 0000 0000 2ede 63bc
00000160: 0000 0000 0000 0000 36e8 52bc 0000 0000
00000170: 0000 0000 0000 0000 6d38 7abb 966f ffb9
00000180: 2d90 b9bb 0000 0000 c842 d6bb 5639 07bc
00000190: 0000 0000 0000 0000 0000 0000 2788 663b
000001a0: e61d 9fbb 4b9c 7cbb 0000 0000 0000 0000
000001b0: 0000 0000 b8c5 e1bb 0f44 76bc 0000 0000
000001c0: 3135 02bc 0000 0000 0000 0000 0000 0000
000001d0: b6db 17ba 9bc4 0fbc 734d 64ba 0ebc a7ba
000001e0: 5d70 d0ba e548 bbbb 0000 0000 0000 0000
000001f0: 346e 96bb 0000 0000 0000 0000 c4d2 10bb
0.0 0.0 -0.0044097877 0.0 0.0 0.0 0.0 -0.0060218414
0.0 -0.007730115 0.0 0.0 0.0 0.0 -0.0014895664 0.0
0.0 -0.0041742753 -0.0032219633 -0.005089618 0.0 0.0 -0.019718168 0.0
0.0 -0.006143058 -0.0050597303 -0.005621597 -0.0010394983 0.0 0.0 -0.0065328856
0.0 -0.022414297 -0.025936926 -0.0071628876 0.0 -0.0123093845 -0.024799434 0.0
-0.011998184 0.0 0.0 0.0 0.0 -0.018061036 -0.008250951 -0.0014681739
-0.0033809096 0.0 0.0 0.0 0.0 0.0 -0.009538902 0.0
-0.0033081535 -0.0017849407 0.0 -0.0060705286 0.0 -0.009596995 -0.0042976313 0.0
0.0 0.0 -0.0008284909 0.0 0.0 0.0006210038 -0.0015713039 -0.004298886
-0.0028222883 -0.0054494925 0.0 -0.04516711 0.0 -0.001632452 -0.009795726 -0.007034194
-0.0018473911 0.0 -0.001538152 -0.0010510326 0.0 -0.0018747636 0.0 -0.013907952
0.0 0.0 -0.012872746 0.0 0.0 0.0 -0.0038180605 -0.00048720528
-0.005662939 0.0 -0.0065387227 -0.008253416 0.0 0.0 0.0 0.0035176368
-0.004855859 -0.0038545306 0.0 0.0 0.0 -0.006890025 -0.015030875 0.0
-0.007947252 0.0 0.0 0.0 -0.00057929324 -0.008774902 -0.00087090506 -0.0012797134
-0.0015902627 -0.005715477 0.0 0.0 -0.004590774 0.0 0.0 -0.0022098282

conv1.lin.weight f4 [128, 1]
00000000: 3247 8fbd 8087 37bb 45de ed3d 1b9f f3bd
00000010: c454 14bd 505f 82bc b8af ecbc 98a9 273e
00000020: 304a 3dbe 37ea 613e 0aaf 1ebe 33b1 23be
00000030: 8ed5 12be ecee 13be db92 e0ba 96da a5bd
00000040: 9ac4 abbd 419a 1b3e 8800 563e 3b54 9f3d
00000050: 0807 d1bd d0f0 10bc 8bc2 383e f630 3cbe
00000060: f06b 47bd 2844 933d 4caa 0d3e 9b14 133d
00000070: 8f89 1a3e fd4e 32be 9fdc 2bbe 5d81 1d3e
00000080: 2738 19be a79c e33b 8e9e ad3d f93d 993d
00000090: a47b 0bbd 0d5d 893c e936 4e3e c258 88bd
000000a0: 21c9 383d 228d 21be b0cd f6bc 308a 65bc
000000b0: 9438 23bd b381 753c 7a5a e53d 03d3 073e
000000c0: f52f 1f3e e84f f8bc a637 b1bd 1cdd 7dbd
000000d0: 9df8 29be 0861 06be d8cd 263e 604b 2dbe
000000e0: 1b73 ae3d 7684 ee3d e8b9 46be 735e 23bb
000000f0: 2321 4bbe c782 583e f067 a53d c7fe 0cbe
00000100: e01b 98bc 65fc f3bd b43a 743e 3ef6 4dbe
00000110: 7cce 17be 7c59 953d 472b 2f3e 617b 213e
00000120: a717 333e 6692 683d 1dd9 4bbe 2ff1 04bc
00000130: fe68 4fbe f21a a9bb 146e 983d 7d09 ae3d
00000140: e6a1 543e 2ebf aebd 40cb b83c 9ff0 213e
00000150: 7220 e5bd 6c0d 383d 908c cbbc a9c0 0b3e
00000160: 0e3f bdbd 88db b5bd 8593 403e f87e 29bd
00000170: 60c8 c8bc 00d8 f0b9 1625 ca3d b9e1 ab3d
00000180: 311d 293e 19ca 0abe 019a 123e 3e03 353d
00000190: a04d 86bb 2ff1 d5bd 3953 09be f661 4b3c
000001a0: 083c 5a3e 1785 ec3d a459 93bd b017 f5bd
000001b0: 007c 38bd de6d ff3d 86ae bb3c 9b4f dbbd
000001c0: dad4 2e3e 28d6 00be dc31 1bbd c8d3 48bd
000001d0: b4b0 de3c b247 883d 6d0b 993d 629b 853d
000001e0: 20df b63d 706a 3d3e 3e53 09be 1cdb 5bbe
000001f0: 3da9 373e 5e7f d7bd 0095 dfba ce36 743e
-0.06996001 -0.0028004348 0.1161466 -0.11895581 -0.03621365 -0.01591459 -0.028892383 0.16373289
-0.18485332 0.22062002 -0.1549646 -0.15985565 -0.14339277 -0.1444661 -0.001713361 -0.080983326
-0.08387108 0.15195562 0.2089864 0.077797376 -0.10206419 -0.008846477 0.18042962 -0.18378052
-0.04868692 0.07190734 0.13834494 0.035908323 0.15091537 -0.17412944 -0.16783379 0.1538138
-0.14962827 0.0069461646 0.084775075 0.074825235 -0.03405346 0.016768003 0.20138134 -0.06657554
0.045113686 -0.15776494 -0.030127376 -0.014009997 -0.03984888 0.014984536 0.11198898 0.13264088
0.15545638 -0.03031154 -0.08653192 -0.061978444 -0.16598745 -0.13122952 0.1628946 -0.16923285
0.085180484 0.11646359 -0.19406855 -0.0024928122 -0.1983686 0.21143638 0.08076465 -0.13769065
-0.01856798 -0.11913375 0.23850518 -0.20113465 -0.14824861 0.072924584 0.17106353 0.15769722
0.17489491 0.05678024 -0.19907041 -0.008114143 -0.20254895 -0.005160683 0.07442871 0.084979035
0.20764884 -0.085325584 0.022557855 0.15814446 -0.11187829 0.044934675 -0.024847299 0.13647713
-0.09240542 -0.08879763 0.18806274 -0.041380852 -0.024509609 -0.000459373 0.09870355 0.083926626
0.16515042 -0.13553657 0.1431656 0.044192545 -0.004098609 -0.10446393 -0.13410653 0.012413492
0.21311963 0.115488224 -0.07194832 -0.11967409 -0.04504013 0.124721274 0.022910368 -0.10708543
0.17073384 -0.12581694 -0.037889346 -0.049030095 0.027183868 0.066543 0.074728824 0.065237775
0.089292765 0.18497634 -0.1341066 -0.21470302 0.17935653 -0.1052234 -0.0017057955 0.23849031

conv2.bias f4 [128]
00000000: a671 a13b 50eb e33c 24e7 8abb 86d4 213c
00000010: a045 46bc 1e6a 0e3c d6aa 2ebd 864e acbc
00000020: cfe7 723c 0a14 253d 09ac ee3b 1083 d9bc
00000030: 36d5 e2bc be15 663b 41f3 30bb a208 373c
00000040: 7c23 993c 89ac b2bc 5840 5dbd 3d19 62bc
00000050: 4d6f b4bc 0ffd 683c 2a3b abbc 8180 853c
00000060: 78e1 b4bb 1384 24bc 38f3 75bd 9ec2 9ebb
00000070: d28d d7bc 0bf3 a13c 1e93 883c 3a32 a8bb
00000080: 79fd 2d3d 0c1a 793a f09c e4ba 0ae4 43bb
00000090: b5f8 ad3c f1ce 203c 795f 02bd 8403 173b
000000a0: 5140 ddbc bca8 eb3b 804a 383b b04c 3fbc
000000b0: a808 6dba 94a9 55bc eda8 debc 1697 1c3c
000000c0: 530f 233d 420e 8bbc 9297 7c3a f456 71bc
000000d0: c96d 93bb afa1 aabb 781b ee3b 3108 743c
000000e0: 8821 1a3d 66d5 643c c165 073d c5d0 553d
000000f0: 66b9 bebc 5af7 143c 7a43 c9bc 8634 193d
00000100: 67cb c33c 6301 373b 7a93 9c3c 3213 e73c
00000110: 1baf 5a3c 5491 97bc ba17 0bbd 6eab 663d
00000120: 8510 be3c dd2e 773b eb24 32bc 46eb 613c
00000130: a1a3 25bd 955b 11bd 87fd 393c 9629 a7bc
00000140: 2fd5 c93c 4caa d0bc a0cf 623c c850 90bb
00000150: bc20 afbc b800 e53b ae26 eb3c a81f c5bb
00000160: 5ea8 03bc 9f72 8ebc 36f7 86bd 5a6f c5bb
00000170: b56d d93c 0931 c0bc 7312 20ba 6890 773c
00000180: 94f6 22bc ff1d 533d d573 cb3c 8fb3 a83c
00000190: ab8c 7fbb 894b f7bb 0e7a ce3c 3c0c d2bb
000001a0: e989 e5bc 4ab3 9b3c 5509 5a3b 3311 123c
000001b0: fcc6 8cbb 912b cbbc 7a12 cebc 830a 04bc
000001c0: eb96 aa3c ed58 16bc 3018 64bb a126 10bc
000001d0: 1f9f 603d 7e2f e4bb d237 823c 0e43 4e3c
000001e0: 8d0c 033c 6400 163d 7a3a 44bc e7be dfba
000001f0: 0fc6 1bbc 23f2 e0bc 87fb ee3c 387e c9bc
0.004926878 0.027822167 -0.00423898 0.00987733 -0.012101561 0.0086922925 -0.04264339 -0.021033537
0.014825775 0.040302314 0.007283692 -0.026551753 -0.027689558 0.0035108174 -0.002700046 0.011171492
0.018693678 -0.021810787 -0.05401644 -0.013799963 -0.022025729 0.01422049 -0.020902235 0.016296627
-0.005520042 -0.010041255 -0.060046405 -0.0048449775 -0.026312742 0.019769212 0.016671713 -0.0051329406
0.04247806 0.00095024775 -0.001744179 -0.002989056 0.021236757 0.009814964 -0.03182933 0.0023042867
-0.027008208 0.0071917456 0.0028120577 -0.011675999 -0.00090421224 -0.013040919 -0.02718016 0.009557506
0.039809536 -0.016974572 0.0009635623 -0.014730204 -0.0044991714 -0.0052072625 0.007266458 0.014894531
0.037629634 0.013966894 0.033056024 0.05220105 -0.023281764 0.009092176 -0.024568308 0.037403606
0.0239007 0.002792441 0.019113291 0.028207395 0.013347412 -0.018501915 -0.033958174 0.05631583
0.023201237 0.0037717142 -0.01087306 0.013789004 -0.04043925 -0.03548773 0.01135195 -0.020405572
0.024637787 -0.025471829 0.013843447 -0.004404161 -0.021377914 0.006988611 0.028704967 -0.0060157366
-0.008035747 -0.01738864 -0.065901205 -0.006025237 0.02654157 -0.023460882 -0.0006106265 0.015110113
-0.009946484 0.05154228 0.024835506 0.020593433 -0.0038993757 -0.0075468463 0.025204685 -0.00641015
-0.028019862 0.01900639 0.0033269722 0.008915233 -0.0042961817 -0.024801048 -0.025155295 -0.008059147
0.020823916 -0.009176475 -0.0034804456 -0.008798272 0.05483925 -0.0069636693 0.015895758 0.012589229
0.007998598 0.036621466 -0.0119768325 -0.0017070443 -0.00950767 -0.02745921 0.029172672 -0.024596319

conv2.lin.weight f4 [128, 128]
00000000: a037 0c3d 808a ad3d eb20 513d 2e42 973d
00000010: 58d9 e6bc 9ae4 da3d d013 d5bd 02bc f4bd
00000020: db0b 11be ee7c 54bd 993d d4bd a209 d73d
00000030: be74 d53d 5c0c 553d dd49 0dbe 3a22 ea3d
00000040: 3562 0f3e df55 6ebb 99f7 7a3d bc1f cc3d
00000050: c000 d0bd 9011 11be cd71 0c3e c8da 843c
00000060: f651 fa3d f02b 503d 041a adbd 76e5 95bd
00000070: 0ca6 89bc 6506 e5bd 955a 04be ce0e 883c
00000080: d8bf 473d c3f1 983c 4885 08be 1a83 e9bc
00000090: b33a 033e a85b c2bd 1098 b4bd da80 88bd
000000a0: e5f0 7abc ef14 90bd 7b2d c8bd e298 4cbd
000000b0: 411a d6bd e3de 3e3d 5074 273d 9645 febd
000000c0: 84e0 1abc 6e61 d33d 66c6 0ebe a047 e73c
000000d0: 3016 673d a8ef a83c 9f45 9ebd f422 5abd
000000e0: 8767 663d 0f69 753d 5031 093c 33f0 a1bd
000000f0: 50fa bebc 0b7a 84bd 824d 9d3a 98a8 b5bc
00000100: a42b 64bd 080e 0ebe 7d44 db3d 00c1 ff3a
00000110: 9cd8 1bbe 1c55 273d 5241 ee3d 2bd4 eabd
00000120: 9192 06be 2d4c e03d cc29 95bd 0b41 9f3d
00000130: 3143 04be 76a3 25be 9c7d 343e b383 12be
00000140: 0eaa 2a3d 2310 043e b6cb 01be bc88 89bc
00000150: 02c4 c6bd 5a03 e93d 5ab0 28bd 6d76 943d
00000160: 68fe df3c 32fa 1ebd 0067 cfbd c2e8 bfbd
00000170: 80e1 bf3b 8a52 e1bd 07f8 153e d8ac 9bbb
00000180: 5841 a9bd b6f8 5ebd 8822 173e fe29 19be
00000190: 913f 083e 20c7 edbc 3ec4 b53d d359 3fbc
000001a0: aa1b 843d fb35 2e3e 007e 613b 96aa acbd
000001b0: bc4b e5bd 38dd bfbd 8ae3 cebd c6cf 8cbd
000001c0: 1935 2a3c a29f d03d 8c02 cebd 5c78 163d
000001d0: 8f26 f6bd f8d1 423d 8f35 b2bd f847 35bc
000001e0: 21b9 abbc 5782 8a3d 3b49 0e3e ffe2 90bd
000001f0: b720 85bc 056d 113e d876 273d e33c e8bd
00000200: c3df 1bbe 0920 0c3e 0748 4b3c 1694 ac3d
00000210: 1e09 ca3d 90e2 763d e2cb 80bd 8d5a 10be
00000220: 3dd5 033e 6272 b9bc b221 79bd 54e2 123d
00000230: f0ba 59bc c655 ca3d a58a a5bc e0e7 f53b
00000240: 4061 b83d 00fc 1ebe 052e 50bd 4edd f53c
00000250: 801e 68bc 5d96 043e a599 fdbd 64c0 1bbe
00000260: 543b 9a3d 33be 913d 2b92 09be ee87 9ebc
00000270: 06c6 2e3d 1c03 efbc b8bc 2a3d b87f b1bd
00000280: 887e c33c d2a5 983d 97ec 9d3d 239e 06be
00000290: 896e 073e f815 ac3d 0059 253c 3583 0abe
000002a0: 49f9 f63d ec69 4d3d 4c4e f9bc 4252 ddbd
000002b0: 60e8 57bd 2b31 c1bc 20d0 1fbe efc4 45bd
000002c0: 41bf cb3d c09f 8abc 6b8d a6bd e837 923c
000002d0: f6d5 06bd 4be6 85bd 1dbe 7dbd 84cf 01be
000002e0: 618d 893d d704 2c3d 0879 a2bc 094c bf3d
000002f0: fb9b a2bd 6950 f13d c303 b8bd 44af 993d
00000300: 3536 0b3e 5668 ad3d 14e6 0ebe e817 b13d
00000310: 0088 adba 6b5e c63d 4ac3 563c 973d ad3d
00000320: 3334 32be 60b7 dd3d 765b 9c3d c1ce a8bc
00000330: 30f7 f6bd b503 163d 15a9 e93d cd52 2fbe
00000340: 72d8 63bd 7181 013e 9384 213d 359b 01bd
00000350: cebc 1bbe 78ca 06be 59d7 093e b9f2 35bd
00000360: 981b 1fbd 42d6 d53d d3ab 183e 1e08 e8bd
00000370: 1afd bd3d 1cf3 113d be18 9bbd 86fd 20bd
00000380: 4eb6 b43d f774 adbd 26d9 9abd b0b3 14be
00000390: 29f8 9fbd 7028 533d 07d5 d5bd 52f4 ae3d
000003a0: 37ca e3bd 32c1 12be 0236 00be a858 e5bc
000003b0: d647 d2bd 168b 503d f37c 933d d4bd 77bd
000003c0: 1044 143d 6a6b 02be 6ca5 233d 7097 fdbc
000003d0: 0921 07be 8682 ca3c ce13 36be ea9c 743d
000003e0: ae14 e8bc f392 dabc 0ac3 dabd 82b9 cdbd
000003f0: 432e 0a3e 1ae7 ce3d 3cf4 8b3d b071 ddbd
0.034232736 0.084736824 0.051056784 0.0738567 -0.02817981 0.106881335 -0.104041696 -0.11949922
-0.14164679 -0.051876955 -0.10363311 0.10499884 0.104226574 0.05201374 -0.13797708 0.114323094
0.14002307 -0.00363671 0.061271284 0.0996699 -0.10156393 -0.14166856 0.13715287 0.016217604
0.12222664 0.050823152 -0.08452228 -0.07319157 -0.01680281 -0.1118286 -0.1292518 0.016608622
0.04876694 0.018669968 -0.13332093 -0.028504897 0.1281536 -0.09490138 -0.08818066 -0.066652015
-0.015316223 -0.07035243 -0.097743 -0.049950488 -0.10454226 0.04659928 0.04088241 -0.12415616
-0.009452943 0.103213176 -0.1394287 0.028232396 0.056417644 0.02062209 -0.07728123 -0.05325599
0.056251075 0.059914645 0.008373573 -0.079071425 -0.023312718 -0.0646859 0.0012001249 -0.022175118
-0.05570568 -0.1387254 0.107064225 0.0019512475 -0.15219349 0.04085265 0.116335526 -0.11466249
-0.13141848 0.109520294 -0.07283363 0.07776078 -0.12916256 -0.16175637 0.17626041 -0.14308052
0.041666083 0.1289678 -0.12675366 -0.016788833 -0.09705354 0.113775924 -0.041183807 0.072491504
0.02734299 -0.038812824 -0.101270676 -0.09370567 0.005855739 -0.11002071 0.14645396 -0.004750829
-0.082644165 -0.054436408 0.14759266 -0.14957425 0.13305499 -0.029025614 0.08875321 -0.011679131
0.06450589 0.1701278 0.0034407377 -0.08430974 -0.11196086 -0.09368366 -0.101019934 -0.06875567
0.010388636 0.101866975 -0.100590795 0.036735877 -0.12019073 0.047563523 -0.08701622 -0.011064522
-0.0209623 0.067631416 0.13895123 -0.07074546 -0.016250951 0.14201744 0.040884823 -0.11339738
-0.15222077 0.13684095 0.012407309 0.08426683 0.0986502 0.06027466 -0.062888876 -0.14097042
0.12874313 -0.02263755 -0.06082315 0.035860375 -0.013289198 0.09879641 -0.020207712 0.0075044483
0.09002924 -0.15525818 -0.050825138 0.030012753 -0.014167428 0.12947984 -0.12382821 -0.1521011
0.07530847 0.07116356 -0.13434665 -0.019351926 0.04266932 -0.029176287 0.041683882 -0.086669385
0.023864046 0.07453503 0.077111416 -0.13146262 0.1322576 0.08402628 0.01009202 -0.13526614
0.12059266 0.050149843 -0.030432843 -0.10806705 -0.052711844 -0.023583015 -0.15606737 -0.048283514
0.09948588 -0.016921878 -0.08132442 0.017848924 -0.032918893 -0.065380655 -0.061948884 -0.12676817
0.06716419 0.041996803 -0.019833103 0.093406744 -0.07939907 0.11782915 -0.089850925 0.075041324
0.13594897 0.08467166 -0.13954955 0.08647138 -0.0013239384 0.096859775 0.013108084 0.08459013
-0.17402725 0.10825992 0.07634632 -0.0206064 -0.12058866 0.03662463 0.11409203 -0.1712143
-0.05562634 0.12647034 0.039433073 -0.031642158 -0.15208742 -0.13163173 0.13461055 -0.04442093
-0.038844675 0.10441257 0.14909296 -0.11329673 0.09276791 0.035632238 -0.075730786 -0.03930428
0.08823834 -0.08469575 -0.07560949 -0.1452167 -0.07811005 0.051552236 -0.10441022 0.08542694
-0.11122554 -0.1433151 -0.12520602 -0.027996376 -0.10267608 0.050913893 0.072015665 -0.06048377
0.036197722 -0.12736288 0.03995268 -0.030956 -0.13196196 0.024720442 -0.17780992 0.059719957
-0.028330173 -0.026681399 -0.10681732 -0.100451484 0.1349421 0.10102673 0.068336934 -0.108127

linear.weight f4 [1, 128]
00000000: ac14 5ebd 6770 b0bd 5923 92ba a593 babd
00000010: feda 0bbd aaf4 b8bc 6657 b13c 179c 0b3d
00000020: 38f1 94bb d2b7 873c e726 b8bc 7f70 eb3d
00000030: faaf 303c 97b8 863d 3f0b 853d 0a15 be3d
00000040: f9ba dcbd 7b03 d93c a6ce af3c efa8 f63d
00000050: 2615 1dbd fa9a 1ebd b828 a83d 3603 263d
00000060: 3983 10ba 1b1b 3dbd e09f a63c e729 fd3c
00000070: 1c28 0a3d 12b3 95bd 0c6b a1bc 5b18 80bd
00000080: 76f2 8abd c640 dfbd 7204 31bd 1354 a03d
00000090: 140b 11bd 8803 94bd 058b b83d 240e 78bd
000000a0: dd02 a83d 5413 923c 9637 c43d f13f 2c3d
000000b0: fed6 103d 1268 053b 260a 403d 70f4 fb3d
000000c0: 3351 38bd 080e 8c3c b2fb 353d 0815 b93d
000000d0: fce6 b4bc 661c 893d 7157 d6bb f897 893d
000000e0: 9c75 a8bc 4dd8 b5bb 38ff 973d f657 153b
000000f0: 7b6e 41bd 9d3b dfbd b59c bdbc 3017 2cbd
00000100: 4ad7 c5bc 4bdc 513c f01d 02bd 5ee8 97bd
00000110: 4bd8 afbb fd37 85bd b00e bb3c 7a1d afbc
00000120: 8286 ebbc 57f9 5bbc c7a0 b3bd 1906 66bd
00000130: 1bbb d73c 0dd9 163c d486 3ebd fbd8 183d
00000140: 25e4 20bd e0ac c33c 6b70 acbd 3801 bb3d
00000150: 2843 a63c 80eb b03d 8bbc 5fbd 4f7a 893d
00000160: 718a a23c d126 0b3c c2f1 933c f448 a2bd
00000170: 6d4e 223d 53bb 0f3d 429e 67bd 329d ed3c
00000180: 3971 2a3d 3215 77bc c9a9 9dbd d6c5 2bbc
00000190: 3828 893c 534c 9b3d e58a f23c 09b4 42bd
000001a0: 03ca 293b b28e 8dbd 44af 41bd d3c8 ccbc
000001b0: 9bcc d1bd fa17 853d f9a8 cf3c 367f 523d
000001c0: c2c8 80bd 89c9 723d 9558 923d 93ba dc3c
000001d0: b297 ddbc efb0 a03c 50a8 713c 9489 4e3d
000001e0: 4ede b73d cecd 9bbb a372 783d 4832 cebc
000001f0: 71bd aa3d 0e20 163d e7cc 3bbd 62b6 84bd
-0.054218933 -0.08615189 -0.001114945 -0.09110192 -0.034144394 -0.022577602 0.02164812 0.034084406
-0.004545357 0.016567145 -0.022479488 0.11496066 0.010784144 0.065781765 0.06496286 0.09281357
-0.1077785 0.026490917 0.021460842 0.1204394 -0.038350247 -0.038722016 0.082108915 0.040530406
-0.0005512718 -0.046168428 0.020339906 0.03090377 0.033729658 -0.073095456 -0.019704364 -0.062546454
-0.06784527 -0.109010264 -0.04321713 0.07828536 -0.035410956 -0.07227236 0.09010891 -0.06056036
0.08203671 0.017831482 0.09580915 0.042053167 0.035361283 0.002035622 0.04688468 0.12302482
-0.044999313 0.017096534 0.04442949 0.090372145 -0.022082798 0.0669487 -0.0065411855 0.06718439
-0.020563893 -0.0055494667 0.07421726 0.0022788025 -0.047224503 -0.10900042 -0.023146013 -0.0420143
-0.02415051 0.01280887 -0.031766832 -0.074173674 -0.0053663603 -0.065048195 0.022834152 -0.02137636
-0.028750662 -0.0134261465 -0.087709 -0.05615816 0.026334336 0.009207022 -0.0465153 0.037316304
-0.039280076 0.023886144 -0.084198795 0.09131092 0.020295694 0.08638668 -0.054623168 0.06712782
0.019841405 0.008493141 0.018059615 -0.07924071 0.039625574 0.035090756 -0.05654741 0.02900562
0.041611884 -0.015080737 -0.076983996 -0.0104841795 0.01674281 0.07582917 0.029607246 -0.047534976
0.0025907762 -0.069119826 -0.047286287 -0.024998104 -0.102441035 0.06498714 0.025349127 0.05139085
-0.062882915 0.05927423 0.07145802 0.026944434 -0.027049873 0.019615619 0.0147496015 0.050424173
0.08977948 -0.0047547584 0.0606562 -0.02517046 0.08336914 0.036651663 -0.045849707 -0.06480099

exp_avg f4 [128]
00000000: 0000 0000 0000 0000 ddc0 49b4 0000 0000
00000010: 0000 0000 0000 0000 0000 0000 dda7 0b34
00000020: 0000 0000 0e31 3eb3 0000 0000 0000 0000
00000030: 0000 0000 0000 0000 07ce e125 0000 0000
00000040: 0000 0000 e0ca 9db4 2872 d434 b219 2034
00000050: 0000 0000 0000 0000 6e3a 6d34 0000 0000
00000060: 0000 0000 218f ec32 df96 6d32 f44e 56b4
00000070: d02f 8433 0000 0000 0000 0000 3c46 1134
00000080: 0000 0000 f415 9532 2e25 ceb2 d81d 3db5
00000090: 0000 0000 108e 6eb3 6724 2339 0000 0000
000000a0: a156 05b4 0000 0000 0000 0000 0000 0000
000000b0: 0000 0000 4a0b 0038 4c5f 09b5 688d 1c34
000000c0: 4ce4 c0b3 0000 0000 0000 0000 0000 0000
000000d0: 0000 0000 0000 0000 80cd abb3 0000 0000
000000e0: 5910 2fb3 4065 b034 0000 0000 6560 ee26
000000f0: 0000 0000 7371 3635 2b2d ba32 0000 0000
00000100: 0000 0000 0000 0000 4d6b c1b4 0000 0000
00000110: 0000 0000 2481 04bb ef1e 1c34 4a16 0835
00000120: 2fdd 37b5 c005 94b3 0000 0000 1a9e 4d1d
00000130: 0000 0000 124c a124 cf25 0bb4 1a09 0034
00000140: beea f833 0000 0000 f368 44b2 6614 ef32
00000150: 0000 0000 c05e dfb4 0000 0000 f8a8 2db2
00000160: 0000 0000 0000 0000 55b1 e634 0000 0000
00000170: 0000 0000 0000 0000 a20b cfb3 c6c3 1eb4
00000180: c4cc 16b3 0000 0000 d010 0fb5 4207 3ab3
00000190: 0000 0000 0000 0000 0000 0000 160e 47bc
000001a0: 4ab3 a5b4 359a b434 0000 0000 0000 0000
000001b0: 0000 0000 6353 db34 b14d d1b4 0000 0000
000001c0: 82f7 30b4 0000 0000 0000 0000 0000 0000
000001d0: b8d6 29b5 78d5 dbb4 f31a 7cb4 d83b 1db3
000001e0: 5378 b633 821f 2733 0000 0000 0000 0000
000001f0: 78d0 36b3 0000 0000 0000 0000 36e9 3533
0.0 0.0 -1.8789747e-07 0.0 0.0 0.0 0.0 1.3006452e-07
0.0 -4.4282437e-08 0.0 0.0 0.0 0.0 3.9170888e-16 0.0
0.0 -2.939114e-07 3.9571137e-07 1.4910509e-07 0.0 0.0 2.2093602e-07 0.0
0.0 2.7539103e-08 1.382952e-08 -1.9959026e-07 6.155426e-08 0.0 0.0 1.3529728e-07
0.0 1.7355866e-08 -2.3998464e-08 -7.0451415e-07 0.0 -5.55429e-08 0.00015558452 0.0
-1.2418106e-07 0.0 0.0 0.0 0.0 3.0528092e-05 -5.117515e-07 1.4580075e-07
-8.982224e-08 0.0 0.0 0.0 0.0 0.0 -8.000188e-08 0.0
-4.076023e-08 3.2856224e-07 0.0 1.6540695e-15 0.0 6.7965374e-07 2.167379e-08 0.0
0.0 0.0 -3.6027123e-07 0.0 0.0 -0.0020218575 1.4539886e-07 5.0696383e-07
-6.8494677e-07 -6.892833e-08 0.0 2.721326e-21 0.0 6.995149e-17 -1.2959138e-07 1.192424e-07
1.1591099e-07 0.0 -1.1432564e-08 2.7832538e-08 0.0 -4.1605927e-07 0.0 -1.0108344e-08
0.0 0.0 4.2969864e-07 0.0 0.0 0.0 -9.6413046e-08 -1.4786119e-07
-3.511083e-08 0.0 -5.3296117e-07 -4.33131e-08 0.0 0.0 0.0 -0.012149354
-3.0864095e-07 3.3639813e-07 0.0 0.0 0.0 4.08526e-07 -3.8985812e-07 0.0
-1.648132e-07 0.0 0.0 0.0 -6.3269863e-07 -4.0947248e-07 -2.3479133e-07 -3.660884e-08
8.496922e-08 3.8911374e-08 0.0 0.0 -4.256478e-08 0.0 0.0 4.235445e-08

exp_avg_sq f4 [128]
00000000: 0000 0000 0000 0000 c864 743a 0000 0000
00000010: 0000 0000 0000 0000 0000 0000 ea01 b93c
00000020: 0000 0000 cd65 1e39 0000 0000 0000 0000
00000030: 0000 0000 0000 0000 08b3 3a39 0000 0000
00000040: 0000 0000 07ff 7b3c e481 9238 c375 fc3a
00000050: 0000 0000 0000 0000 f6ca ea30 0000 0000
00000060: 0000 0000 4606 0e3b fb83 0b3d 9b54 f83b
00000070: bda8 733c 0000 0000 0000 0000 2c6a 4c31
00000080: 0000 0000 b404 b530 e396 c631 7402 fe3b
00000090: 0000 0000 9b48 d038 ab8a 963b 0000 0000
000000a0: b085 9439 0000 0000 0000 0000 0000 0000
000000b0: 0000 0000 f888 7832 e66a af38 4977 ac3b
000000c0: a843 443b 0000 0000 0000 0000 0000 0000
000000d0: 0000 0000 0000 0000 f72a 2331 0000 0000
000000e0: 5a8c 5d3c 383d bc3c 0000 0000 2f86 773a
000000f0: 0000 0000 2af7 c13c 83f5 2a3b 0000 0000
00000100: 0000 0000 0000 0000 2eb3 f03c 0000 0000
00000110: 0000 0000 994b 103d 9e84 293c 9754 0c3b
00000120: 867d 723c e395 8d3b 0000 0000 331f a32f
00000130: 0000 0000 50e6 773c 6b22 5c2f 3c5f 343b
00000140: 80b4 863b 0000 0000 7ef1 853c 52d6 dc3c
00000150: 0000 0000 7602 a63c 0000 0000 3283 2c38
00000160: 0000 0000 0000 0000 f009 8a38 0000 0000
00000170: 0000 0000 0000 0000 4c7c b63b 4f70 b63c
00000180: 239a 7a3b 0000 0000 3b8d eb3c 41b5 593c
00000190: 0000 0000 0000 0000 0000 0000 93df e33c
000001a0: 571e 883c a3f6 083c 0000 0000 0000 0000
000001b0: 0000 0000 f268 a73b 601e 8e2e 0000 0000
000001c0: 2a0a 023a 0000 0000 0000 0000 0000 0000
000001d0: 89a0 d03a c5a5 6a39 05dc 083b 2ca5 5c38
000001e0: 1291 033c db66 5138 0000 0000 0000 0000
000001f0: 904f 923c 0000 0000 0000 0000 8b5e 9f3d
0.0 0.0 0.0009322879 0.0 0.0 0.0 0.0 0.02258392
0.0 0.00015105978 0.0 0.0 0.0 0.0 0.00017805037 0.0
0.0 0.0153806275 6.9860165e-05 0.001926117 0.0 0.0 1.7083426e-09 0.0
0.0 0.002167122 0.034061413 0.007578445 0.014871773 0.0 0.0 2.9746259e-09
0.0 1.317082e-09 5.7797123e-09 0.0077517573 0.0 9.931737e-05 0.004594167 0.0
0.00028328365 0.0 0.0 0.0 0.0 1.4466643e-08 8.364562e-05 0.0052632433
0.0029947553 0.0 0.0 0.0 0.0 0.0 2.3744045e-09 0.0
0.013522232 0.02297841 0.0 0.0009442297 0.0 0.023677427 0.0026086278 0.0
0.0 0.0 0.029382315 0.0 0.0 0.035228346 0.01034656 0.0021412724
0.014800435 0.0043208464 0.0 2.9671696e-10 0.0 0.015130594 2.0021111e-10 0.0027522584
0.0041108727 0.0 0.016350504 0.026957665 0.0 0.020264845 0.0 4.113018e-05
0.0 0.0 6.582204e-05 0.0 0.0 0.0 0.0055690166 0.02227035
0.0038238845 0.0 0.028753867 0.013287843 0.0 0.0 0.0 0.02781657
0.01661603 0.008359584 0.0 0.0 0.0 0.005108946 6.462808e-11 0.0
0.0004960621 0.0 0.0 0.0 0.0015916984 0.00022377733 0.0020883095 5.2605916e-05
0.008030193 4.9925275e-05 0.0 0.0 0.017860204 0.0 0.0 0.077817045

exp_avg f4 [128, 1]
00000000: 0000 0000 0000 0000 36b1 f6ba 0000 0000
00000010: 0000 0000 0000 0000 0000 0000 6e83 d53a
00000020: 0000 0000 e0ee 62b9 0000 0000 0000 0000
00000030: 0000 0000 0000 0000 4479 732c 0000 0000
00000040: 0000 0000 a9e1 29bb 9e3a 293b 0f0d 273b
00000050: 0000 0000 0000 0000 2340 5d3b 0000 0000
00000060: 0000 0000 1bdd 443a 780c de38 e0ca 18bb
00000070: 645f 713a 0000 0000 0000 0000 a10e 313a
00000080: 0000 0000 2e11 6dba c3e3 42ba 51f4 21bb
00000090: 0000 0000 7f10 8cba 497f 3139 0000 0000
000000a0: d1f4 92ba 0000 0000 0000 0000 0000 0000
000000b0: 0000 0000 04d7 4abb c89a a2bb 7ad2 6139
000000c0: 2ad2 41ba 0000 0000 0000 0000 0000 0000
000000d0: 0000 0000 0000 0000 9e86 14bb 0000 0000
000000e0: 3d4f 88ba b823 fe3a 0000 0000 ddb7 682e
000000f0: 0000 0000 c521 5a3b 56fa 163a 0000 0000
00000100: 0000 0000 0000 0000 2a89 16bb 0000 0000
00000110: 0000 0000 d0b1 2d3b 9e28 533b 60e0 083b
00000120: be3f 7cbb acd4 87ba 0000 0000 7421 b524
00000130: 0000 0000 4ab8 9521 35a8 62b9 4b74 ef37
00000140: 8c0e ac3a 0000 0000 cf69 0cba 8249 8739
00000150: 0000 0000 7248 52bb 0000 0000 a7bb b339
00000160: 0000 0000 0000 0000 cd4c eb3b 0000 0000
00000170: 0000 0000 0000 0000 b40f 773a ac42 a2ba
00000180: 10b1 3fbb 0000 0000 c585 15bb 7722 27bb
00000190: 0000 0000 0000 0000 0000 0000 597d 9a39
000001a0: 6c5e 97bb f8a1 3a3b 0000 0000 0000 0000
000001b0: 0000 0000 7a4f 833b 5873 27bb 0000 0000
000001c0: 787f bcba 0000 0000 0000 0000 0000 0000
000001d0: e968 91bb 99f1 d3bb 5c70 f5ba 12d6 68ba
000001e0: c916 0a3b cd7a b8ba 0000 0000 0000 0000
000001f0: 8ac1 a8ba 0000 0000 0000 0000 c339 c33a
0.0 0.0 -0.0018821124 0.0 0.0 0.0 0.0 0.001628978
0.0 -0.00021642027 0.0 0.0 0.0 0.0 3.4599693e-12 0.0
0.0 -0.0025921857 0.0025822292 0.0025489961 0.0 0.0 0.0033760152 0.0
0.0 0.0007509754 0.000105881074 -0.0023314282 0.0009207635 0.0 0.0 0.0006754194
0.0 -0.00090433925 -0.0007434452 -0.0024712274 0.0 -0.0010686069 0.00016927453 0.0
-0.0011211877 0.0 0.0 0.0 0.0 -0.0030950913 -0.004962299 0.00021536081
-0.00073936826 0.0 0.0 0.0 0.0 0.0 -0.0022663246 0.0
-0.0010399591 0.0019389307 0.0 5.2913996e-11 0.0 0.0033284288 0.0005759349 0.0
0.0 0.0 -0.002296994 0.0 0.0 0.002650369 0.0032220255 0.002088569
-0.0038490142 -0.0010363064 0.0 7.855291e-17 0.0 1.0145414e-18 -0.00021615702 2.8545173e-05
0.0013126894 0.0 -0.0005356343 0.00025803974 0.0 -0.0032086638 0.0 0.00034281352
0.0 0.0 0.007180786 0.0 0.0 0.0 0.0009424642 -0.0012379489
-0.0029249825 0.0 -0.0022815329 -0.002550272 0.0 0.0 0.0 0.0002946656
-0.0046194103 0.0028477889 0.0 0.0 0.0 0.004007277 -0.0025550928 0.0
-0.001438125 0.0 0.0 0.0 -0.004437555 -0.0064680097 -0.0018725502 -0.00088819966
0.002107071 -0.0014074683 0.0 0.0 -0.0012875062 0.0 0.0 0.0014894534

exp_avg_sq f4 [128, 1]
00000000: 0000 0000 0000 0000 22f7 753e 0000 0000
00000010: 0000 0000 0000 0000 0000 0000 9be3 fd3c
00000020: 0000 0000 78db 0a41 0000 0000 0000 0000
00000030: 0000 0000 0000 0000 0170 033c 0000 0000
00000040: 0000 0000 ae3e 5440 cefd 8b41 b5df 5740
00000050: 0000 0000 0000 0000 cb6e 933f 0000 0000
00000060: 0000 0000 b0e9 6e3f 84e0 0a41 fdb0 1540
00000070: 7256 3340 0000 0000 0000 0000 b139 1a40
00000080: 0000 0000 3336 863f 4d55 b640 579c 5540
00000090: 0000 0000 33bc 0d41 bf9c 103f 0000 0000
000000a0: 6c1d 743d 0000 0000 0000 0000 0000 0000
000000b0: 0000 0000 8e54 163c 53d1 473f 8ffb 853d
000000c0: 96c3 dc3e 0000 0000 0000 0000 0000 0000
000000d0: 0000 0000 0000 0000 c5df ab3f 0000 0000
000000e0: 2121 0d3c 56b4 3740 0000 0000 b97d 2d40
000000f0: 0000 0000 5fec 1541 638a 8140 0000 0000
00000100: 0000 0000 0000 0000 dc87 6e40 0000 0000
00000110: 0000 0000 73b1 dc40 880a 2c40 b9b1 f03f
00000120: c39e 8840 c3e1 0040 0000 0000 9394 7f3e
00000130: 0000 0000 0d38 b03c 9d85 783c 74a4 7e41
00000140: dedb eb3f 0000 0000 4144 433e 82e8 3240
00000150: 0000 0000 a384 b93f 0000 0000 296b 6040
00000160: 0000 0000 0000 0000 41c7 9840 0000 0000
00000170: 0000 0000 0000 0000 05d0 ec40 6495 963e
00000180: f153 ba3f 0000 0000 85d9 e53f d26c 783f
00000190: 0000 0000 0000 0000 0000 0000 4ba7 4f3e
000001a0: 093c e640 8fa6 9341 0000 0000 0000 0000
000001b0: 0000 0000 1dfb c33e d1f4 353c 0000 0000
000001c0: ea58 7241 0000 0000 0000 0000 0000 0000
000001d0: 5b2a 753e 69b6 9c3d 46e3 8e40 4a1e 893f
000001e0: 2f31 1e41 69fb ac3e 0000 0000 0000 0000
000001f0: a10d 2e3d 0000 0000 0000 0000 63e0 3b41
0.0 0.0 0.24020055 0.0 0.0 0.0 0.0 0.03099232
0.0 8.678581 0.0 0.0 0.0 0.0 0.008022309 0.0
0.0 3.3163257 17.498928 3.373029 0.0 0.0 1.1518186 0.0
0.0 0.9332533 8.679813 2.3389275 2.8021512 0.0 0.0 2.4097712
0.0 1.048529 5.6979127 3.3376672 0.0 8.858447 0.56489176 0.0
0.05959837 0.0 0.0 0.0 0.0 0.009175433 0.7805378 0.065421216
0.4311797 0.0 0.0 0.0 0.0 0.0 1.3427664 0.0
0.008613856 2.8703818 0.0 2.7107985 0.0 9.370208 4.048143 0.0
0.0 0.0 3.7270422 0.0 0.0 6.8966613 2.6881428 1.8804237
4.26938 2.0137794 0.0 0.2495902 0.0 0.021511102 0.015168575 15.91515
1.8426473 0.0 0.19069006 2.7954412 0.0 1.4493603 0.0 3.5065405
0.0 0.0 4.774323 0.0 0.0 0.0 7.400393 0.2941085
1.4556867 0.0 1.7957007 0.97041047 0.0 0.0 0.0 0.20278661
7.1948285 18.456327 0.0 0.0 0.0 0.38277522 0.011105732 0.0
15.146708 0.0 0.0 0.0 0.23941939 0.076519795 4.4652433 1.0712368
9.887008 0.3378556 0.0 0.0 0.042493466 0.0 0.0 11.742282

exp_avg f4 [128]
00000000: 5c4e ce3a c7d5 0cbb 5b7e 783b d702 bdbb
00000010: bb66 813a 90d9 a43b 12c5 d53b 08bc 043b
00000020: e7e4 283c 9c51 1cbb bd57 973b 1218 37ba
00000030: 041b e0ba 758a fa3b f1cb d33b f779 cd3b
00000040: 372e 533b bec5 d43b bbd9 463a 4a48 0c3b
00000050: bd96 9aba bdf6 bd3b d47a d0bb c6ff 81bc
00000060: 18b5 83bb fcd3 bb3b 484f 083c eb62 2bbb
00000070: 6371 dabb fff4 28bb c958 163b 7737 893a
00000080: 564d e2b9 0521 23ba 35e5 01bb 1587 82bb
00000090: bbda adbb 1b88 71bb cdaf 9d3a 0632 c0ba
000000a0: ab54 29bc b7ab 9e3a 6a6c 1dbc 24ea 2f3b
000000b0: 94c6 d43b 74ab a73b b090 c13a ccd1 11bb
000000c0: dbc3 64b9 e3de 24bb 6cfc e7ba 4c7d 99ba
000000d0: 0676 223a 35e8 99bb ac80 c9bb e392 01bc
000000e0: 1642 a8bb 264f bfbb 40b5 2dbb 0c49 2aba
000000f0: 5285 beba 25bb f1bb 6b17 81bb db42 ae3a
00000100: 68bc f3bb d6ac c1ba 6cdc 3b3b 3e39 eaba
00000110: d32c f43b e068 68ba 4eb9 92bb ab53 d9ba
00000120: 9100 b63b cfc3 b639 a91b 713b 76de 6cba
00000130: ede6 a43b 6e3c bf3b b845 f83a c465 36bb
00000140: c269 61bb 1513 88b9 6c8b 6abb c2b3 17bb
00000150: eed3 5aba 030d 91bc b1f8 7eba 28c5 373b
00000160: b2e0 ab3b 3f52 caba 309f 373a 171a 50bb
00000170: 72ab 753b b3b0 a8bb 4375 03bc de18 333c
00000180: 3b0e 46bb f8dd 65bb 9500 ae3b 92c9 06bb
00000190: 0fc3 ce3a 2102 c9bb 25bb 28bb 4c73 a339
000001a0: 4cda 233b 5137 c83b e717 153c beee 04bc
000001b0: 0a39 f1bb 34a3 7fbb 4364 0a3b 0abc bebb
000001c0: d9a7 a13b 2b4e b3ba 12f2 99bb f8ca 83ba
000001d0: 1742 99bb 3e7c 53bb 330d cf3b e394 0cbc
000001e0: a896 0639 2257 1dba da92 743c f6f1 573a
000001f0: 235b 4b3a fd4f 1b3b 5fdc f43a 8039 f83a
0.0015739906 -0.0021489726 0.003791711 -0.005768161 0.0009872535 0.0050308183 0.0065237368 0.0020253677
0.010308481 -0.0023852354 0.0046186135 -0.0006984483 -0.0017097895 0.0076459 0.0064635207 0.006270643
0.003222359 0.0064932993 0.0007585545 0.0021405392 -0.0011794191 0.0057972358 -0.0063622985 -0.015869033
-0.004019391 0.0057320576 0.008319683 -0.002615149 -0.006666349 -0.0025780795 0.0022941104 0.00104688
-0.000431637 -0.0006222877 -0.0019820456 -0.003983388 -0.0053056157 -0.0036854807 0.0012030542 -0.0014663346
-0.010335128 0.0012105618 -0.009608367 0.002684244 0.006493399 0.0051168744 0.0014767852 -0.0022250293
-0.00021816736 -0.0025157265 -0.0017699129 -0.0011710315 0.00061973964 -0.0046968707 -0.006149372 -0.007908556
-0.005134831 -0.0058382927 -0.0026505738 -0.000649587 -0.0014535582 -0.0073770457 -0.003939559 0.0013295071
-0.0074382313 -0.001477624 0.0028665317 -0.0017869843 0.0074516325 -0.0008865725 -0.0044776564 -0.0016580721
0.0055542667 0.00034859634 0.0036790168 -0.0009035835 0.0050324113 0.005836061 0.0018941676 -0.0027831653
-0.0034395312 -0.0002595416 -0.0035788668 -0.0023147915 -0.000834762 -0.0177064 -0.0009726389 0.0028041098
0.0052452916 -0.0015435888 0.0007004617 -0.0031753832 0.0037486223 -0.0051480173 -0.008023563 0.010931222
-0.0030220884 -0.003507493 0.005310128 -0.0020566923 0.0015774685 -0.006134287 -0.0025746312 0.00031175686
0.0025001941 0.00611011 0.009099937 -0.008113561 -0.007361536 -0.0039007189 0.002111689 -0.005820756
0.004933339 -0.0013679912 -0.0046980465 -0.0010054996 -0.004677068 -0.00322701 0.006318712 -0.008580419
0.0001283536 -0.00060020585 0.01492759 0.0008237654 0.0007757416 0.00236988 0.0018681398 0.0018938035

exp_avg_sq f4 [128]
00000000: 6762 023c 945f 123c 0d14 413c 4288 063c
00000010: 0c9f 403c ec15 e73b 9470 3c3c 4105 083c
00000020: f0e3 393c 2209 e63b da05 2c3c d969 f73b
00000030: 26a6 dd3b 578e 213c a94f 033c bb2d 3c3c
00000040: 355d dd3b 7924 423c 5768 f73b 258b 183c
00000050: 5ce4 2d3c e581 473c 4ddd fb3b 1292 4c3c
00000060: b0cd ef3b e047 203c b658 fe3b 7fb6 ec3b
00000070: 352a 0b3c 6255 ee3b c3b6 0e3c c72c 283c
00000080: 5355 793c d4ab 0c3c 51f3 f73b 647e 343c
00000090: b4e2 383c 1d20 453c 3e52 0d3c 4894 103c
000000a0: 4ecb 333c 321b 103c a96e 193c 0a68 fe3b
000000b0: 9da4 3d3c a5b4 413c 9b32 f33b 7f29 393c
000000c0: 6fb4 253c 8dee 3d3c 2fbc 0f3c 5ef3 e33b
000000d0: a516 ec3b 4c72 3a3c 41c2 fa3b e87a 3f3c
000000e0: dfbe 263c 500a 0a3c 609d 7d3c e181 623c
000000f0: 0901 383c 5aeb 253c f808 193c b760 083c
00000100: 3c2c 5f3c 5de9 953b c20a 283c 8f3b 353c
00000110: 0369 233c 5404 1b3c 9620 733c c6a3 133c
00000120: 395c f53b 429e 113c 9a3c 263c b60b 173c
00000130: dc4b 4d3c 16d9 f83b ff45 fe3b c25c 2d3c
00000140: da32 333c f2b6 e43b eb4a ea3b fc2d 2a3c
00000150: c140 1f3c c3cb 733c cafb 223c af7b 1c3c
00000160: 527a 103c ca45 003c 49f0 9d3c 5a9e 9d3c
00000170: 22ff 423c 5593 3d3c 3316 df3b 1d6b 453c
00000180: bac3 3f3c a056 fc3b 3c4a 4e3c 3fdc d33b
00000190: 0c45 113c 1c4b c03b 7888 e13b a8ae 003c
000001a0: 365d 213c 1ed3 633c f944 213c 6f0f 333c
000001b0: ee40 0f3c cc02 f23b 9aff 1c3c 15ca fe3b
000001c0: 170d c83b 0d10 f13b 0863 273c ebf2 193c
000001d0: 85af 023c 1e7f 283c 8191 333c 34e1 693c
000001e0: 1633 2b3c 4ede 353c ac68 283c c2ee 233c
000001f0: 4dcb 333c bf32 5f3c 941e 283c 67f4 573c
0.007958031 0.00893392 0.011784566 0.008211197 0.01175667 0.007052174 0.01150145 0.008302034
0.011345848 0.0070201317 0.010499442 0.00755046 0.006764191 0.009860597 0.008014598 0.011485512
0.006755496 0.011849516 0.00755028 0.009310518 0.010613527 0.012176965 0.007686293 0.012485998
0.007318221 0.009782761 0.00776204 0.0072239037 0.00849395 0.007273362 0.008710566 0.010264582
0.015218097 0.008585889 0.0075668474 0.011016462 0.011284519 0.012031582 0.008625565 0.0088244155
0.010973765 0.008795546 0.009364762 0.0077638673 0.011574891 0.011822854 0.007421804 0.011301397
0.0101138195 0.0115925195 0.008772894 0.006956502 0.007204848 0.01137979 0.0076525514 0.011687018
0.010177343 0.00842531 0.015479416 0.013824911 0.011230716 0.010126913 0.009340517 0.00832384
0.013621386 0.004574938 0.010256471 0.011061563 0.009973767 0.009461481 0.014839312 0.009011215
0.0074878004 0.008887829 0.0101462845 0.009219101 0.012530293 0.007594238 0.007759809 0.010581197
0.010937417 0.0069798166 0.007150044 0.01038694 0.009720028 0.014880124 0.0099477265 0.009550973
0.008818226 0.007829139 0.019279616 0.019240547 0.011901649 0.011570771 0.0068080663 0.012049464
0.01170438 0.007700756 0.012590941 0.0064654644 0.00886656 0.0058683287 0.0068827234 0.007854141
0.009848883 0.013905315 0.0098431045 0.010928973 0.008743508 0.0073855873 0.009582425 0.007775555
0.006105076 0.0073566497 0.010216482 0.009396295 0.007976417 0.010284213 0.010959984 0.014274884
0.010449192 0.011100365 0.010278862 0.010005655 0.010973764 0.013622939 0.010261197 0.013180829

exp_avg f4 [128, 128]
00000000: 0000 0000 0000 0000 c396 e736 0000 0000
00000010: 0000 0000 0000 0000 0000 0000 04f8 c0b4
00000020: 0000 0000 d287 f4b8 0000 0000 0000 0000
00000030: 0000 0000 0000 0000 71f0 a229 0000 0000
00000040: 0000 0000 9871 5439 018b 5c39 deb1 8538
00000050: 0000 0000 0000 0000 9c91 1239 0000 0000
00000060: 0000 0000 c746 3736 2a00 24b8 6dc4 2438
00000070: f025 ea36 0000 0000 0000 0000 d1a6 2238
00000080: 0000 0000 9c4b 77b4 a2bd c1b7 eb73 8735
00000090: 0000 0000 b393 46b7 6fb7 ceb8 0000 0000
000000a0: 00c1 50b6 0000 0000 0000 0000 0000 0000
000000b0: 0000 0000 3888 eeb4 92b2 f938 adaa 3938
000000c0: 6aef e437 0000 0000 0000 0000 0000 0000
000000d0: 0000 0000 0000 0000 52fd 02b7 0000 0000
000000e0: 2336 59b7 dab3 fb38 0000 0000 4de2 c0aa
000000f0: 0000 0000 aef3 2739 f18f 0138 0000 0000
00000100: 0000 0000 0000 0000 a668 a638 0000 0000
00000110: 0000 0000 009e 0e38 b295 fc38 e233 8d38
00000120: 007c 3836 71cd d6b7 0000 0000 44f7 5021
00000130: 0000 0000 c842 369f 1ada 9838 2c3d 8537
00000140: ba0f 3f39 0000 0000 ed69 8d37 9d65 2538
00000150: 0000 0000 0f9a bd37 0000 0000 f5e3 ea38
00000160: 0000 0000 0000 0000 e78a d938 0000 0000
00000170: 0000 0000 0000 0000 6d0f 6d38 3ed8 81b8
00000180: f69a c938 0000 0000 9c56 0c39 e842 0a38
00000190: 0000 0000 0000 0000 0000 0000 5c02 8d36
000001a0: 75ca 7638 ca5c fd38 0000 0000 0000 0000
000001b0: 0000 0000 f6da 3e38 1bd9 5237 0000 0000
000001c0: 9b10 fb36 0000 0000 0000 0000 0000 0000
000001d0: c9e9 0a37 1189 6a37 10bd 2738 a134 2f38
000001e0: e2ac 73b8 805a 4639 0000 0000 0000 0000
000001f0: 371e 3739 0000 0000 0000 0000 7512 3e36
00000200: 0000 0000 0000 0000 0c17 1439 0000 0000
00000210: 0000 0000 0000 0000 0000 0000 2d09 8c37
00000220: 0000 0000 d14c 0139 0000 0000 0000 0000
00000230: 0000 0000 0000 0000 4256 082a 0000 0000
00000240: 0000 0000 b1c0 9339 1024 5938 5851 a338
00000250: 0000 0000 0000 0000 0611 0a39 0000 0000
00000260: 0000 0000 7b6b c338 86a1 8537 d003 9e38
00000270: fddc 8139 0000 0000 0000 0000 1455 d5b7
00000280: 0000 0000 3c4d 6937 f0d9 0539 301b 6637
00000290: 0000 0000 94f8 ad36 2469 c838 0000 0000
000002a0: a162 9f38 0000 0000 0000 0000 0000 0000
000002b0: 0000 0000 2343 bc37 66c3 6139 b310 8e38
000002c0: 989f 2539 0000 0000 0000 0000 0000 0000
000002d0: 0000 0000 0000 0000 ce3b 7c39 0000 0000
000002e0: f655 f838 a45b 1639 0000 0000 447d 0bab
000002f0: 0000 0000 2497 4439 78cf 9e38 0000 0000
00000300: 0000 0000 0000 0000 ce9b 8c39 0000 0000
00000310: 0000 0000 aa55 6038 6162 8639 7a47 6137
00000320: 1387 4e38 39d6 4a38 0000 0000 0129 5321
00000330: 0000 0000 1557 b29d c835 0338 9b35 ca38
00000340: f051 2c39 0000 0000 6159 4038 820c 3f39
00000350: 0000 0000 9166 0738 0000 0000 62f6 9939
00000360: 0000 0000 0000 0000 7010 c839 0000 0000
00000370: 0000 0000 0000 0000 96b7 8ab6 ff7e 4538
00000380: d986 7939 0000 0000 0792 5339 3465 e438
00000390: 0000 0000 0000 0000 0000 0000 5acb f236
000003a0: 5313 9c39 41dd 7e39 0000 0000 0000 0000
000003b0: 0000 0000 6676 3f39 7a14 0c37 0000 0000
000003c0: 462e 4739 0000 0000 0000 0000 0000 0000
000003d0: b625 df37 728f 0439 4aad e237 39d1 b938
000003e0: d145 1738 7b9b 7338 0000 0000 0000 0000
000003f0: 66c5 c539 0000 0000 0000 0000 f371 0c3a
0.0 0.0 6.9018874e-06 0.0 0.0 0.0 0.0 -3.5943242e-07
0.0 -0.00011660125 0.0 0.0 0.0 0.0 7.235955e-14 0.0
0.0 0.00020260212 0.00021032618 6.3750645e-05 0.0 0.0 0.00013977889 0.0
0.0 2.7310323e-06 -3.91008e-05 3.9283583e-05 6.97816e-06 0.0 0.0 3.877917e-05
0.0 -2.3031174e-07 -2.3095698e-05 1.009202e-06 0.0 -1.1836109e-05 -9.8570126e-05 0.0
-3.1106756e-06 0.0 0.0 0.0 0.0 -4.4430067e-07 0.000119065066 4.426639e-05
2.7291204e-05 0.0 0.0 0.0 0.0 0.0 -7.807585e-06 0.0
-1.2946813e-05 0.000120021126 0.0 -3.426308e-13 0.0 0.00016017139 3.0890053e-05 0.0
0.0 0.0 7.934989e-05 0.0 0.0 3.4002587e-05 0.00012044179 6.733068e-05
2.7490314e-06 -2.5606454e-05 0.0 7.0800395e-19 0.0 -3.859524e-20 7.2885494e-05 1.588332e-05
0.00018221038 0.0 1.6857835e-05 3.94337e-05 0.0 2.2602295e-05 0.0 0.0001120045
0.0 0.0 0.00010373239 0.0 0.0 0.0 5.651957e-05 -6.1914776e-05
9.6132906e-05 0.0 0.00013383705 3.2964075e-05 0.0 0.0 0.0 4.202402e-06
5.8839523e-05 0.000120812634 0.0 0.0 0.0 4.5503453e-05 1.2567524e-05 0.0
7.482316e-06 0.0 0.0 0.0 8.279873e-06 1.39794e-05 3.999198e-05 4.1772266e-05
-5.8096724e-05 0.00018916465 0.0 0.0 0.00017463496 0.0 0.0 2.832295e-06
0.0 0.0 0.00014122966 0.0 0.0 0.0 0.0 1.6693573e-05
0.0 0.00012331015 0.0 0.0 0.0 0.0 1.2109153e-13 0.0
0.0 0.0002818159 5.1770417e-05 7.787597e-05 0.0 0.0 0.00013167047 0.0
0.0 9.3183444e-05 1.593005e-05 7.534737e-05 0.00024769446 0.0 0.0 -2.5431196e-05
0.0 1.3905865e-05 0.00012765056 1.3715398e-05 0.0 5.18474e-06 9.556327e-05 0.0
7.600082e-05 0.0 0.0 0.0 0.0 2.244261e-05 0.00021530464 6.774198e-05
0.0001579508 0.0 0.0 0.0 0.0 0.0 0.00024054872 0.0
0.00011841573 0.00014339254 0.0 -4.955656e-13 0.0 0.00018748321 7.572671e-05 0.0
0.0 0.0 0.00026818964 0.0 0.0 5.3485543e-05 0.0002563177 1.3427687e-05
4.9240025e-05 4.8360063e-05 0.0 7.154385e-19 0.0 -4.720625e-21 3.128292e-05 9.6420954e-05
0.00016433722 0.0 4.5859608e-05 0.00018219839 0.0 3.228203e-05 0.0 0.00029366004
0.0 0.0 0.0003815922 0.0 0.0 0.0 -4.1340927e-06 4.7086734e-05
0.00023796725 0.0 0.00020176928 0.00010890738 0.0 0.0 0.0 7.2358353e-06
0.00029769036 0.00024305751 0.0 0.0 0.0 0.00018259286 8.349418e-06 0.0
0.00018995357 0.0 0.0 0.0 2.6601232e-05 0.00012641939 2.7021993e-05 8.860458e-05
3.6066227e-05 5.8080517e-05 0.0 0.0 0.0003772184 0.0 0.0 0.0005357556

exp_avg_sq f4 [128, 128]
00000000: 0000 0000 0000 0000 7721 4c3a 0000 0000
00000010: 0000 0000 0000 0000 0000 0000 51fb 483b
00000020: 0000 0000 66d9 d83d 0000 0000 0000 0000
00000030: 0000 0000 0000 0000 db53 e536 0000 0000
00000040: 0000 0000 9b37 a93c c6f2 223d 076c 2d3b
00000050: 0000 0000 0000 0000 f452 9e3c 0000 0000
00000060: 0000 0000 460d 9f3c 9c5a 303d e599 f03a
00000070: c129 a93c 0000 0000 0000 0000 39ed f83c
00000080: 0000 0000 344e ab39 f968 f33b 43af 653b
00000090: 0000 0000 b80f 763a 5373 7e3b 0000 0000
000000a0: 0b5b 673a 0000 0000 0000 0000 0000 0000
000000b0: 0000 0000 6e27 8836 00ab 803c d59a eb3a
000000c0: cc5e d63c 0000 0000 0000 0000 0000 0000
000000d0: 0000 0000 0000 0000 732d 883d 0000 0000
000000e0: 895f 3439 9147 e43c 0000 0000 a1ff dc38
000000f0: 0000 0000 9d6d 513d de6a cd3b 0000 0000
00000100: 0000 0000 0000 0000 0302 573d 0000 0000
00000110: 0000 0000 457a 1c3b 0813 0d3d 7c12 073d
00000120: 8c00 d73c 7b6c 103c 0000 0000 1e7f c937
00000130: 0000 0000 272c 2b35 13e1 b138 ccec 903c
00000140: f93c 233d 0000 0000 064b fd38 b262 aa3c
00000150: 0000 0000 0f83 533b 0000 0000 ebed bc3c
00000160: 0000 0000 0000 0000 ed46 463d 0000 0000
00000170: 0000 0000 0000 0000 2889 a93c 9007 0b3c
00000180: 1460 7b3d 0000 0000 36f6 343d 9cfd 923a
00000190: 0000 0000 0000 0000 0000 0000 b5d1 2337
000001a0: d42d 103d 4688 fb3c 0000 0000 0000 0000
000001b0: 0000 0000 4e22 8e3c a703 2737 0000 0000
000001c0: c7ff 6d3d 0000 0000 0000 0000 0000 0000
000001d0: b857 da38 e69e 5539 a154 be3b b2b1 1c3c
000001e0: e6e5 9a3c c2e6 533b 0000 0000 0000 0000
000001f0: bd07 1f3d 0000 0000 0000 0000 527d 593d
00000200: 0000 0000 0000 0000 a213 bc3a 0000 0000
00000210: 0000 0000 0000 0000 0000 0000 427e 533b
00000220: 0000 0000 cd16 1e3e 0000 0000 0000 0000
00000230: 0000 0000 0000 0000 6f6b 5937 0000 0000
00000240: 0000 0000 400e 2b3d 4320 a73d 7433 b73b
00000250: 0000 0000 0000 0000 9a29 253d 0000 0000
00000260: 0000 0000 b85c cc3c 592a 8e3d d988 763b
00000270: 86e1 2a3d 0000 0000 0000 0000 e2ce 3a3d
00000280: 0000 0000 ed46 343a ec57 743c ec43 ee3b
00000290: 0000 0000 e76e ca3a bff7 a63b 0000 0000
000002a0: d136 763a 0000 0000 0000 0000 0000 0000
000002b0: 0000 0000 e1b7 9036 27a8 833c a103 f33a
000002c0: f545 e33c 0000 0000 0000 0000 0000 0000
000002d0: 0000 0000 0000 0000 6d9b be3d 0000 0000
000002e0: 5d01 4d39 6661 e83c 0000 0000 3949 6939
000002f0: 0000 0000 4d58 de3d f01a 213c 0000 0000
00000300: 0000 0000 0000 0000 d440 db3d 0000 0000
00000310: 0000 0000 fd11 a53b 4bf4 0f3d b6c3 883d
00000320: ff5c 5c3d 7468 6d3c 0000 0000 92cb cc37
00000330: 0000 0000 0574 5035 ed2f e038 bcf3 cc3c
00000340: 70b4 a53d 0000 0000 b74c 0039 f2b0 323d
00000350: 0000 0000 65a0 893b 0000 0000 851a 0e3d
00000360: 0000 0000 0000 0000 8f76 943d 0000 0000
00000370: 0000 0000 0000 0000 1987 b03c adf5 923c
00000380: b166 c13d 0000 0000 66ee 7e3d f9aa 023b
00000390: 0000 0000 0000 0000 0000 0000 eb3e 7f37
000003a0: dc54 983d e379 4b3d 0000 0000 0000 0000
000003b0: 0000 0000 3993 963c e254 3e37 0000 0000
000003c0: 1ad0 aa3d 0000 0000 0000 0000 0000 0000
000003d0: 796f dd38 81cf c639 5c98 c83b 1c00 4e3c
000003e0: 1b11 fc3c 98c6 8b3b 0000 0000 0000 0000
000003f0: 2cb7 223d 0000 0000 0000 0000 a1a2 dd3d
0.0 0.0 0.0007786969 0.0 0.0 0.0 0.0 0.0030667374
0.0 0.105883405 0.0 0.0 0.0 0.0 6.834494e-06 0.0
0.0 0.020656398 0.039782308 0.0026462094 0.0 0.0 0.019326665 0.0
0.0 0.019415509 0.04305516 0.0018356411 0.020649793 0.0 0.0 0.030386554
0.0 0.00032673927 0.007428285 0.003504709 0.0 0.00093864975 0.0038826063 0.0
0.0008825517 0.0 0.0 0.0 0.0 4.057706e-06 0.01570654 0.0017975221
0.02616825 0.0 0.0 0.0 0.0 0.0 0.06649294 0.0
0.00017201727 0.027866157 0.0 0.00010538032 0.0 0.051129926 0.006268843 0.0
0.0 0.0 0.052492153 0.0 0.0 0.002387659 0.034441978 0.032976612
0.026245378 0.008814926 0.0 2.402026e-05 0.0 6.3766714e-07 8.481941e-05 0.017691039
0.03985307 0.0 0.00012077954 0.020799015 0.0 0.0032274162 0.0 0.023062667
0.0 0.0 0.048407484 0.0 0.0 0.0 0.020695284 0.00848569
0.061370924 0.0 0.044180118 0.0011214497 0.0 0.0 0.0 9.764383e-06
0.035199955 0.030704629 0.0 0.0 0.0 0.017350342 9.954826e-06 0.0
0.058105256 0.0 0.0 0.0 0.00010411389 0.00020372457 0.0058084284 0.00956385
0.018908452 0.0032333587 0.0 0.0 0.03882574 0.0 0.0 0.05309803
0.0 0.0 0.0014349113 0.0 0.0 0.0 0.0 0.00322713
0.0 0.15438385 0.0 0.0 0.0 0.0 1.2959222e-05 0.0
0.0 0.041761637 0.0816045 0.0055908505 0.0 0.0 0.040322877 0.0
0.0 0.024946555 0.06941671 0.0037618189 0.041718982 0.0 0.0 0.045607455
0.0 0.0006877024 0.01491354 0.0072712805 0.0 0.0015444428 0.0050954516 0.0
0.00093923236 0.0 0.0 0.0 0.0 4.3129407e-06 0.016071392 0.001854051
0.027743319 0.0 0.0 0.0 0.0 0.0 0.09306989 0.0
0.00019550831 0.028366756 0.0 0.00022247889 0.0 0.10856686 0.009833083 0.0
0.0 0.0 0.10705724 0.0 0.0 0.0050375448 0.035145085 0.06677954
0.053799625 0.014490236 0.0 2.441349e-05 0.0 7.765487e-07 0.00010690079 0.025018565
0.08091056 0.0 0.0001223561 0.04362578 0.0 0.0042000287 0.0 0.03469326
0.0 0.0 0.07249176 0.0 0.0 0.0 0.021548795 0.017939413
0.09443415 0.0 0.062239073 0.0019938333 0.0 0.0 0.0 1.5213834e-05
0.07438061 0.049676787 0.0 0.0 0.0 0.018380748 1.1344646e-05 0.0
0.083404735 0.0 0.0 0.0 0.000105588646 0.00037920105 0.0061216783 0.012573268
0.030769875 0.0042656176 0.0 0.0 0.039725468 0.0 0.0 0.108220346

exp_avg f4 [1, 128]
00000000: d0fe 8131 6dfb 2fb1 b8d4 0ab3 bd90 92b2
00000010: 2cfc c8b1 32f7 7fb2 927b a4b2 3c42 2e31
00000020: 36af 9c32 e34f 8b32 aef1 e9b1 fdd3 97b2
00000030: 9ac8 1e32 2d2a 31b2 808a 0332 be45 8632
00000040: dfaa d431 2409 50b1 2ee3 4cb2 31eb 89b2
00000050: 2f72 86b2 4751 18b2 429f 6eb2 fdd1 8531
00000060: 6a69 8eb2 6783 c630 7707 7932 c3fd ae32
00000070: 01cb b832 52bd afb1 4412 26b2 87d6 07b2
00000080: 86b3 d532 b443 28b2 f1b5 9db1 96f4 6132
00000090: 4dc7 d4b1 8239 c6b2 2530 feb1 4d96 6f32
000000a0: 5a6b f9b2 4f47 f931 fc66 6ab2 09b9 98b2
000000b0: df98 1032 fc06 7cb2 1c6d e2b1 7c94 62b2
000000c0: f4e3 2932 a524 20b3 da99 faaf 1901 ce30
000000d0: 5ba2 6432 99ee 0832 7c09 cd31 1fd7 cd32
000000e0: 5a65 01b1 2dd6 6ab2 2f6c 1232 6cb0 0633
000000f0: 9c21 f731 7d1e 66b2 64ff 4f30 29c0 ac30
00000100: 2d5b 8c32 9455 d031 db3a 48b1 7ac5 ce31
00000110: 8dd7 0f33 cbfd 0631 fb27 bfb2 7127 d432
00000120: 8648 2232 8694 9231 364c a6b1 e174 dc2f
00000130: f244 c831 7c76 a3b2 3785 d2b1 7fd6 70b2
00000140: 9a75 9532 b8b8 beb0 2233 5331 edd6 9ab2
00000150: b0a0 6f32 90cf af31 8baa d131 b400 9432
00000160: bf6f 8fb2 ecbf b632 c547 83b2 3671 1cb0
00000170: 1d27 88b1 10cf 06b3 5b0a d230 e35c 8531
00000180: 44cd d7b1 8e05 1a32 f7a5 8832 dc81 fbb1
00000190: d1a2 34b2 7e10 ddb1 2f56 9ab1 d66d ed30
000001a0: 3594 9932 5dbb 5bb2 6e89 12b3 a61e 0eb2
000001b0: b59d 3cb2 d625 6832 0f12 32b2 c8a3 af2f
000001c0: 268d 1231 119d edb1 8359 5532 dd56 0cb2
000001d0: 05b4 c032 5982 2f32 5c8b db32 5c96 5130
000001e0: 16f9 9eb1 da3c 8db1 1664 85b0 5b26 f1b1
000001f0: d531 fab1 3427 ccb2 1baf 0a33 debc c330
3.783363e-09 -2.560877e-09 -3.2324095e-08 -1.7062456e-08 -5.8494347e-09 -1.4899159e-08 -1.9148306e-08 2.5357982e-09
1.8240467e-08 1.6218058e-08 -6.8086683e-09 -1.7675115e-08 9.242422e-09 -1.0312346e-08 7.656695e-09 1.5631368e-08
6.189438e-09 -3.027318e-09 -1.19260175e-08 -1.6055852e-08 -1.5651578e-08 -8.866045e-09 -1.3889634e-08 3.8946824e-09
-1.6578912e-08 1.4443743e-09 1.4495405e-08 2.0371663e-08 2.1512735e-08 -5.1146936e-09 -9.666625e-09 -7.906812e-09
2.4878101e-08 -9.794281e-09 -4.5899857e-09 1.3152336e-08 -6.19267e-09 -2.3076385e-08 -7.3978463e-09 1.3945805e-08
-2.9036233e-08 7.2549606e-09 -1.3644009e-08 -1.7779273e-08 8.416662e-09 -1.4669919e-08 -6.58987e-09 -1.3188693e-08
9.888925e-09 -3.728623e-08 -4.5584053e-10 1.4988785e-09 1.3308262e-08 7.970493e-09 5.9673635e-09 2.3962967e-08
-1.8829582e-09 -1.3669291e-08 8.522917e-09 3.135976e-08 7.192467e-09 -1.3394694e-08 7.5669093e-10 1.2569262e-09
1.6339607e-08 6.063326e-09 -2.9137286e-09 6.0178396e-09 3.3490824e-08 1.964383e-09 -2.2253507e-08 2.4697984e-08
9.446131e-09 4.2660444e-09 -4.8399e-09 4.0100814e-10 5.8286043e-09 -1.9029578e-08 -6.126949e-09 -1.4018609e-08
1.7399362e-08 -1.387682e-09 3.0733607e-09 -1.8025696e-08 1.3948167e-08 5.1167675e-09 6.102089e-09 1.7229787e-08
-1.6698207e-08 2.1274865e-08 -1.5283044e-08 -5.691335e-10 -3.9625676e-09 -3.138763e-08 1.5282454e-09 3.8813694e-09
-6.2806595e-09 8.965243e-09 1.5907956e-08 -7.3198247e-09 -1.0514399e-08 -6.4338215e-09 -4.491788e-09 1.7275237e-09
1.7878941e-08 -1.2790079e-08 -3.4118266e-08 -8.2724565e-09 -1.0978899e-08 1.351278e-08 -1.036507e-08 3.1948688e-10
2.132603e-09 -6.915464e-09 1.2418584e-08 -8.168823e-09 2.2433605e-08 1.0215978e-08 2.5558329e-08 7.624743e-10
-4.626723e-09 -4.110558e-09 -9.70547e-10 -7.0183837e-09 -7.281623e-09 -2.3766553e-08 3.2289886e-08 1.4241797e-09
