trained_variables.pt (torch, 210081 bytes, 15 tensors)

conv1.bias f4 [128]
00000000: 0000 0000 0000 0000 0000 0000 66f8 d4bd
00000010: 4db3 98bb 0000 0000 233f 20be 0000 0000
00000020: 5d7e a3bb 0000 0000 4467 98bc ca26 a5bb
00000030: b549 32bd 0000 0000 0000 0000 0000 0000
00000040: 3e6e b5bd 71a1 68bd 4054 dcbd 480b babb
00000050: 0000 0000 8e51 a1bc 0000 0000 0000 0000
00000060: 0000 0000 6a3b fabb 0000 0000 0000 0000
00000070: 9015 55be 0000 0000 0000 0000 0000 0000
00000080: 587b 12bc 9b11 0abc edd1 883e 0000 0000
00000090: 518d f8bb 5a23 08bc b058 2fbe e9be adbd
000000a0: 46b6 95bd 0000 0000 0000 0000 ca80 dabd
000000b0: 8f81 d5bb 0000 0000 0000 0000 8cc9 2bbc
000000c0: 80df b7bb 0000 0000 0000 0000 b47b debb
000000d0: 0000 0000 0000 0000 0000 0000 14ae b2bd
000000e0: 0000 0000 0000 0000 4212 72bd 0000 0000
000000f0: 0000 0000 0000 0000 c8e4 e7bd ec55 8abd
00000100: bd46 d2bd 05a6 95bb 503d c6bb 0b3d a1bb
00000110: c43a b2bb 0000 0000 0000 0000 0000 0000
00000120: 191b 8fbd 0000 0000 9217 a4bb 62bf a5bd
00000130: 0000 0000 0000 0000 0000 0000 0000 0000
00000140: 76f9 1ebe 0000 0000 f8a2 8abd 404b 20bc
00000150: 0000 0000 0000 0000 20f4 7bbd fd4d a5bb
00000160: 0000 0000 5f5e bebd 28c7 a8bd abd8 06be
00000170: 0000 0000 0000 0000 bcf7 8abd 0000 0000
00000180: 72ac c4bc 0000 0000 372e 28bc 68c5 3fbc
00000190: 0000 0000 0000 0000 0000 0000 34b9 eeba
000001a0: ea71 4abc c5e1 ebbc 88a4 13bb 0000 0000
000001b0: 0000 0000 0000 0000 0000 0000 f92f afbd
000001c0: 0000 0000 1271 4bbe 0000 0000 0000 0000
000001d0: 5a2b e8bd c97c f1bd f8dc edbd 39d2 79bd
000001e0: 0000 0000 95ca 80bd 0000 0000 0000 0000
000001f0: 166b 4bbc 4c15 11bc baa8 04be ba7c 8ebd
0.0 0.0 0.0 -0.10398941 -0.004660046 0.0 -0.15649085 0.0
-0.004989429 0.0 -0.018603928 -0.0050400244 -0.043527324 0.0 0.0 0.0
-0.08858918 -0.056794588 -0.10758257 -0.0056776144 0.0 -0.019692209 0.0 0.0
0.0 -0.0076364772 0.0 0.0 -0.20809007 0.0 0.0 0.0
-0.00894054 -0.008427049 0.2672266 0.0 -0.0075852056 -0.00830921 -0.17123675 -0.08483679
-0.073101565 0.0 0.0 -0.10669096 -0.0065156887 0.0 0.0 -0.010485064
-0.00561136 0.0 0.0 -0.006789649 0.0 0.0 0.0 -0.08724609
0.0 0.0 -0.059099443 0.0 0.0 0.0 -0.113229334 -0.067546695
-0.102673985 -0.00456691 -0.0060497895 -0.004920607 -0.0054391343 0.0 0.0 0.0
-0.0698759 0.0 -0.0050076926 -0.08093144 0.0 0.0 0.0 0.0
-0.1552485 0.0 -0.06769365 -0.009783566 0.0 0.0 -0.061512113 -0.0050446973
0.0 -0.092953436 -0.08241111 -0.1316859 0.0 0.0 -0.06785533 0.0
-0.02400801 0.0 -0.010264925 -0.01170478 0.0 0.0 0.0 -0.0018213154
-0.012356261 -0.028794179 -0.0022528488 0.0 0.0 0.0 0.0 -0.08554072
0.0 -0.19867352 0.0 0.0 -0.11336394 -0.11791379 -0.11614412 -0.0609915
0.0 -0.062886395 0.0 0.0 -0.012415668 -0.008855175 -0.12954989 -0.069573835

conv1.lin.weight f4 [128, 1]
00000000: 0860 b7bd 705e 42be 4613 3dbe c05d 3f3c
00000010: a8b7 94bb 54e7 7ebd 0eb2 b03c 5849 37be
00000020: 6bb5 ab3c df5e 1ebe 7c75 023e 08e7 00bb
00000030: e68e 6c3d f024 27bd c771 32be fe0b d6bd
00000040: 0e30 833d fea0 1bba a1ec 773d 6e40 9bbb
00000050: dcfa 46be 527a 6fba 74b4 00be b474 16be
00000060: 8889 64bd f200 1e3d 087b 2dbd e914 56be
00000070: e0a0 ba3c c03b 01bd 8652 2dbe 7ca5 09be
00000080: 6bb4 073e 597e fe3d 0602 e2bb a90d fabd
00000090: f693 39bc 3800 a5ba a5b1 a63b b7c0 de3c
000000a0: 7d51 f23d 426b 48be 27f4 4cbe 76a7 ffb8
000000b0: 62c9 213d c331 1dbe 880d d6bc 7366 88ba
000000c0: f75e 0fbb fc19 bebd 302a c3bd 0ec1 713c
000000d0: 8830 2bbd cfd6 c1bd 6e6e ffbd c1de 013c
000000e0: 408b 28bc 407e 37bd bdeb ad3d 337b 3abe
000000f0: 8034 13be 58a5 a6bd 2e1c 013e c291 8e3d
00000100: 87c3 2c3c 9206 d5ba 7299 46bc 13da 7abc
00000110: 6954 09bb f447 01be a847 46bd 8cd2 10bd
00000120: 4cef 073e 26fc 93bd fac1 81bb b5f0 e83c
00000130: 516c 16be 70b9 fdbc cca9 71bd 46d2 3ebe
00000140: e3fd 823c 10b7 a7bd b83b 973c a8c9 f03c
00000150: 350b eabd dfe7 1cbe 4278 183d 18ee 963c
00000160: 58a0 3ebd 50e2 bf3d d19e a93d 5726 07bc
00000170: 9651 e6bd 38ab f2bc 2c25 953b 0cfd dfbd
00000180: ff90 2aba 48b5 a2bd d51f 9dba 5334 083e
00000190: 782d dfbc 6a63 96bd b6ec 37be e7bd 8fbb
000001a0: c839 4bba 3a76 b93c 7f84 abba d547 ddbd
000001b0: 0e9d 56be 9071 17be e24e cfbd 0ea1 453d
000001c0: 7196 45be 7844 aa3c ea9a 0dbe 4c6a 0cbe
000001d0: 973d 143d de37 9d3c cb4b 74bc b929 0a3e
000001e0: 7562 ffbd a8f8 ccb7 ce2e eabd 5d79 e9bd
000001f0: 182a e2bb e585 a93d 6e1d 2fbc aea6 da3b
-0.089538634 -0.18981338 -0.18464383 0.011680067 -0.004538495 -0.06223233 0.021569278 -0.17899072
0.02096053 -0.15465878 0.12740129 -0.0019668955 0.057753466 -0.04080671 -0.17426215 -0.10451506
0.0640565 -0.00059367705 0.0605284 -0.004737905 -0.19431633 -0.00091353536 -0.12568837 -0.14692956
-0.055795223 0.03857512 -0.04235366 -0.20906414 0.02278179 -0.031551123 -0.16926011 -0.13442034
0.13252418 0.12426443 -0.006897214 -0.12209637 -0.011326781 -0.0012588566 0.005087095 0.027191503
0.11831949 -0.19572166 -0.20015012 -0.000121905396 0.039498694 -0.15351014 -0.0261295 -0.0010406509
-0.0021876672 -0.092823 -0.09529531 0.0147555005 -0.04179433 -0.094647996 -0.12472235 0.007926644
-0.010287106 -0.044798136 0.08492229 -0.1821106 -0.14375496 -0.081370056 0.12608406 0.06961395
0.010544664 -0.0016252568 -0.012121545 -0.015310782 -0.0020954853 -0.12625104 -0.04840818 -0.035357043
0.13274878 -0.07225828 -0.0039598914 0.02843509 -0.14689757 -0.030972213 -0.05899982 -0.186349
0.015990203 -0.08189213 0.018461093 0.029393032 -0.11427919 -0.15322827 0.03722406 0.018424079
-0.046539634 0.093693376 0.08282245 -0.008248887 -0.1124603 -0.02962266 0.0045515504 -0.10936937
-0.00065065915 -0.07944733 -0.0011987636 0.1330121 -0.02724336 -0.073431805 -0.17961392 -0.004386652
-0.00077524455 0.022639383 -0.0013085752 -0.108047165 -0.20958349 -0.14789414 -0.101224676 0.048249297
-0.1929567 0.020784602 -0.13828626 -0.13712424 0.03619155 0.019191679 -0.014910649 0.13492478
-0.12469951 -2.4434485e-05 -0.114347085 -0.11400101 -0.0069019906 0.082774915 -0.010688169 0.006672702

conv2.bias f4 [128]
00000000: d2c9 c4bb c2c9 c4bb d9c9 c4bb cfc9 c43b
00000010: c0c9 c43b adc9 c4bb dac9 c43b abc9 c43b
00000020: d2c9 c43b cdc9 c4bb d1c9 c43b b5c9 c43b
00000030: dbc9 c4bb c9c9 c4bb b4c9 c43b e4c9 c43b
00000040: d6c9 c43b cdc9 c4bb b8c9 c4bb d5c9 c43b
00000050: ecc9 c4bb bcc9 c4bb b6c9 c43b c1c9 c43b
00000060: d5c9 c43b cdc9 c43b d5c9 c43b c2c9 c43b
00000070: cac9 c4bb d7c9 c43b ccc9 c43b cbc9 c43b
00000080: e7c9 c4bb bec9 c4bb c9c9 c4bb c6c9 c43b
00000090: b7c9 c43b ccc9 c4bb 9dc9 c4bb 9bc9 c4bb
000000a0: 9fc9 c4bb e6c9 c4bb cfc9 c43b e7c9 c4bb
000000b0: b1c9 c4bb c2c9 c4bb aec9 c4bb d7c9 c43b
000000c0: d4c9 c43b d2c9 c4bb 17c9 c43b b2c9 c4bb
000000d0: b4c9 c4bb 8bc9 c4bb cec9 c4bb b5c9 c4bb
000000e0: afc9 c43b cbc9 c4bb d4c9 c43b b0c9 c4bb
000000f0: d9c9 c43b dcc9 c43b d2c9 c4bb d2c9 c43b
00000100: d2c9 c4bb d0c9 c43b b4c9 c4bb 3fc9 c4bb
00000110: d5c9 c4bb c7c9 c43b c0c9 c4bb a0c9 c4bb
00000120: b2c9 c4bb c7c9 c4bb c7c9 c4bb cfc9 c4bb
00000130: 4bca c4bb b6c9 c4bb b5c9 c43b bfc9 c43b
00000140: aec9 c43b bfc9 c43b c8c9 c43b d7c9 c43b
00000150: 97c9 c43b c9c9 c43b a6c9 c43b c7c9 c43b
00000160: c8c9 c4bb c2c9 c4bb b3c9 c43b 04cb c43b
00000170: bfc9 c43b bbc9 c4bb b6c9 c4bb b2c9 c43b
00000180: c2c9 c4bb bdc9 c4bb a5c9 c43b 62c9 c43b
00000190: a4c9 c43b cfc9 c4bb bdc9 c4bb 89c9 c4bb
000001a0: b2c9 c4bb 39ca c4bb c3c9 c4bb b2c9 c4bb
000001b0: cac9 c43b adc9 c43b cbc9 c4bb c8c9 c43b
000001c0: c3c9 c4bb c1c9 c43b e8c9 c43b c6c9 c4bb
000001d0: 5fc9 c43b 7ec9 c43b 95c9 c43b d5c9 c43b
000001e0: a2c9 c43b dfc9 c43b d8c9 c43b bec9 c4bb
000001f0: c2c9 c43b b3c9 c43b 24cb c43b a9c9 c43b
-0.006005504 -0.0060054967 -0.0060055074 0.006005503 0.006005496 -0.006005487 0.006005508 0.006005486
0.006005504 -0.006005502 0.0060055037 0.0060054907 -0.0060055084 -0.0060055 0.00600549 0.0060055126
0.006005506 -0.006005502 -0.006005492 0.0060055056 -0.0060055163 -0.006005494 0.006005491 0.0060054963
0.0060055056 0.006005502 0.0060055056 0.0060054967 -0.0060055004 0.0060055065 0.0060055014 0.006005501
-0.006005514 -0.006005495 -0.0060055 0.0060054986 0.0060054916 -0.0060055014 -0.0060054795 -0.0060054786
-0.0060054804 -0.0060055135 0.006005503 -0.006005514 -0.006005489 -0.0060054967 -0.0060054874 0.0060055065
0.006005505 -0.006005504 0.006005417 -0.0060054893 -0.00600549 -0.006005471 -0.0060055023 -0.0060054907
0.006005488 -0.006005501 0.006005505 -0.0060054883 0.0060055074 0.006005509 -0.006005504 0.006005504
-0.006005504 0.0060055032 -0.00600549 -0.0060054357 -0.0060055056 0.006005499 -0.006005496 -0.006005481
-0.0060054893 -0.006005499 -0.006005499 -0.006005503 -0.0060055605 -0.006005491 0.0060054907 0.0060054953
0.0060054874 0.0060054953 0.0060054995 0.0060055065 0.0060054767 0.0060055 0.0060054837 0.006005499
-0.0060054995 -0.0060054967 0.0060054897 0.0060056467 0.0060054953 -0.0060054935 -0.006005491 0.0060054893
-0.0060054967 -0.0060054944 0.006005483 0.006005452 0.0060054827 -0.006005503 -0.0060054944 -0.00600547
-0.0060054893 -0.006005552 -0.006005497 -0.0060054893 0.0060055004 0.006005487 -0.006005501 0.0060054995
-0.006005497 0.0060054963 0.0060055144 -0.0060054986 0.0060054506 0.006005465 0.0060054758 0.0060055056
0.006005482 0.00600551 0.006005507 -0.006005495 0.0060054967 0.0060054897 0.0060056616 0.006005485

conv2.lin.weight f4 [128, 128]
00000000: 8c61 4d3d a3da 113e 4618 e43d 310e f73d
00000010: 1aeb 13bd a42b a8bd 5f4c edbd d6e3 b03d
00000020: 1531 9abd 38d3 903d da11 38bd e321 90bc
00000030: a716 97bd fdad a7bd 98da a83d 565f 8c3d
00000040: 0c80 1abc ae38 103d 3e6b 913d e691 1c3d
00000050: 83fb 91bd fb42 7c3d 2853 4f3d 6874 aa3d
00000060: d218 f33d d17d aabd 61f3 f1bd 1564 043e
00000070: 9444 62bd 8421 c0bd e0da 02be fa0b a3bd
00000080: 97bb 273d e5a9 93bd ed59 5a3e b118 febd
00000090: 3759 853c d1fc 843d 10a2 a5bd 92c3 d13c
000000a0: 33cf f73a 09e3 8dbd ea1d 03be c2ee d1bc
000000b0: f2a4 e9bc 8075 633d aeb9 da3d 3dc1 453d
000000c0: b7ea b0bd e81a c6bd dbfa 173e f9c4 0e3e
000000d0: 0027 aebc 5859 babc 946e 9d3d 8b92 043c
000000e0: 631c 8fbd 6696 c83d 6eba 373c 0e49 e83d
000000f0: 4893 d7bc da69 0dbe 1aa6 ca3d 2c37 96bd
00000100: 1f74 a6bd aab4 bb3d 441c 7dbd 41dd c93c
00000110: 58b8 adbd c805 bd3c dfc5 01be aff6 17be
00000120: 7417 debc c10a 01be 9246 cf3c 97a3 6d3d
00000130: 74e2 bf3d 44ad 953d 0870 31bd 6488 7e3d
00000140: 4635 ff3c 1892 07be d622 e83d 7339 e73c
00000150: e6bf 12be 0a70 d0bd 0b09 d8bd 9f91 8abd
00000160: d86d 083d 3bb4 6bbc 34fc 123d eac4 89bd
00000170: e0fd d1bb b67f c83d 57bf d93c e85b 1bbe
00000180: 9b10 1c3d 73f3 11be 74d0 ca3d 99ff d63d
00000190: fc79 7c3d c6fa f93d 8e08 de3d a68d 333e
000001a0: 4b0b 38bb 299e f53c 5795 903d 5153 b5bd
000001b0: c011 633b f059 98bc 005f 6b3a 333a bd3d
000001c0: 8627 a3bd 61fe 1abd d9a8 1c3e de1a de3d
000001d0: 58c5 9cbd d52a 14be b617 33bc 908f 243d
000001e0: 901d ec3c fca5 7a3d 31ff 04be 402b 0d3c
000001f0: 5032 a13d cffc 82bd ff72 d6bd 5f56 d83d
00000200: 1bc3 1c3e 9c65 e9bc 3075 a2bc 2d85 8b3d
00000210: 8437 b1bd d80d b93d 3648 10bd e080 f8bd
00000220: 9350 d63d 58ab a23d 7b5e ec38 d74a debd
00000230: 1fd2 043d ea1e 71bd 8a83 19bd 92e5 da3d
00000240: 4b0a 9fbd dd2d 90bd 2b3d 183e 5776 a53d
00000250: 23ee 143e d4c7 023d 7862 04bd 34f7 043d
00000260: 4e28 d43d 78e8 f13d 0076 b1bd 8204 26bd
00000270: cbd9 a9bd 00f6 753d 2c33 74bd 8d2b b8bd
00000280: d344 cd3c 03c6 d6bd 5055 5a3e dc53 9c3d
00000290: 6f45 503d 00a0 3dbd 11c9 f8bd dde2 b5bc
000002a0: 3a0c d53d d2c2 ee3d f814 15bd c632 2d3e
000002b0: 0581 02be a08f b13d 3cba b33d 5814 dfbd
000002c0: bd0d 063e ba1e df3d e37c 153e 2caf 163d
000002d0: 50f6 1c3d e03d c63b ae2c 7fbd c959 8c3d
000002e0: 525e ba3d 1b4f 03be 3054 ca3d 5e68 c73d
000002f0: 3eda f33d 1f58 02be ba0c 063e 5d26 e9bd
00000300: 400f 85bd d12b d8bd 16f2 00be 7a42 803d
00000310: 529b 9e3c 845f 5e3d 0634 00bd 2028 f0bc
00000320: 3112 49bd 5904 fdbd 2c05 b8bd 3f8a 263e
00000330: d042 0dbd 20fc 993b dece 16bd 1ef2 f0bd
00000340: 78c5 d13b 8f03 92bd 957f 6abc ad32 01be
00000350: 806d 0cbc 9ddf 0bbe 4b58 ca3c 29fa 02bd
00000360: 024e a63d bc64 0fbd d2d1 a3bd 2d46 debd
00000370: d077 55bc 9a1a acbd 6979 86bd be08 b6bd
00000380: 1fc0 943d fede 99bd 2925 773d cf7f af3d
00000390: 6cf6 12be 0024 ab3b b822 293d 8e96 dcbd
000003a0: a84a cbbb 2113 9f3d 3157 f9bd ee75 fabd
000003b0: d462 2a3d 3469 9a3d 1073 94bc c559 edbd
000003c0: 747a c2bd 3c64 273d 951c 013e 07b4 083e
000003d0: 0535 aa3d 228f 39bc 75a1 083e f895 df3d
000003e0: 7f96 113e b1e7 853c 4086 063b a713 8fbd
000003f0: 8996 05be 3066 a5bc c467 43be 859f ccbd
0.050141856 0.1424356 0.11137442 0.12063254 -0.036112882 -0.08211449 -0.11586832 0.08637206
-0.07528893 0.07071537 -0.0449389 -0.017594283 -0.073773675 -0.081874825 0.082448184 0.068541214
-0.009429943 0.035210304 0.07100533 0.038225077 -0.0712805 0.061587315 0.050616413 0.08322984
0.118699685 -0.08324779 -0.11813999 0.12928803 -0.055241182 -0.093813926 -0.12778807 -0.07961269
0.040950384 -0.07210139 0.21323366 -0.12407053 0.016277893 0.064935334 -0.080875516 0.02560595
0.0018906355 -0.06928069 -0.1280438 -0.025626544 -0.028521035 0.05553198 0.10679947 0.04827999
-0.08638518 -0.09673101 0.14841788 0.13942327 -0.021258831 -0.02274768 0.07687107 0.008091579
-0.06987836 0.09794311 0.011213882 0.11342059 -0.026315346 -0.1380991 0.098949626 -0.07334742
-0.08127617 0.09165318 -0.061794534 0.024641635 -0.084824264 0.023074046 -0.12673138 -0.14840196
-0.027110793 -0.12601759 0.025302205 0.05801734 0.093693644 0.073084384 -0.043319732 0.06214179
0.031153332 -0.13239324 0.113347694 0.028225636 -0.14331016 -0.1017762 -0.105486 -0.06766056
0.03330788 -0.014386232 0.03588505 -0.067270115 -0.006408438 0.09789984 0.026580496 -0.15171778
0.038101774 -0.14253025 0.099030405 0.1049797 0.06163977 0.12206034 0.108414754 0.17534503
-0.0028082903 0.029982643 0.07059734 -0.08853782 0.003464803 -0.018597573 0.00089786947 0.09239616
-0.07966523 -0.03784025 0.15298785 0.10844968 -0.07654828 -0.14469464 -0.010930946 0.040175974
0.02882269 0.06119345 -0.12987973 0.008616269 0.078709245 -0.06395876 -0.104711525 0.10563349
0.15308802 -0.028490834 -0.01983127 0.06812511 -0.08653167 0.090358436 -0.035225116 -0.12133956
0.10464587 0.079428375 0.00011270955 -0.10854118 0.03242695 -0.058867373 -0.03747896 0.10688318
-0.07765635 -0.07039998 0.14867084 0.08079212 0.14543967 0.031928852 -0.03232047 0.032462314
0.1035925 0.11811918 -0.08665085 -0.040531643 -0.08293494 0.060049057 -0.059619114 -0.08992682
0.025057232 -0.104869865 0.21321607 0.076331824 0.050847467 -0.046295166 -0.121477254 -0.022202903
0.10402723 0.11658253 -0.03639695 0.169139 -0.1274453 0.086699724 0.08775756 -0.10892552
0.13091178 0.108945325 0.14598422 0.03678815 0.03832084 0.0060498565 -0.06229847 0.06853063
0.091000214 -0.12823145 0.09879339 0.09736703 0.11906861 -0.12728928 0.13090792 -0.1138427
-0.06497049 -0.10555232 -0.12592348 0.062626794 0.019361172 0.05429031 -0.031299613 -0.029316008
-0.049089614 -0.12354345 -0.089853615 0.16263674 -0.034487545 0.004699245 -0.036818378 -0.1176493
0.006401714 -0.07129585 -0.0143126445 -0.12616988 -0.008571029 -0.1365952 0.024700304 -0.031976853
0.081203476 -0.035008177 -0.079990044 -0.10853229 -0.013029054 -0.08403511 -0.06566126 -0.08888386
0.07263207 -0.075132355 0.060338173 0.085692994 -0.14351815 0.0052227974 0.041292876 -0.107709035
-0.006203968 0.077673204 -0.121748336 -0.122295246 0.041598156 0.07539597 -0.018121272 -0.11589388
-0.09496012 0.040867075 0.1260856 0.13349925 0.08310894 -0.011325629 0.13342841 0.10917276
0.14217566 0.01634583 0.0020526797 -0.0698617 -0.13045706 -0.020190328 -0.19082552 -0.099913634

linear.weight f4 [1, 128]
00000000: 9fb2 95bd b051 99bd 555f 14be a3c3 013e
00000010: 7498 b93d 3bef b5bd 0250 a83d 32a5 573e
00000020: 5a98 7d3e b9e6 03be 8687 e03d ca71 643e
00000030: 43b5 95be 0c72 81be 4731 763e 9aa6 0c3e
00000040: f286 c63d b2ca dfbd d562 5cbe e72d b33d
00000050: 3f71 013e cecb eebc 8849 2e3e 073a 0e3e
00000060: eae2 adbd 1895 993d ed17 473e 9f4a 843e
00000070: 6bfb 0cbe 4835 b33e 0828 943d a0b3 933e
00000080: ba5d 9cbe 75e9 4bbe ace8 c4bd cd52 f03d
00000090: 2c23 423e 8ff8 2abe eb9c 6dbe 7c72 c83a
000000a0: f182 6abe 9633 72be 090a 4f3e 26da 1abe
000000b0: cc2d 0bbc bf84 12be 5bf2 03bd b6c0 ee3d
000000c0: 0a0f 4b3e 831a 89be fa79 0e3c d5e3 53be
000000d0: 8b2d 34be ef95 86bd d4c5 48be 6ed7 5abe
000000e0: 7f9c 243e c5f2 16be 6305 ba3d cc4a 57be
000000f0: b278 ecbc 60ce 923e 6046 41be 8075 da3d
00000100: d1ca 88be adfb aa3d bdcf 79be b96a a83d
00000110: 0e7d 81be c2a5 0d3e 319c 0dbe cfbd b4bc
00000120: 9c86 2abe bc3f 4dbe 8962 35be 6b87 443c
00000130: b31c 21be ca80 a5bb c6bd 893e 5da3 3c3e
00000140: b54d 673e 2d69 393e c153 093e 60c1 ab3d
00000150: d83c 0e3a f430 8d3e 4ea2 2e3e a5e9 cb3c
00000160: 3622 33bd 78be 7cbe 8928 903c a848 633e
00000170: 0007 6f3c 225f 60bc baa3 46be 9716 993b
00000180: 37cd 3dbe 86d9 22be d77c 633e a80c bfbd
00000190: 633f 2f3e 8822 abbd d1ba 21be f1de 18bd
000001a0: d4b4 88be d11a 86be 81f4 23be b5a0 43be
000001b0: df77 003e 82a1 5f3e 240a 85be 3cea fc3d
000001c0: 7124 2cbe d963 8f3e 4151 a13e 15ca c13c
000001d0: 4744 88bd c7a0 a23c bc04 823e ef12 c53d
000001e0: dffa 683e 256b 4a3e 20d5 253e 9e56 03bc
000001f0: 68a5 073e 5756 2c3d 17e9 f03d d281 5d3e
-0.0730946 -0.07486284 -0.14489491 0.12672286 0.09062281 -0.0888352 0.08218385 0.21059111
0.24765149 -0.12880982 0.10963349 0.22309032 -0.29239854 -0.25282323 0.24042235 0.13735428
0.096937075 -0.10927333 -0.21522076 0.087489896 0.12640856 -0.029149916 0.17020237 0.13889323
-0.08490546 0.074991405 0.1944272 0.2583818 -0.13767783 0.35001588 0.07234198 0.2884798
-0.30540258 -0.19913276 -0.09614691 0.11734543 0.1895873 -0.1669638 -0.2320439 0.0015292908
-0.22901513 -0.23652491 0.20218672 -0.1512228 -0.008494806 -0.14308451 -0.03221355 0.116578504
0.19829956 -0.2677804 0.008696074 -0.2069238 -0.17595498 -0.06571566 -0.19606715 -0.21371242
0.16075324 -0.14741047 0.09083059 -0.21024626 -0.028866146 0.28673077 -0.18874502 0.106669426
-0.26717237 0.083487846 -0.24395652 0.08223481 -0.25290722 0.13832763 -0.13829114 -0.022063164
-0.16652912 -0.20043844 -0.1771337 0.011995177 -0.15733604 -0.0050507532 0.26902598 0.18421693
0.22588237 0.18106528 0.13410856 0.08386493 0.00054259365 0.2757641 0.17054102 0.024891684
-0.043733798 -0.24682033 0.017597454 0.22195685 0.014589071 -0.013694556 -0.19398394 0.0046718824
-0.18535315 -0.15903291 0.22215591 -0.09328586 0.17114024 -0.08356196 -0.15793921 -0.03732199
-0.2670046 -0.26192334 -0.1601124 -0.19104274 0.12545727 0.21838954 -0.259843 0.12349364
-0.16810776 0.28005865 0.31507304 0.02365593 -0.06653648 0.019852055 0.25394237 0.09622752
0.2275195 0.19767435 0.16194582 -0.008016257 0.13246691 0.042074528 0.11763208 0.21631554

exp_avg f4 [128]
00000000: 0000 0000 0000 0000 0000 0000 0400 0000
00000010: 0400 0000 0000 0000 0400 0000 0000 0000
00000020: 0400 0000 0000 0000 0400 0080 0400 0000
00000030: 0400 0080 0000 0000 0000 0000 0000 0000
00000040: 0400 0080 0400 0000 0400 0000 0400 0000
00000050: 0000 0000 0400 0000 0000 0000 0000 0000
00000060: 0000 0000 0400 0080 0000 0000 0000 0000
00000070: 0400 0000 0000 0000 0000 0000 0000 0000
00000080: 0400 0080 0400 0080 9f68 64c1 0000 0000
00000090: 0400 0000 0400 0000 0400 0080 0400 0000
000000a0: 0400 0000 0000 0000 0000 0000 0400 0000
000000b0: 0400 0080 0000 0000 0000 0000 0400 0000
000000c0: 0400 0000 0000 0000 0000 0000 0400 0000
000000d0: 0000 0000 0000 0000 0000 0000 0400 0000
000000e0: 0000 0000 0000 0000 0400 0000 0000 0000
000000f0: 0000 0000 0000 0000 0400 0080 0400 0080
00000100: 0400 0000 0400 0000 0400 0000 0400 0000
00000110: 0400 0000 0000 0000 0000 0000 0000 0000
00000120: 0400 0000 0000 0000 0400 0000 0400 0000
00000130: 0000 0000 0000 0000 0000 0000 0000 0000
00000140: 0400 0000 0000 0000 0400 0080 0400 0000
00000150: 0000 0000 0000 0000 0400 0000 0400 0000
00000160: 0000 0000 0400 0080 0400 0000 0400 0000
00000170: 0000 0000 0000 0000 0400 0080 0000 0000
00000180: 0400 0000 0000 0000 0400 0000 0400 0080
00000190: 0000 0000 0000 0000 0000 0000 0400 0000
000001a0: 0400 0000 0400 0080 0400 0000 0000 0000
000001b0: 0000 0000 0000 0000 0000 0000 0400 0080
000001c0: 0000 0000 0400 0000 0000 0000 0000 0000
000001d0: 0400 0000 0400 0000 0400 0000 0400 0000
000001e0: 0000 0000 0400 0000 0000 0000 0000 0000
000001f0: 0400 0000 0400 0000 0400 0000 0400 0080
0.0 0.0 0.0 6e-45 6e-45 0.0 6e-45 0.0
6e-45 0.0 -6e-45 6e-45 -6e-45 0.0 0.0 0.0
-6e-45 6e-45 6e-45 6e-45 0.0 6e-45 0.0 0.0
0.0 -6e-45 0.0 0.0 6e-45 0.0 0.0 0.0
-6e-45 -6e-45 -14.275542 0.0 6e-45 6e-45 -6e-45 6e-45
6e-45 0.0 0.0 6e-45 -6e-45 0.0 0.0 6e-45
6e-45 0.0 0.0 6e-45 0.0 0.0 0.0 6e-45
0.0 0.0 6e-45 0.0 0.0 0.0 -6e-45 -6e-45
6e-45 6e-45 6e-45 6e-45 6e-45 0.0 0.0 0.0
6e-45 0.0 6e-45 6e-45 0.0 0.0 0.0 0.0
6e-45 0.0 -6e-45 6e-45 0.0 0.0 6e-45 6e-45
0.0 -6e-45 6e-45 6e-45 0.0 0.0 -6e-45 0.0
6e-45 0.0 6e-45 -6e-45 0.0 0.0 0.0 6e-45
6e-45 -6e-45 6e-45 0.0 0.0 0.0 0.0 -6e-45
0.0 6e-45 0.0 0.0 6e-45 6e-45 6e-45 6e-45
0.0 6e-45 0.0 0.0 6e-45 6e-45 6e-45 -6e-45

exp_avg_sq f4 [128]
00000000: 0000 0000 0000 0000 0000 0000 788c c932
00000010: f64d c436 0000 0000 566e 9932 0000 0000
00000020: 74cf 2b38 0000 0000 f07a 2436 2d3d 6037
00000030: f64c 3434 0000 0000 0000 0000 0000 0000
00000040: 57a7 9033 db0b 8b32 b01a a233 43b3 5137
00000050: 0000 0000 d148 e731 0000 0000 0000 0000
00000060: 0000 0000 4c49 d837 0000 0000 0000 0000
00000070: 0cc5 2134 0000 0000 0000 0000 0000 0000
00000080: 7fc9 c137 8468 3838 3f2c d743 0000 0000
00000090: 4393 1d36 a567 6036 3145 b832 bd3a 5a32
000000a0: e099 b833 0000 0000 0000 0000 4306 8431
000000b0: ad3a 4738 0000 0000 0000 0000 a27f 3334
000000c0: f3d5 1e38 0000 0000 0000 0000 d37d 2f37
000000d0: 0000 0000 0000 0000 0000 0000 1774 cf32
000000e0: 0000 0000 0000 0000 f0bd 4a34 0000 0000
000000f0: 0000 0000 0000 0000 ce20 cc34 9258 1434
00000100: fcd6 1533 bde5 7c37 eb8b 9636 7423 7e38
00000110: 90ba 1437 0000 0000 0000 0000 0000 0000
00000120: 5850 0134 0000 0000 010e 8536 c4e7 8133
00000130: 0000 0000 0000 0000 0000 0000 0000 0000
00000140: 76a7 1332 0000 0000 faca f232 98ef 3f36
00000150: 0000 0000 0000 0000 0d85 4633 6db9 d637
00000160: 0000 0000 0c39 8834 c0c1 1e34 09fc 8f31
00000170: 0000 0000 0000 0000 d23a 2433 0000 0000
00000180: 936d 9831 0000 0000 5067 b032 f26e 7c37
00000190: 0000 0000 0000 0000 0000 0000 6a75 7538
000001a0: a5ec 9a34 b3f9 6532 6feb 8c36 0000 0000
000001b0: 0000 0000 0000 0000 0000 0000 2e2c 2b33
000001c0: 0000 0000 ac75 1834 0000 0000 0000 0000
000001d0: 3ffb fb33 86d1 9132 cbf2 af31 1646 af34
000001e0: 0000 0000 04cb e031 0000 0000 0000 0000
000001f0: 0f61 a330 86d3 5937 a34f 1c32 d6db ca31
0.0 0.0 0.0 2.3463357e-08 5.850331e-06 0.0 1.786172e-08 0.0
4.0962783e-05 0.0 2.4509463e-06 1.3365684e-05 1.6791805e-07 0.0 0.0 0.0
6.7359615e-08 1.6187121e-08 7.548567e-08 1.2499108e-05 0.0 6.731263e-09 0.0 0.0
0.0 2.5783338e-05 0.0 0.0 1.5065979e-07 0.0 0.0 0.0
2.3101222e-05 4.3966356e-05 430.34567 0.0 2.348054e-06 3.343893e-06 2.1451884e-08 1.2702626e-08
8.5961574e-08 0.0 0.0 3.8424175e-09 4.7499943e-05 0.0 0.0 1.6717107e-07
3.786939e-05 0.0 0.0 1.0460109e-05 0.0 0.0 0.0 2.4150763e-08
0.0 0.0 1.8881815e-07 0.0 0.0 0.0 3.802183e-07 1.3815796e-07
3.4887293e-08 1.5073861e-05 4.486637e-06 6.0591337e-05 8.864925e-06 0.0 0.0 0.0
1.204329e-07 0.0 3.965339e-06 6.0491885e-08 0.0 0.0 0.0 0.0
8.594602e-09 0.0 2.8264811e-08 2.860068e-06 0.0 0.0 4.6221476e-08 2.5597134e-05
0.0 2.537348e-07 1.4785383e-07 4.190501e-09 0.0 0.0 3.8237722e-08 0.0
4.4362394e-09 0.0 2.0536078e-08 1.5046202e-05 0.0 0.0 0.0 5.8521902e-05
2.8856917e-07 1.3386329e-08 4.199733e-06 0.0 0.0 0.0 0.0 3.985422e-08
0.0 1.4198912e-07 0.0 0.0 1.17338e-07 1.6975502e-08 5.1207727e-09 3.2647284e-07
0.0 6.5423382e-09 0.0 0.0 1.1887397e-09 1.2983457e-05 9.098502e-09 5.903966e-09

exp_avg f4 [128, 1]
00000000: 0000 0000 0000 0000 0000 0000 0400 0000
00000010: 0400 0000 0000 0000 0400 0000 0000 0000
00000020: 0400 0000 0000 0000 0400 0080 0400 0000
00000030: 0400 0080 0000 0000 0000 0000 0000 0000
00000040: 0400 0080 0400 0000 0400 0000 0400 0000
00000050: 0000 0000 0400 0000 0000 0000 0000 0000
00000060: 0000 0000 0400 0080 0000 0000 0000 0000
00000070: 0400 0000 0000 0000 0000 0000 0000 0000
00000080: 0400 0080 0400 0080 0400 0000 0000 0000
00000090: 0400 0000 0400 0000 0400 0080 0400 0000
000000a0: 0400 0000 0000 0000 0000 0000 0400 0000
000000b0: 0400 0080 0000 0000 0000 0000 0400 0000
000000c0: 0400 0000 0000 0000 0000 0000 0400 0000
000000d0: 0000 0000 0000 0000 0000 0000 0400 0000
000000e0: 0000 0000 0000 0000 0400 0000 0000 0000
000000f0: 0000 0000 0000 0000 0400 0080 0400 0080
00000100: 0400 0000 0400 0000 0400 0000 0400 0000
00000110: 0400 0000 0000 0000 0000 0000 0000 0000
00000120: 0400 0000 0000 0000 0400 0000 0400 0000
00000130: 0000 0000 0000 0000 0000 0000 0000 0000
00000140: 0400 0000 0000 0000 0400 0080 0400 0000
00000150: 0000 0000 0000 0000 0400 0000 0400 0000
00000160: 0000 0000 0400 0080 0400 0000 0400 0000
00000170: 0000 0000 0000 0000 0400 0080 0000 0000
00000180: 0400 0000 0000 0000 0400 0000 0400 0080
00000190: 0000 0000 0000 0000 0000 0000 0400 0000
000001a0: 0400 0000 0400 0080 0400 0000 0000 0000
000001b0: 0000 0000 0000 0000 0000 0000 0400 0080
000001c0: 0000 0000 0400 0000 0000 0000 0000 0000
000001d0: 0400 0000 0400 0000 0400 0000 0400 0000
000001e0: 0000 0000 0400 0000 0000 0000 0000 0000
000001f0: 0400 0000 0400 0000 0400 0000 0400 0080
0.0 0.0 0.0 6e-45 6e-45 0.0 6e-45 0.0
6e-45 0.0 -6e-45 6e-45 -6e-45 0.0 0.0 0.0
-6e-45 6e-45 6e-45 6e-45 0.0 6e-45 0.0 0.0
0.0 -6e-45 0.0 0.0 6e-45 0.0 0.0 0.0
-6e-45 -6e-45 6e-45 0.0 6e-45 6e-45 -6e-45 6e-45
6e-45 0.0 0.0 6e-45 -6e-45 0.0 0.0 6e-45
6e-45 0.0 0.0 6e-45 0.0 0.0 0.0 6e-45
0.0 0.0 6e-45 0.0 0.0 0.0 -6e-45 -6e-45
6e-45 6e-45 6e-45 6e-45 6e-45 0.0 0.0 0.0
6e-45 0.0 6e-45 6e-45 0.0 0.0 0.0 0.0
6e-45 0.0 -6e-45 6e-45 0.0 0.0 6e-45 6e-45
0.0 -6e-45 6e-45 6e-45 0.0 0.0 -6e-45 0.0
6e-45 0.0 6e-45 -6e-45 0.0 0.0 0.0 6e-45
6e-45 -6e-45 6e-45 0.0 0.0 0.0 0.0 -6e-45
0.0 6e-45 0.0 0.0 6e-45 6e-45 6e-45 6e-45
0.0 6e-45 0.0 0.0 6e-45 6e-45 6e-45 -6e-45

exp_avg_sq f4 [128, 1]
00000000: 0000 0000 0000 0000 0000 0000 f705 063f
00000010: 4867 e63c 0000 0000 b079 813e 0000 0000
00000020: da4a 8a3f 0000 0000 8375 a341 ff46 843e
00000030: d4ae 2441 0000 0000 0000 0000 0000 0000
00000040: f8c6 8c40 72e4 4a3f 7bf9 2f40 9bc7 eb3e
00000050: 0000 0000 0484 f43e 0000 0000 0000 0000
00000060: 0000 0000 9b9b f740 0000 0000 0000 0000
00000070: 7cd7 2d3f 0000 0000 0000 0000 0000 0000
00000080: 6677 2b41 49b7 cd41 8776 f738 0000 0000
00000090: 837c da3e f79e 833e 7ff2 0d3f f2ea da3e
000000a0: b5b8 b240 0000 0000 0000 0000 351f 303e
000000b0: 0015 5d40 0000 0000 0000 0000 8efe d13d
000000c0: 35a8 4a40 0000 0000 0000 0000 1402 223f
000000d0: 0000 0000 0000 0000 0000 0000 36c8 073f
000000e0: 0000 0000 0000 0000 2c6e 5041 0000 0000
000000f0: 0000 0000 0000 0000 0bd6 8f41 c7a5 1141
00000100: b3b8 a33f 1ef0 6537 50a6 ba3e b3fa 263e
00000110: c932 1f3e 0000 0000 0000 0000 0000 0000
00000120: c968 e540 0000 0000 17e3 4d3c 0792 903f
00000130: 0000 0000 0000 0000 0000 0000 0000 0000
00000140: ed3c 653e 0000 0000 6bd8 e33f 720f 413e
00000150: 0000 0000 0000 0000 033c 2640 5014 d13f
00000160: 0000 0000 fe7b 8541 9689 1641 5d56 3a3e
00000170: 0000 0000 0000 0000 4ecb 0b40 0000 0000
00000180: fe23 653d 0000 0000 860e 8d3e 2287 db41
00000190: 0000 0000 0000 0000 0000 0000 e86f 073f
000001a0: a9e3 583d 4f0f 3b3f b6b4 cb3a 0000 0000
000001b0: 0000 0000 0000 0000 0000 0000 b8e4 2240
000001c0: 0000 0000 f1bd 8d3e 0000 0000 0000 0000
000001d0: 5a98 cf3f 7427 393f d186 3d3e 8142 a341
000001e0: 0000 0000 90a5 ac3e 0000 0000 0000 0000
000001f0: 682c 9e3b 771f c740 3ed2 a23e 9c50 603e
0.0 0.0 0.0 0.5235285 0.02812542 0.0 0.25288153 0.0
1.0804093 0.0 20.432379 0.25835416 10.292683 0.0 0.0 0.0
4.399288 0.7925483 2.749602 0.46050724 0.0 0.4775697 0.0 0.0
0.0 7.737745 0.0 0.0 0.6790693 0.0 0.0 0.0
10.71665 25.714495 0.00011799955 0.0 0.4267312 0.25707218 0.55448145 0.42757374
5.5850472 0.0 0.0 0.17199405 3.4544067 0.0 0.0 0.102536306
3.1665165 0.0 0.0 0.6328442 0.0 0.0 0.0 0.5303987
0.0 0.0 13.026897 0.0 0.0 0.0 17.979513 9.102973
1.2790741 1.370537e-05 0.3645501 0.16306572 0.15546717 0.0 0.0 0.0
7.169041 0.0 0.0125663495 1.1294564 0.0 0.0 0.0 0.0
0.22386523 0.0 1.780042 0.18853548 0.0 0.0 2.5974128 1.6334324
0.0 16.685543 9.40859 0.18197007 0.0 0.0 2.1842837 0.0
0.055942528 0.0 0.27550143 27.440983 0.0 0.0 0.0 0.5290513
0.05295149 0.73070234 0.0015541527 0.0 0.0 0.0 0.0 2.54521
0.0 0.27683976 0.0 0.0 1.6218369 0.72325826 0.1850846 20.407473
0.0 0.33720064 0.0 0.0 0.004827071 6.222591 0.31801027 0.2190575

exp_avg f4 [128]
00000000: c279 0d40 e848 0740 ee9b 8fc0 d6bb 0a40
00000010: e40c 99bf 4bf2 b73f 088b e3bf 7fb8 4141
00000020: 9c2f 3f41 ba93 1ac0 a327 c93e 9543 1141
00000030: 95e1 31c1 a8fe 54c1 01d0 4141 7c28 5f40
00000040: 66f1 24bf 5595 a5be a498 1fc1 3b45 bbbf
00000050: 0fdb 1841 2e41 8040 4057 e640 de67 6a40
00000060: 1df6 03c1 53de 0dc0 0267 1d41 4042 7341
00000070: c497 63c0 3d88 c641 a6a5 10c0 c979 5141
00000080: b329 c9c1 01f4 25c1 1147 5a3f 8660 943f
00000090: 7bc1 a240 49d5 e4c0 7648 26c1 049e a740
000000a0: f940 1cc1 a399 12c1 9f2a 0e41 f46c bec0
000000b0: 5639 9b40 cb94 8ac0 20b6 7740 b8c1 833f
000000c0: 4a16 fb40 ca0c 92c1 c4e6 99c0 7c3a 6dc1
000000d0: 70d0 e6c0 4aff 2c40 451c f7c0 2204 4bc1
000000e0: a9cb e040 a602 9ec0 ab94 8ebf 7d70 13c1
000000f0: d25e c8c0 4b1f 9b41 95eb 6cc0 e273 8c3d
00000100: d7fe 8fc1 69d8 c4bf 98be 23c1 b7be 0341
00000110: 4e99 53c1 936a 6940 e834 65c0 01a8 8b40
00000120: 76c0 e4c0 c834 3bc1 d002 e8c0 8107 b440
00000130: c07b cac0 7650 9d40 b156 9841 5fd7 eb40
00000140: c549 1841 6480 ea40 632b 4440 9482 cebf
00000150: 05ab a3c0 d4a6 a741 ee8c e540 06f9 84c0
00000160: 6279 6440 3c09 25c1 8fb4 90c0 6abd 0341
00000170: 5b82 93c0 bd16 9540 ee88 fdc0 9bc7 9fc0
00000180: 5085 edc0 9bf7 cdc0 34d4 1841 5d85 07c1
00000190: 10f5 e540 fe63 d23f 0bbc dbc0 d49f 7240
000001a0: 3a7e 92c1 2ca8 83c1 162b dfc0 7e85 fbc0
000001b0: 6e75 0140 a0a0 6741 d4bb 74c1 99d7 e63f
000001c0: 3517 e5c0 e7d9 ab41 82c9 cd41 bf63 c340
000001d0: 7701 f1c0 38d5 8dc0 7f13 6941 12c8 41bf
000001e0: 7b77 2441 c30d 3441 b63a e140 02f9 9a40
000001f0: e2c6 3640 c2bb 63c0 890f 9c3f 75ed 1841
2.2105565 2.1138248 -4.4877844 2.1677146 -1.1957059 1.4370817 -1.7776804 12.107543
11.949123 -2.4152665 0.39288053 9.0789995 -11.117574 -13.312172 12.113282 3.486846
-0.64430845 -0.32340494 -9.974766 -1.4630502 9.553481 4.0079565 7.1981506 3.6625896
-8.247586 -2.2166946 9.837648 15.203674 -3.556138 24.816523 -2.2601104 13.092233
-25.14536 -10.372071 0.8526469 1.1591957 5.086118 -7.151036 -10.392691 5.238039
-9.765862 -9.162509 8.885406 -5.9508 4.850749 -4.330663 3.870491 1.0293493
7.846471 -18.256245 -4.8094196 -14.826778 -7.212944 2.7030816 -7.722201 -12.688509
7.024861 -4.9378233 -1.113912 -9.214963 -6.2615747 19.39028 -3.7018788 0.068580404
-17.999434 -1.5378543 -10.234032 8.234061 -13.224928 3.6471298 -3.5813541 4.3642583
-7.148494 -11.700386 -7.2503433 5.625916 -6.327606 4.916072 19.04233 7.3700404
9.51801 7.3281727 3.065148 -1.6133599 -5.1146264 20.956459 7.1734533 -4.1553984
3.5699086 -10.3147545 -4.522041 8.233744 -4.6096625 4.6590257 -7.922965 -4.993116
-7.4225235 -6.4364753 9.551807 -8.470059 7.186165 1.6436765 -6.8667045 3.7910051
-18.311634 -16.457115 -6.9740095 -7.8600454 2.0227923 14.476715 -15.295856 1.8034545
-7.159083 21.481398 25.723392 6.105926 -7.531429 -4.4322777 14.56726 -0.7569591
10.27917 11.25336 7.038417 4.8428965 2.8558888 -3.5583348 1.2192241 9.557973

exp_avg_sq f4 [128]
00000000: 0f32 ee56 79b5 8154 dd52 8055 4ec8 1e55
00000010: 5091 1f55 cd5a 6c55 147e cb56 022c 5056
00000020: 98d8 de55 3804 9656 9046 5d55 edf7 3856
00000030: 4171 2357 1719 d856 a4e5 b156 9634 7e53
00000040: a9b4 fe55 e02a 7756 dbd4 eb56 d710 3e57
00000050: 8d4d 1556 e861 9456 027b 1d57 9a7e f556
00000060: 97cd 9955 1090 0256 6d19 ae54 5c61 2c57
00000070: 4435 3557 932d 2057 b241 e555 e793 6156
00000080: 68e5 2a57 85dc b156 63e9 9355 bc44 fb53
00000090: 5038 9b56 c166 3e56 703d 2b57 0d72 0955
000000a0: 51e6 2557 f64f a655 864a a454 8a3e 2454
000000b0: 4412 0e55 10c2 fb55 ffcd 4455 afee 0155
000000c0: b4ac 9453 ded3 4b55 a343 1853 cae5 8c55
000000d0: 0dbc 2657 0d73 3453 857e 9856 14f1 0e57
000000e0: 0353 cf55 93b4 d156 7392 8554 dce9 6455
000000f0: a04d 9356 17d7 6d56 1ed9 fe55 cb9a c655
00000100: a4fb 3855 85f9 4556 0a35 df56 bac4 0854
00000110: b082 a756 922d 0f57 f97c 3d56 0970 b654
00000120: eac6 ad54 83c9 0a57 33db a056 71a8 4456
00000130: 5cbf d852 209e 9555 e572 7a56 0d49 6356
00000140: 476d bb56 bbe1 6856 1e74 0f57 9d13 ca56
00000150: 30e7 c454 ead1 dd56 a292 fe54 0c3e ec56
00000160: 6810 0e57 dc15 6456 37ed fc54 5693 5152
00000170: 6fe3 7555 8427 a855 7889 0355 6488 5f55
00000180: 4e7f e356 770c 0c57 d30d 5e56 50fd 6654
00000190: ea2b b755 421e d754 a189 f755 26c6 2e53
000001a0: c9ea 5a56 8914 1554 72b7 d556 97a5 0057
000001b0: 2cc0 7356 e61a b855 01b6 d056 9322 aa54
000001c0: 6903 b755 072d cc56 5d4e 0c57 4fd3 ad55
000001d0: 6981 f853 3710 3d54 485d cd55 96ba 2a57
000001e0: dce5 0c57 b2d4 dd56 f452 1455 6f28 bd55
000001f0: bb1d 9256 b654 df55 bb6a 164f aaa0 a956
1.3094938e+14 4.456763e+12 1.7636673e+13 1.0911446e+13 1.0965404e+13 1.6242171e+13 1.1187118e+14 5.7221858e+13
3.062773e+13 8.247243e+13 1.5205946e+13 5.0843743e+13 1.7970682e+14 1.1880114e+14 9.779993e+13 1.09180394e+12
3.5006485e+13 6.794088e+13 1.2964972e+14 2.0897954e+14 4.1040078e+13 8.157411e+13 1.7315164e+14 1.3496205e+14
2.1138535e+13 3.5888814e+13 5.982007e+12 1.8953416e+14 1.9924038e+14 1.761176e+14 3.150879e+13 6.200634e+13
1.8790227e+14 9.778034e+13 2.0328825e+13 2.1583799e+12 8.533308e+13 5.2337133e+13 1.8828036e+14 9.445184e+12
1.8240862e+14 2.2857795e+13 5.6449995e+12 2.8216955e+12 9.763069e+12 3.4601364e+13 1.3524314e+13 8.928884e+12
1.2771053e+12 1.4006926e+13 6.539698e+11 1.936482e+13 1.833266e+14 7.7502435e+11 8.383458e+13 1.5716607e+14
2.849443e+13 1.15286745e+14 4.5895013e+12 1.5730817e+13 8.09808e+13 6.5377015e+13 3.5026058e+13 2.7296017e+13
1.2711933e+13 5.4418867e+13 1.2270945e+14 2.3496643e+12 9.208987e+13 1.5742589e+14 5.2086113e+13 6.2685095e+12
5.9709325e+12 1.5259809e+14 8.843166e+13 5.4056932e+13 4.654617e+11 2.0563297e+13 6.8842844e+13 6.2475723e+13
1.0303901e+14 6.401405e+13 1.5772888e+14 1.1109279e+14 6.765538e+12 1.2194682e+14 8.7470543e+12 1.2987562e+14
1.5620112e+14 6.2695634e+13 8.6904925e+12 2.2503001e+11 1.6897323e+13 2.311096e+13 9.039153e+12 1.5361055e+13
1.25067954e+14 1.5398516e+14 6.103774e+13 3.9683694e+12 2.5174905e+13 7.391405e+12 3.402131e+13 7.506487e+11
6.0175482e+13 2.5611786e+12 1.1749193e+14 1.4144869e+14 6.7001674e+13 2.5303208e+13 1.1474006e+14 5.845796e+12
2.515316e+13 1.1224688e+14 1.542682e+14 2.3890384e+13 2.134646e+12 3.2480834e+12 2.8225065e+13 1.8771836e+14
1.5491887e+14 1.21952795e+14 1.019275e+13 2.599767e+13 8.0328195e+13 3.0694365e+13 2.523577e+09 9.325376e+13

exp_avg f4 [128, 128]
00000000: 0000 0000 0000 0000 0000 0000 0400 0000
00000010: 0400 0000 0000 0000 0400 0000 0000 0000
00000020: 0400 0000 0000 0000 0400 0000 0400 0080
00000030: 0400 0000 0000 0000 0000 0000 0000 0000
00000040: 0400 0000 0400 0080 0400 0000 0400 0000
00000050: 0000 0000 0400 0000 0000 0000 0000 0000
00000060: 0000 0000 0400 0000 0000 0000 0000 0000
00000070: 0400 0000 0000 0000 0000 0000 0000 0000
00000080: 0400 0000 0400 0000 a285 18be 0000 0000
00000090: 0400 0000 0400 0000 0400 0000 0400 0000
000000a0: 0400 0000 0000 0000 0000 0000 0400 0000
000000b0: 0400 0000 0000 0000 0000 0000 0400 0000
000000c0: 0400 0000 0000 0000 0000 0000 0400 0000
000000d0: 0000 0000 0000 0000 0000 0000 0400 0000
000000e0: 0000 0000 0000 0000 0400 0000 0000 0000
000000f0: 0000 0000 0000 0000 0400 0000 0400 0000
00000100: 0400 0000 0400 0000 0400 0080 0400 0080
00000110: 0400 0080 0000 0000 0000 0000 0000 0000
00000120: 0400 0080 0000 0000 0400 0000 0400 0000
00000130: 0000 0000 0000 0000 0000 0000 0000 0000
00000140: 0400 0000 0000 0000 0400 0000 0400 0000
00000150: 0000 0000 0000 0000 0400 0080 0400 0080
00000160: 0000 0000 0400 0000 0400 0000 0400 0000
00000170: 0000 0000 0000 0000 0400 0000 0000 0000
00000180: 0400 0080 0000 0000 0400 0080 0400 0080
00000190: 0000 0000 0000 0000 0000 0000 0400 0080
000001a0: 0400 0000 0400 0000 0400 0000 0000 0000
000001b0: 0000 0000 0000 0000 0000 0000 0400 0000
000001c0: 0000 0000 0400 0000 0000 0000 0000 0000
000001d0: 0400 0000 0400 0000 0400 0080 0400 0000
000001e0: 0000 0000 0400 0000 0000 0000 0000 0000
000001f0: 0400 0080 0400 0080 0400 0000 0400 0000
00000200: 0000 0000 0000 0000 0000 0000 0400 0000
00000210: 0400 0080 0000 0000 0400 0000 0000 0000
00000220: 0400 0000 0000 0000 0400 0000 0400 0000
00000230: 0400 0000 0000 0000 0000 0000 0000 0000
00000240: 0400 0000 0400 0080 0400 0000 0400 0080
00000250: 0000 0000 0400 0000 0000 0000 0000 0000
00000260: 0000 0000 0400 0000 0000 0000 0000 0000
00000270: 0400 0000 0000 0000 0000 0000 0000 0000
00000280: 0400 0000 0400 0000 c8e1 15be 0000 0000
00000290: 0400 0000 0400 0080 0400 0000 0400 0000
000002a0: 0400 0000 0000 0000 0000 0000 0400 0000
000002b0: 0400 0000 0000 0000 0000 0000 0400 0000
000002c0: 0400 0000 0000 0000 0000 0000 0400 0000
000002d0: 0000 0000 0000 0000 0000 0000 0400 0000
000002e0: 0000 0000 0000 0000 0400 0000 0000 0000
000002f0: 0000 0000 0000 0000 0400 0000 0400 0000
00000300: 0400 0000 0400 0080 0400 0000 0400 0000
00000310: 0400 0080 0000 0000 0000 0000 0000 0000
00000320: 0400 0080 0000 0000 0400 0080 0400 0000
00000330: 0000 0000 0000 0000 0000 0000 0000 0000
00000340: 0400 0000 0000 0000 0400 0000 0400 0000
00000350: 0000 0000 0000 0000 0400 0080 0400 0080
00000360: 0000 0000 0400 0000 0400 0000 0400 0080
00000370: 0000 0000 0000 0000 0400 0000 0000 0000
00000380: 0400 0080 0000 0000 0400 0080 0400 0080
00000390: 0000 0000 0000 0000 0000 0000 0400 0080
000003a0: 0400 0000 0400 0000 0400 0000 0000 0000
000003b0: 0000 0000 0000 0000 0000 0000 0400 0000
000003c0: 0000 0000 0400 0000 0000 0000 0000 0000
000003d0: 0400 0000 0400 0000 0400 0000 0400 0000
000003e0: 0000 0000 0400 0000 0000 0000 0000 0000
000003f0: 0400 0080 0400 0080 0400 0000 0400 0000
0.0 0.0 0.0 6e-45 6e-45 0.0 6e-45 0.0
6e-45 0.0 6e-45 -6e-45 6e-45 0.0 0.0 0.0
6e-45 -6e-45 6e-45 6e-45 0.0 6e-45 0.0 0.0
0.0 6e-45 0.0 0.0 6e-45 0.0 0.0 0.0
6e-45 6e-45 -0.14894727 0.0 6e-45 6e-45 6e-45 6e-45
6e-45 0.0 0.0 6e-45 6e-45 0.0 0.0 6e-45
6e-45 0.0 0.0 6e-45 0.0 0.0 0.0 6e-45
0.0 0.0 6e-45 0.0 0.0 0.0 6e-45 6e-45
6e-45 6e-45 -6e-45 -6e-45 -6e-45 0.0 0.0 0.0
-6e-45 0.0 6e-45 6e-45 0.0 0.0 0.0 0.0
6e-45 0.0 6e-45 6e-45 0.0 0.0 -6e-45 -6e-45
0.0 6e-45 6e-45 6e-45 0.0 0.0 6e-45 0.0
-6e-45 0.0 -6e-45 -6e-45 0.0 0.0 0.0 -6e-45
6e-45 6e-45 6e-45 0.0 0.0 0.0 0.0 6e-45
0.0 6e-45 0.0 0.0 6e-45 6e-45 -6e-45 6e-45
0.0 6e-45 0.0 0.0 -6e-45 -6e-45 6e-45 6e-45
0.0 0.0 0.0 6e-45 -6e-45 0.0 6e-45 0.0
6e-45 0.0 6e-45 6e-45 6e-45 0.0 0.0 0.0
6e-45 -6e-45 6e-45 -6e-45 0.0 6e-45 0.0 0.0
0.0 6e-45 0.0 0.0 6e-45 0.0 0.0 0.0
6e-45 6e-45 -0.1463691 0.0 6e-45 -6e-45 6e-45 6e-45
6e-45 0.0 0.0 6e-45 6e-45 0.0 0.0 6e-45
6e-45 0.0 0.0 6e-45 0.0 0.0 0.0 6e-45
0.0 0.0 6e-45 0.0 0.0 0.0 6e-45 6e-45
6e-45 -6e-45 6e-45 6e-45 -6e-45 0.0 0.0 0.0
-6e-45 0.0 -6e-45 6e-45 0.0 0.0 0.0 0.0
6e-45 0.0 6e-45 6e-45 0.0 0.0 -6e-45 -6e-45
0.0 6e-45 6e-45 -6e-45 0.0 0.0 6e-45 0.0
-6e-45 0.0 -6e-45 -6e-45 0.0 0.0 0.0 -6e-45
6e-45 6e-45 6e-45 0.0 0.0 0.0 0.0 6e-45
0.0 6e-45 0.0 0.0 6e-45 6e-45 6e-45 6e-45
0.0 6e-45 0.0 0.0 -6e-45 -6e-45 6e-45 6e-45

exp_avg_sq f4 [128, 128]
00000000: 0000 0000 0000 0000 0000 0000 9e4e c438
00000010: f32b 9f38 0000 0000 62da b639 0000 0000
00000020: d1d2 133b 0000 0000 109b 613d dd24 003a
00000030: c5a9 473c 0000 0000 0000 0000 0000 0000
00000040: 9c7b 9c3c e6f8 1f39 9681 a53a bcba 0d37
00000050: 0000 0000 c0d1 4139 0000 0000 0000 0000
00000060: 0000 0000 f012 1e3c 0000 0000 0000 0000
00000070: 1155 cd39 0000 0000 0000 0000 0000 0000
00000080: e885 3d3d ca63 2f3d 2986 fa3d 0000 0000
00000090: ec86 6838 4f36 0839 218d 8139 b12a 0c3b
000000a0: ab87 013c 0000 0000 0000 0000 f8ab 143c
000000b0: e786 3f3c 0000 0000 0000 0000 3ff5 8839
000000c0: 584b 353a 0000 0000 0000 0000 4a17 0d38
000000d0: 0000 0000 0000 0000 0000 0000 4161 263b
000000e0: 0000 0000 0000 0000 af83 ac3c 0000 0000
000000f0: 0000 0000 0000 0000 7a0f 733d bb1e bb3c
00000100: d853 313b 703c 4b30 6c92 9c3a 37d7 9e38
00000110: fd8c a83a 0000 0000 0000 0000 0000 0000
00000120: 9b33 553d 0000 0000 ce7d b535 a74c 2b3b
00000130: 0000 0000 0000 0000 0000 0000 0000 0000
00000140: d206 ea38 0000 0000 61c1 a73b b8f0 4039
00000150: 0000 0000 0000 0000 0cca 493c f79d a339
00000160: 0000 0000 c0a7 093d 95d5 c43c 00e0 3638
00000170: 0000 0000 0000 0000 b5d8 3a3b 0000 0000
00000180: 64f5 2c36 0000 0000 4713 df35 5f65 7a3b
00000190: 0000 0000 0000 0000 0000 0000 4eff 8937
000001a0: 5734 0937 3d08 7c3a 6b56 e634 0000 0000
000001b0: 0000 0000 0000 0000 0000 0000 a648 843c
000001c0: 0000 0000 a5ec b939 0000 0000 0000 0000
000001d0: a208 153a 607d 2a3c 0065 083c 08ad 5d3c
000001e0: 0000 0000 167f f63a 0000 0000 0000 0000
000001f0: 80b2 ee35 bd0d 063d d802 2739 58aa d238
00000200: 0000 0000 0000 0000 0000 0000 9337 7c3b
00000210: 2c31 1f35 0000 0000 12d0 a339 0000 0000
00000220: 39cb 4d38 0000 0000 19fb a13d f7ab 413a
00000230: a61d b23c 0000 0000 0000 0000 0000 0000
00000240: 49bf 3f3a c4d1 6b37 5b3c 053d 51e8 c837
00000250: 0000 0000 fdb3 c739 0000 0000 0000 0000
00000260: 0000 0000 431c 7b3c 0000 0000 0000 0000
00000270: 81ea 3c3a 0000 0000 0000 0000 0000 0000
00000280: 7846 143b 9387 8b3d f88f f43d 0000 0000
00000290: 7685 8e39 08ae 6239 7b6c 8c39 1fe4 003a
000002a0: 233b 8d3d 0000 0000 0000 0000 629f 0139
000002b0: edc1 973c 0000 0000 0000 0000 9876 c738
000002c0: 1040 a63a 0000 0000 0000 0000 bedf 6b3a
000002d0: 0000 0000 0000 0000 0000 0000 e76c 2f38
000002e0: 0000 0000 0000 0000 a99e 133d 0000 0000
000002f0: 0000 0000 0000 0000 507d b93d 5e70 093d
00000300: 6db3 5538 45b0 8930 7273 1537 4ad1 003b
00000310: fce0 8937 0000 0000 0000 0000 0000 0000
00000320: 1b06 3b3b 0000 0000 dd6f ab35 60cb a438
00000330: 0000 0000 0000 0000 0000 0000 0000 0000
00000340: b95f b239 0000 0000 8ac0 153c dee0 8739
00000350: 0000 0000 0000 0000 3584 a43c 1f6c 053c
00000360: 0000 0000 77eb 523d 9ae9 253d 34d7 2938
00000370: 0000 0000 0000 0000 dd62 923b 0000 0000
00000380: d1cb 3939 0000 0000 87f4 9539 0af2 a13d
00000390: 0000 0000 0000 0000 0000 0000 2d27 8d39
000003a0: ec19 5e38 54d7 ae3a 7cba 9234 0000 0000
000003b0: 0000 0000 0000 0000 0000 0000 b2d4 d13c
000003c0: 0000 0000 bab2 0d3a 0000 0000 0000 0000
000003d0: a5e7 a33c a11e a339 3e57 bb38 acb7 ad3d
000003e0: 0000 0000 b61a 413b 0000 0000 0000 0000
000003f0: ab96 b535 3249 5e3d 5222 bf38 a003 5537
0.0 0.0 0.0 9.360652e-05 7.589897e-05 0.0 0.00034876453 0.0
0.0022556076 0.0 0.05507952 0.00048883056 0.012186472 0.0 0.0 0.0
0.01910191 0.00015256144 0.0012627121 8.447732e-06 0.0 0.00018484052 0.0 0.0
0.0 0.00964807 0.0 0.0 0.00039164026 0.0 0.0 0.0
0.04627028 0.042819776 0.1223262 0.0 5.5438766e-05 0.00012990202 0.00024709947 0.002138775
0.007905881 0.0 0.0 0.009074204 0.011689878 0.0 0.0 0.00026122664
0.0006915829 0.0 0.0 3.363871e-05 0.0 0.0 0.0 0.0025387558
0.0 0.0 0.021058885 0.0 0.0 0.0 0.05934093 0.022841802
0.0027058031 7.3936857e-10 0.0011945493 7.574114e-05 0.0012859401 0.0 0.0 0.0
0.052051168 0.0 1.3522165e-06 0.0026138218 0.0 0.0 0.0 0.0
0.0001115926 0.0 0.005119488 0.00018400222 0.0 0.0 0.012316238 0.00031207476
0.0 0.033607244 0.024027625 4.3600798e-05 0.0 0.0 0.0028510515 0.0
2.5772833e-06 0.0 1.6620405e-06 0.0038207395 0.0 0.0 0.0 1.6450558e-05
8.178023e-06 0.00096142647 4.2903716e-07 0.0 0.0 0.0 0.0 0.016147923
0.0 0.00035462264 0.0 0.0 0.00056851853 0.010405868 0.0083248615 0.013530023
0.0 0.0018806185 0.0 0.0 1.7784332e-06 0.032727946 0.0001592742 0.00010045309
0.0 0.0 0.0 0.0038485273 5.930367e-07 0.0 0.00031244807 0.0
4.9065075e-05 0.0 0.07909221 0.00073879905 0.021742653 0.0 0.0 0.0
0.00073145755 1.4055931e-05 0.032528263 2.3950039e-05 0.0 0.0003809034 0.0 0.0
0.0 0.015326562 0.0 0.0 0.00072065747 0.0 0.0 0.0
0.002262501 0.06812968 0.11941522 0.0 0.00027183787 0.00021617871 0.00026783705 0.0004916805
0.06896045 0.0 0.0 0.00012361773 0.018525088 0.0 0.0 9.511149e-05
0.0012683887 0.0 0.0 0.0008997879 0.0 0.0 0.0 4.1824675e-05
0.0 0.0 0.036039982 0.0 0.0 0.0 0.090571046 0.033554427
5.095026e-05 1.0018161e-09 8.907971e-06 0.0019655996 1.643644e-05 0.0 0.0 0.0
0.0028537575 0.0 1.2773049e-06 7.858011e-05 0.0 0.0 0.0 0.0
0.00034022125 0.0 0.009140143 0.00025916746 0.0 0.0 0.020082572 0.008143454
0.0 0.051494088 0.040505983 4.0493163e-05 0.0 0.0 0.004467352 0.0
0.00017718902 0.0 0.00028601682 0.079074934 0.0 0.0 0.0 0.00026922804
5.2953066e-05 0.0013339319 2.7330304e-07 0.0 0.0 0.0 0.0 0.025614116
0.0 0.00054053555 0.0 0.0 0.020007918 0.00031112603 8.933105e-05 0.08482298
0.0 0.0029465384 0.0 0.0 1.3529401e-06 0.054269023 9.1139824e-05 1.2696633e-05

exp_avg f4 [1, 128]
00000000: 6cc5 22bf 54c4 22bf 5afa 21bf ad51 223f
00000010: 23b8 223f e8c1 22bf 52c4 223f 99f4 203f
00000020: c65d 213f b948 22bf a88c 223f 04c8 213f
00000030: ddd8 21bf d71b 21bf 0e48 213f cb20 223f
00000040: 22a8 223f e08f 22bf 2a80 21bf dabf 223f
00000050: e74c 22bf 4cb8 22bf 01a3 213f 651a 223f
00000060: 3c7b 223f 2ccb 223f 194e 213f 17ba 203f
00000070: 7b1d 22bf a208 1f3f 59c6 223f 9742 213f
00000080: a8ba 1ebf 1d3b 21bf acb2 22bf f073 223f
00000090: ef55 223f 619c 21bf 1092 21bf 9dad 22bf
000000a0: 3faf 21bf 99e7 21bf 469c 213f e3b5 21bf
000000b0: 11b2 22bf 9cfe 21bf 57b8 22bf bc79 223f
000000c0: b2cc 213f 0619 20bf 43af 223f 2244 20bf
000000d0: 61b2 21bf eece 22bf 86cd 21bf 10da 20bf
000000e0: be91 213f c0e6 21bf b9b3 223f 2e94 21bf
000000f0: 02a0 223f a8bd 1f3f 78a5 22bf 1198 223f
00000100: 6c27 20bf 17b9 223f 23be 21bf 9183 22bf
00000110: 4e20 21bf e219 223f 851d 22bf 71ba 22bf
00000120: 4b9b 21bf bcef 20bf 3ab3 21bf 57a8 22bf
00000130: 37b1 21bf 0dac 22bf 2cea 1f3f 38c1 213f
00000140: 02b7 213f 8fb9 213f aa30 223f e3be 223f
00000150: 8eab 223f ba81 1f3f 58a5 213f 4eb5 223f
00000160: e6c6 22bf e6c0 21bf 95b7 223f 25f8 213f
00000170: 6bb4 223f 01b5 22bf cabc 21bf 11b0 223f
00000180: 54c1 21bf dbae 21bf fcad 213f 606e 223f
00000190: 01a6 213f ddbf 22bf f092 21bf 0ec2 22bf
000001a0: ca12 20bf 4d78 20bf ba92 21bf 19b8 21bf
000001b0: ca56 223f 9060 203f a2b8 20bf 725e 223f
000001c0: 489f 21bf fd6d 1f3f d5a5 1e3f 4aa5 22bf
000001d0: 5e81 223f 32b8 223f 07d4 203f 10ad 223f
000001e0: 428c 213f 86e9 203f 2b94 213f 22b0 22bf
000001f0: 6638 223f 35c1 223f ac72 223f 249b 213f
-0.6358249 -0.6358082 -0.6327263 0.6340588 0.6356222 -0.6357713 0.6358081 0.62873226
0.6303371 -0.63392216 0.63495874 0.63195825 -0.6322153 -0.62933105 0.6300057 0.6333129
0.635378 -0.63500786 -0.6308619 0.6357399 -0.63398594 -0.63562465 0.6313935 0.63321525
0.6346929 0.63591266 0.6300979 0.6278395 -0.63326234 0.6212255 0.63583905 0.62992233
-0.62003565 -0.62980825 -0.6355388 0.63458157 0.63412374 -0.6312924 -0.631135 -0.6354616
-0.6315803 -0.63244015 0.6312908 -0.6316816 -0.6355296 -0.6327913 -0.6356253 0.63467
0.63202965 -0.6253818 0.6354868 -0.6260396 -0.6316281 -0.63597 -0.6320423 -0.62832737
0.6311301 -0.6324272 0.63555485 -0.6311673 0.635254 0.6239877 -0.63533735 0.63513285
-0.62560153 0.63563675 -0.6318075 -0.63482004 -0.6293992 0.63320744 -0.63326293 -0.63565737
-0.63127583 -0.62865806 -0.63164103 -0.63538116 -0.63161033 -0.6354378 0.6246669 0.63185453
0.6316987 0.63173765 0.63355505 0.6357252 0.6354302 0.6230732 0.6314292 0.635579
-0.63584745 -0.63184965 0.63561374 0.63269264 0.63556546 -0.6355744 -0.63178694 0.63549906
-0.6318562 -0.63157433 0.63156104 0.6344967 0.63143927 -0.6357401 -0.63114834 -0.63577354
-0.6252867 -0.62683564 -0.6311451 -0.63171536 0.6341368 0.6264734 -0.6278173 0.6342536
-0.6313367 0.62277204 0.6197179 -0.6353346 0.6347865 0.6356231 0.6282353 0.6354532
0.6310464 0.6285633 0.6311671 -0.6355001 0.6336731 0.6357606 0.63456225 0.6312735
